…
I0814 21:32:57.715170   682 net.cpp:323] The NetState phase (0) differed from the phase (1) specified by a rule in layer val-data
I0814 21:32:57.715194   682 net.cpp:323] The NetState phase (0) differed from the phase (1) specified by a rule in layer accuracy
I0814 21:32:57.715344   682 net.cpp:52] Initializing net from parameters:
state {
phase: TRAIN
}
layer {
name: "train-data"
type: "Data"
top: "data"
top: "label"
include {
phase: TRAIN
}
transform_param {
mirror: true
crop_size: 227
mean_file: "/opt/DIGITS/digits/jobs/20190814-204945-55ec/mean.binaryproto"
}
data_param {
source: "/opt/DIGITS/digits/jobs/20190814-204945-55ec/train_db"
batch_size: 128
backend: LMDB
}
}
layer {
name: "conv1"
type: "Convolution"
bottom: "data"
top: "conv1"
param {
lr_mult: 1
decay_mult: 1
}
param {
lr_mult: 2
decay_mult: 0
}
convolution_param {
num_output: 96
kernel_size: 11
stride: 4
weight_filler {
type: "gaussian"
std: 0.01
}
bias_filler {
type: "constant"
value: 0
}
}
}
layer {
name: "relu1"
type: "ReLU"
bottom: "conv1"
top: "conv1"
}
layer {
name: "norm1"
type: "LRN"
bottom: "conv1"
top: "norm1"
lrn_param {
local_size: 5
alpha: 0.0001
beta: 0.75
}
}
layer {
name: "pool1"
type: "Pooling"
bottom: "norm1"
top: "pool1"
pooling_param {
pool: MAX
kernel_size: 3
stride: 2
}
}
layer {
name: "conv2"
type: "Convolution"
bottom: "pool1"
top: "conv2"
param {
lr_mult: 1
decay_mult: 1
}
param {
lr_mult: 2
decay_mult: 0
}
convolution_param {
num_output: 256
pad: 2
kernel_size: 5
group: 2
weight_filler {
type: "gaussian"
std: 0.01
}
bias_filler {
type: "constant"
value: 0.1
}
}
}
layer {
name: "relu2"
type: "ReLU"
bottom: "conv2"
top: "conv2"
}
layer {
name: "norm2"
type: "LRN"
bottom: "conv2"
top: "norm2"
lrn_param {
local_size: 5
alpha: 0.0001
beta: 0.75
}
}
layer {
name: "pool2"
type: "Pooling"
bottom: "norm2"
top: "pool2"
pooling_param {
pool: MAX
kernel_size: 3
stride: 2
}
}
layer {
name: "conv3"
type: "Convolution"
bottom: "pool2"
top: "conv3"
param {
lr_mult: 1
decay_mult: 1
}
param {
lr_mult: 2
decay_mult: 0
}
convolution_param {
num_output: 384
pad: 1
kernel_size: 3
weight_filler {
type: "gaussian"
std: 0.01
}
bias_filler {
type: "constant"
value: 0
}
}
}
layer {
name: "relu3"
type: "ReLU"
bottom: "conv3"
top: "conv3"
}
layer {
name: "conv4"
type: "Convolution"
bottom: "conv3"
top: "conv4"
param {
lr_mult: 1
decay_mult: 1
}
param {
lr_mult: 2
decay_mult: 0
}
convolution_param {
num_output: 384
pad: 1
kernel_size: 3
group: 2
weight_filler {
type: "gaussian"
std: 0.01
}
bias_filler {
type: "constant"
value: 0.1
}
}
}
layer {
name: "relu4"
type: "ReLU"
bottom: "conv4"
top: "conv4"
}
layer {
name: "conv5"
type: "Convolution"
bottom: "conv4"
top: "conv5"
param {
lr_mult: 1
decay_mult: 1
}
param {
lr_mult: 2
decay_mult: 0
}
convolution_param {
num_output: 256
pad: 1
kernel_size: 3
group: 2
weight_filler {
type: "gaussian"
std: 0.01
}
bias_filler {
type: "constant"
value: 0.1
}
}
}
layer {
name: "relu5"
type: "ReLU"
bottom: "conv5"
top: "conv5"
}
layer {
name: "pool5"
type: "Pooling"
bottom: "conv5"
top: "pool5"
pooling_param {
pool: MAX
kernel_size: 3
stride: 2
}
}
layer {
name: "fc6"
type: "InnerProduct"
bottom: "pool5"
top: "fc6"
param {
lr_mult: 1
decay_mult: 1
}
param {
lr_mult: 2
decay_mult: 0
}
inner_product_param {
num_output: 4096
weight_filler {
type: "gaussian"
std: 0.005
}
bias_filler {
type: "constant"
value: 0.1
}
}
}
layer {
name: "relu6"
type: "ReLU"
bottom: "fc6"
top: "fc6"
}
layer {
name: "drop6"
type: "Dropout"
bottom: "fc6"
top: "fc6"
dropout_param {
dropout_ratio: 0.5
}
}
layer {
name: "fc7"
type: "InnerProduct"
bottom: "fc6"
top: "fc7"
param {
lr_mult: 1
decay_mult: 1
}
param {
lr_mult: 2
decay_mult: 0
}
inner_product_param {
num_output: 4096
weight_filler {
type: "gaussian"
std: 0.005
}
bias_filler {
type: "constant"
value: 0.1
}
}
}
layer {
name: "relu7"
type: "ReLU"
bottom: "fc7"
top: "fc7"
}
layer {
name: "drop7"
type: "Dropout"
bottom: "fc7"
top: "fc7"
dropout_param {
dropout_ratio: 0.5
}
}
layer {
name: "fc8"
type: "InnerProduct"
bottom: "fc7"
top: "fc8"
param {
lr_mult: 1
decay_mult: 1
}
param {
lr_mult: 2
decay_mult: 0
}
inner_product_param {
num_output: 5
weight_filler {
type: "gaussian"
std: 0.01
}
bias_filler {
type: "constant"
value: 0
}
}
}
layer {
name: "loss"
type: "SoftmaxWithLoss"
bottom: "fc8"
bottom: "label"
top: "loss"
}
I0814 21:32:57.715471   682 layer_factory.hpp:77] Creating layer train-data
I0814 21:32:57.716112   682 net.cpp:94] Creating Layer train-data
I0814 21:32:57.716133   682 net.cpp:409] train-data -> data
I0814 21:32:57.716166   682 net.cpp:409] train-data -> label
I0814 21:32:57.716179   682 data_transformer.cpp:25] Loading mean file from: /opt/DIGITS/digits/jobs/20190814-204945-55ec/mean.binaryproto
I0814 21:32:57.717103   689 db_lmdb.cpp:35] Opened lmdb /opt/DIGITS/digits/jobs/20190814-204945-55ec/train_db
I0814 21:32:57.725407   682 data_layer.cpp:78] ReshapePrefetch 128, 3, 227, 227
I0814 21:32:57.725467   682 data_layer.cpp:83] output data size: 128,3,227,227
I0814 21:32:57.909308   682 net.cpp:144] Setting up train-data
I0814 21:32:57.909360   682 net.cpp:151] Top shape: 128 3 227 227 (19787136)
I0814 21:32:57.909376   682 net.cpp:151] Top shape: 128 (128)
I0814 21:32:57.909380   682 net.cpp:159] Memory required for data: 79149056
I0814 21:32:57.909399   682 layer_factory.hpp:77] Creating layer conv1
I0814 21:32:57.909435   682 net.cpp:94] Creating Layer conv1
I0814 21:32:57.909442   682 net.cpp:435] conv1 <- data
I0814 21:32:57.909461   682 net.cpp:409] conv1 -> conv1
I0814 21:32:57.910326   682 net.cpp:144] Setting up conv1
I0814 21:32:57.910341   682 net.cpp:151] Top shape: 128 96 55 55 (37171200)
I0814 21:32:57.910344   682 net.cpp:159] Memory required for data: 227833856
I0814 21:32:57.910363   682 layer_factory.hpp:77] Creating layer relu1
I0814 21:32:57.910374   682 net.cpp:94] Creating Layer relu1
I0814 21:32:57.910378   682 net.cpp:435] relu1 <- conv1
I0814 21:32:57.910388   682 net.cpp:396] relu1 -> conv1 (in-place)
I0814 21:32:57.910410   682 net.cpp:144] Setting up relu1
I0814 21:32:57.910416   682 net.cpp:151] Top shape: 128 96 55 55 (37171200)
I0814 21:32:57.910419   682 net.cpp:159] Memory required for data: 376518656
I0814 21:32:57.910423   682 layer_factory.hpp:77] Creating layer norm1
I0814 21:32:57.910434   682 net.cpp:94] Creating Layer norm1
I0814 21:32:57.910436   682 net.cpp:435] norm1 <- conv1
I0814 21:32:57.910442   682 net.cpp:409] norm1 -> norm1
I0814 21:32:57.910755   682 net.cpp:144] Setting up norm1
I0814 21:32:57.910768   682 net.cpp:151] Top shape: 128 96 55 55 (37171200)
I0814 21:32:57.910773   682 net.cpp:159] Memory required for data: 525203456
I0814 21:32:57.910775   682 layer_factory.hpp:77] Creating layer pool1
I0814 21:32:57.910785   682 net.cpp:94] Creating Layer pool1
I0814 21:32:57.910790   682 net.cpp:435] pool1 <- norm1
I0814 21:32:57.910796   682 net.cpp:409] pool1 -> pool1
I0814 21:32:57.910856   682 net.cpp:144] Setting up pool1
I0814 21:32:57.910863   682 net.cpp:151] Top shape: 128 96 27 27 (8957952)
I0814 21:32:57.910866   682 net.cpp:159] Memory required for data: 561035264
I0814 21:32:57.910871   682 layer_factory.hpp:77] Creating layer conv2
I0814 21:32:57.910879   682 net.cpp:94] Creating Layer conv2
I0814 21:32:57.910883   682 net.cpp:435] conv2 <- pool1
I0814 21:32:57.910900   682 net.cpp:409] conv2 -> conv2
I0814 21:32:57.915153   682 net.cpp:144] Setting up conv2
I0814 21:32:57.915168   682 net.cpp:151] Top shape: 128 256 27 27 (23887872)
I0814 21:32:57.915171   682 net.cpp:159] Memory required for data: 656586752
I0814 21:32:57.915179   682 layer_factory.hpp:77] Creating layer relu2
I0814 21:32:57.915185   682 net.cpp:94] Creating Layer relu2
I0814 21:32:57.915189   682 net.cpp:435] relu2 <- conv2
I0814 21:32:57.915194   682 net.cpp:396] relu2 -> conv2 (in-place)
I0814 21:32:57.915201   682 net.cpp:144] Setting up relu2
I0814 21:32:57.915205   682 net.cpp:151] Top shape: 128 256 27 27 (23887872)
I0814 21:32:57.915208   682 net.cpp:159] Memory required for data: 752138240
I0814 21:32:57.915211   682 layer_factory.hpp:77] Creating layer norm2
I0814 21:32:57.915216   682 net.cpp:94] Creating Layer norm2
I0814 21:32:57.915220   682 net.cpp:435] norm2 <- conv2
I0814 21:32:57.915225   682 net.cpp:409] norm2 -> norm2
I0814 21:32:57.915261   682 net.cpp:144] Setting up norm2
I0814 21:32:57.915267   682 net.cpp:151] Top shape: 128 256 27 27 (23887872)
I0814 21:32:57.915271   682 net.cpp:159] Memory required for data: 847689728
I0814 21:32:57.915273   682 layer_factory.hpp:77] Creating layer pool2
I0814 21:32:57.915280   682 net.cpp:94] Creating Layer pool2
I0814 21:32:57.915283   682 net.cpp:435] pool2 <- norm2
I0814 21:32:57.915287   682 net.cpp:409] pool2 -> pool2
I0814 21:32:57.915314   682 net.cpp:144] Setting up pool2
I0814 21:32:57.915319   682 net.cpp:151] Top shape: 128 256 13 13 (5537792)
I0814 21:32:57.915323   682 net.cpp:159] Memory required for data: 869840896
I0814 21:32:57.915325   682 layer_factory.hpp:77] Creating layer conv3
I0814 21:32:57.915333   682 net.cpp:94] Creating Layer conv3
I0814 21:32:57.915336   682 net.cpp:435] conv3 <- pool2
I0814 21:32:57.915341   682 net.cpp:409] conv3 -> conv3
I0814 21:32:57.936275   682 net.cpp:144] Setting up conv3
I0814 21:32:57.936313   682 net.cpp:151] Top shape: 128 384 13 13 (8306688)
I0814 21:32:57.936317   682 net.cpp:159] Memory required for data: 903067648
I0814 21:32:57.936329   682 layer_factory.hpp:77] Creating layer relu3
I0814 21:32:57.936337   682 net.cpp:94] Creating Layer relu3
I0814 21:32:57.936342   682 net.cpp:435] relu3 <- conv3
I0814 21:32:57.936348   682 net.cpp:396] relu3 -> conv3 (in-place)
I0814 21:32:57.936357   682 net.cpp:144] Setting up relu3
I0814 21:32:57.936362   682 net.cpp:151] Top shape: 128 384 13 13 (8306688)
I0814 21:32:57.936364   682 net.cpp:159] Memory required for data: 936294400
I0814 21:32:57.936367   682 layer_factory.hpp:77] Creating layer conv4
I0814 21:32:57.936378   682 net.cpp:94] Creating Layer conv4
I0814 21:32:57.936380   682 net.cpp:435] conv4 <- conv3
I0814 21:32:57.936388   682 net.cpp:409] conv4 -> conv4
I0814 21:32:57.944546   682 net.cpp:144] Setting up conv4
I0814 21:32:57.944581   682 net.cpp:151] Top shape: 128 384 13 13 (8306688)
I0814 21:32:57.944583   682 net.cpp:159] Memory required for data: 969521152
I0814 21:32:57.944591   682 layer_factory.hpp:77] Creating layer relu4
I0814 21:32:57.944599   682 net.cpp:94] Creating Layer relu4
I0814 21:32:57.944603   682 net.cpp:435] relu4 <- conv4
I0814 21:32:57.944638   682 net.cpp:396] relu4 -> conv4 (in-place)
I0814 21:32:57.944648   682 net.cpp:144] Setting up relu4
I0814 21:32:57.944653   682 net.cpp:151] Top shape: 128 384 13 13 (8306688)
I0814 21:32:57.944656   682 net.cpp:159] Memory required for data: 1002747904
I0814 21:32:57.944659   682 layer_factory.hpp:77] Creating layer conv5
I0814 21:32:57.944669   682 net.cpp:94] Creating Layer conv5
I0814 21:32:57.944674   682 net.cpp:435] conv5 <- conv4
I0814 21:32:57.944679   682 net.cpp:409] conv5 -> conv5
I0814 21:32:57.962122   682 net.cpp:144] Setting up conv5
I0814 21:32:57.962149   682 net.cpp:151] Top shape: 128 256 13 13 (5537792)
I0814 21:32:57.962152   682 net.cpp:159] Memory required for data: 1024899072
I0814 21:32:57.962164   682 layer_factory.hpp:77] Creating layer relu5
I0814 21:32:57.962172   682 net.cpp:94] Creating Layer relu5
I0814 21:32:57.962177   682 net.cpp:435] relu5 <- conv5
I0814 21:32:57.962184   682 net.cpp:396] relu5 -> conv5 (in-place)
I0814 21:32:57.962196   682 net.cpp:144] Setting up relu5
I0814 21:32:57.962201   682 net.cpp:151] Top shape: 128 256 13 13 (5537792)
I0814 21:32:57.962204   682 net.cpp:159] Memory required for data: 1047050240
I0814 21:32:57.962208   682 layer_factory.hpp:77] Creating layer pool5
I0814 21:32:57.962214   682 net.cpp:94] Creating Layer pool5
I0814 21:32:57.962218   682 net.cpp:435] pool5 <- conv5
I0814 21:32:57.962224   682 net.cpp:409] pool5 -> pool5
I0814 21:32:57.962261   682 net.cpp:144] Setting up pool5
I0814 21:32:57.962268   682 net.cpp:151] Top shape: 128 256 6 6 (1179648)
I0814 21:32:57.962271   682 net.cpp:159] Memory required for data: 1051768832
I0814 21:32:57.962275   682 layer_factory.hpp:77] Creating layer fc6
I0814 21:32:57.962288   682 net.cpp:94] Creating Layer fc6
I0814 21:32:57.962292   682 net.cpp:435] fc6 <- pool5
I0814 21:32:57.962298   682 net.cpp:409] fc6 -> fc6
I0814 21:32:58.462157   682 net.cpp:144] Setting up fc6
I0814 21:32:58.462205   682 net.cpp:151] Top shape: 128 4096 (524288)
I0814 21:32:58.462209   682 net.cpp:159] Memory required for data: 1053865984
I0814 21:32:58.462220   682 layer_factory.hpp:77] Creating layer relu6
I0814 21:32:58.462230   682 net.cpp:94] Creating Layer relu6
I0814 21:32:58.462236   682 net.cpp:435] relu6 <- fc6
I0814 21:32:58.462244   682 net.cpp:396] relu6 -> fc6 (in-place)
I0814 21:32:58.462258   682 net.cpp:144] Setting up relu6
I0814 21:32:58.462265   682 net.cpp:151] Top shape: 128 4096 (524288)
I0814 21:32:58.462267   682 net.cpp:159] Memory required for data: 1055963136
I0814 21:32:58.462270   682 layer_factory.hpp:77] Creating layer drop6
I0814 21:32:58.462281   682 net.cpp:94] Creating Layer drop6
I0814 21:32:58.462285   682 net.cpp:435] drop6 <- fc6
I0814 21:32:58.462291   682 net.cpp:396] drop6 -> fc6 (in-place)
I0814 21:32:58.462313   682 net.cpp:144] Setting up drop6
I0814 21:32:58.462319   682 net.cpp:151] Top shape: 128 4096 (524288)
I0814 21:32:58.462322   682 net.cpp:159] Memory required for data: 1058060288
I0814 21:32:58.462325   682 layer_factory.hpp:77] Creating layer fc7
I0814 21:32:58.462334   682 net.cpp:94] Creating Layer fc7
I0814 21:32:58.462338   682 net.cpp:435] fc7 <- fc6
I0814 21:32:58.462344   682 net.cpp:409] fc7 -> fc7
I0814 21:32:58.672479   682 net.cpp:144] Setting up fc7
I0814 21:32:58.672509   682 net.cpp:151] Top shape: 128 4096 (524288)
I0814 21:32:58.672513   682 net.cpp:159] Memory required for data: 1060157440
I0814 21:32:58.672524   682 layer_factory.hpp:77] Creating layer relu7
I0814 21:32:58.672535   682 net.cpp:94] Creating Layer relu7
I0814 21:32:58.672540   682 net.cpp:435] relu7 <- fc7
I0814 21:32:58.672547   682 net.cpp:396] relu7 -> fc7 (in-place)
I0814 21:32:58.672574   682 net.cpp:144] Setting up relu7
I0814 21:32:58.672580   682 net.cpp:151] Top shape: 128 4096 (524288)
I0814 21:32:58.672582   682 net.cpp:159] Memory required for data: 1062254592
I0814 21:32:58.672586   682 layer_factory.hpp:77] Creating layer drop7
I0814 21:32:58.672595   682 net.cpp:94] Creating Layer drop7
I0814 21:32:58.672597   682 net.cpp:435] drop7 <- fc7
I0814 21:32:58.672632   682 net.cpp:396] drop7 -> fc7 (in-place)
I0814 21:32:58.672662   682 net.cpp:144] Setting up drop7
I0814 21:32:58.672668   682 net.cpp:151] Top shape: 128 4096 (524288)
I0814 21:32:58.672672   682 net.cpp:159] Memory required for data: 1064351744
I0814 21:32:58.672675   682 layer_factory.hpp:77] Creating layer fc8
I0814 21:32:58.672683   682 net.cpp:94] Creating Layer fc8
I0814 21:32:58.672688   682 net.cpp:435] fc8 <- fc7
I0814 21:32:58.672694   682 net.cpp:409] fc8 -> fc8
I0814 21:32:58.673713   682 net.cpp:144] Setting up fc8
I0814 21:32:58.673727   682 net.cpp:151] Top shape: 128 5 (640)
I0814 21:32:58.673732   682 net.cpp:159] Memory required for data: 1064354304
I0814 21:32:58.673738   682 layer_factory.hpp:77] Creating layer loss
I0814 21:32:58.673745   682 net.cpp:94] Creating Layer loss
I0814 21:32:58.673749   682 net.cpp:435] loss <- fc8
I0814 21:32:58.673754   682 net.cpp:435] loss <- label
I0814 21:32:58.673763   682 net.cpp:409] loss -> loss
I0814 21:32:58.673782   682 layer_factory.hpp:77] Creating layer loss
…
I0814 21:32:58.674412   682 solver.cpp:181] Creating test net (#0) specified by net file: train_val.prototxt
I0814 21:32:58.674451   682 net.cpp:323] The NetState phase (1) differed from the phase (0) specified by a rule in layer train-data
I0814 21:32:58.674592   682 net.cpp:52] Initializing net from parameters:
state {
phase: TEST
}
layer {
name: "val-data"
type: "Data"
top: "data"
top: "label"
include {
phase: TEST
}
transform_param {
crop_size: 227
mean_file: "/opt/DIGITS/digits/jobs/20190814-204945-55ec/mean.binaryproto"
}
data_param {
source: "/opt/DIGITS/digits/jobs/20190814-204945-55ec/val_db"
batch_size: 32
backend: LMDB
}
}
layer {
name: "conv1"
type: "Convolution"
bottom: "data"
top: "conv1"
param {
lr_mult: 1
decay_mult: 1
}
param {
lr_mult: 2
decay_mult: 0
}
convolution_param {
num_output: 96
kernel_size: 11
stride: 4
weight_filler {
type: "gaussian"
std: 0.01
}
bias_filler {
type: "constant"
value: 0
}
}
}
layer {
name: "relu1"
type: "ReLU"
bottom: "conv1"
top: "conv1"
}
layer {
name: "norm1"
type: "LRN"
bottom: "conv1"
top: "norm1"
lrn_param {
local_size: 5
alpha: 0.0001
beta: 0.75
}
}
layer {
name: "pool1"
type: "Pooling"
bottom: "norm1"
top: "pool1"
pooling_param {
pool: MAX
kernel_size: 3
stride: 2
}
}
layer {
name: "conv2"
type: "Convolution"
bottom: "pool1"
top: "conv2"
param {
lr_mult: 1
decay_mult: 1
}
param {
lr_mult: 2
decay_mult: 0
}
convolution_param {
num_output: 256
pad: 2
kernel_size: 5
group: 2
weight_filler {
type: "gaussian"
std: 0.01
}
bias_filler {
type: "constant"
value: 0.1
}
}
}
layer {
name: "relu2"
type: "ReLU"
bottom: "conv2"
top: "conv2"
}
layer {
name: "norm2"
type: "LRN"
bottom: "conv2"
top: "norm2"
lrn_param {
local_size: 5
alpha: 0.0001
beta: 0.75
}
}
layer {
name: "pool2"
type: "Pooling"
bottom: "norm2"
top: "pool2"
pooling_param {
pool: MAX
kernel_size: 3
stride: 2
}
}
layer {
name: "conv3"
type: "Convolution"
bottom: "pool2"
top: "conv3"
param {
lr_mult: 1
decay_mult: 1
}
param {
lr_mult: 2
decay_mult: 0
}
convolution_param {
num_output: 384
pad: 1
kernel_size: 3
weight_filler {
type: "gaussian"
std: 0.01
}
bias_filler {
type: "constant"
value: 0
}
}
}
layer {
name: "relu3"
type: "ReLU"
bottom: "conv3"
top: "conv3"
}
layer {
name: "conv4"
type: "Convolution"
bottom: "conv3"
top: "conv4"
param {
lr_mult: 1
decay_mult: 1
}
param {
lr_mult: 2
decay_mult: 0
}
convolution_param {
num_output: 384
pad: 1
kernel_size: 3
group: 2
weight_filler {
type: "gaussian"
std: 0.01
}
bias_filler {
type: "constant"
value: 0.1
}
}
}
layer {
name: "relu4"
type: "ReLU"
bottom: "conv4"
top: "conv4"
}
layer {
name: "conv5"
type: "Convolution"
bottom: "conv4"
top: "conv5"
param {
lr_mult: 1
decay_mult: 1
}
param {
lr_mult: 2
decay_mult: 0
}
convolution_param {
num_output: 256
pad: 1
kernel_size: 3
group: 2
weight_filler {
type: "gaussian"
std: 0.01
}
bias_filler {
type: "constant"
value: 0.1
}
}
}
layer {
name: "relu5"
type: "ReLU"
bottom: "conv5"
top: "conv5"
}
layer {
name: "pool5"
type: "Pooling"
bottom: "conv5"
top: "pool5"
pooling_param {
pool: MAX
kernel_size: 3
stride: 2
}
}
layer {
name: "fc6"
type: "InnerProduct"
bottom: "pool5"
top: "fc6"
param {
lr_mult: 1
decay_mult: 1
}
param {
lr_mult: 2
decay_mult: 0
}
inner_product_param {
num_output: 4096
weight_filler {
type: "gaussian"
std: 0.005
}
bias_filler {
type: "constant"
value: 0.1
}
}
}
layer {
name: "relu6"
type: "ReLU"
bottom: "fc6"
top: "fc6"
}
layer {
name: "drop6"
type: "Dropout"
bottom: "fc6"
top: "fc6"
dropout_param {
dropout_ratio: 0.5
}
}
layer {
name: "fc7"
type: "InnerProduct"
bottom: "fc6"
top: "fc7"
param {
lr_mult: 1
decay_mult: 1
}
param {
lr_mult: 2
decay_mult: 0
}
inner_product_param {
num_output: 4096
weight_filler {
type: "gaussian"
std: 0.005
}
bias_filler {
type: "constant"
value: 0.1
}
}
}
layer {
name: "relu7"
type: "ReLU"
bottom: "fc7"
top: "fc7"
}
layer {
name: "drop7"
type: "Dropout"
bottom: "fc7"
top: "fc7"
dropout_param {
dropout_ratio: 0.5
}
}
layer {
name: "fc8"
type: "InnerProduct"
bottom: "fc7"
top: "fc8"
param {
lr_mult: 1
decay_mult: 1
}
param {
lr_mult: 2
decay_mult: 0
}
inner_product_param {
num_output: 5
weight_filler {
type: "gaussian"
std: 0.01
}
bias_filler {
type: "constant"
value: 0
}
}
}
layer {
name: "accuracy"
type: "Accuracy"
bottom: "fc8"
bottom: "label"
top: "accuracy"
include {
phase: TEST
}
}
layer {
name: "loss"
type: "SoftmaxWithLoss"
bottom: "fc8"
bottom: "label"
top: "loss"
}
I0814 21:32:58.674722   682 layer_factory.hpp:77] Creating layer val-data
I0814 21:32:58.675029   682 net.cpp:94] Creating Layer val-data
I0814 21:32:58.675041   682 net.cpp:409] val-data -> data
I0814 21:32:58.675051   682 net.cpp:409] val-data -> label
I0814 21:32:58.675060   682 data_transformer.cpp:25] Loading mean file from: /opt/DIGITS/digits/jobs/20190814-204945-55ec/mean.binaryproto
I0814 21:32:58.675746   695 db_lmdb.cpp:35] Opened lmdb /opt/DIGITS/digits/jobs/20190814-204945-55ec/val_db
I0814 21:32:58.682299   682 data_layer.cpp:78] ReshapePrefetch 32, 3, 227, 227
I0814 21:32:58.682364   682 data_layer.cpp:83] output data size: 32,3,227,227
I0814 21:32:58.719691   682 net.cpp:144] Setting up val-data
I0814 21:32:58.719722   682 net.cpp:151] Top shape: 32 3 227 227 (4946784)
I0814 21:32:58.719727   682 net.cpp:151] Top shape: 32 (32)
I0814 21:32:58.719729   682 net.cpp:159] Memory required for data: 19787264
I0814 21:32:58.719738   682 layer_factory.hpp:77] Creating layer label_val-data_1_split
I0814 21:32:58.719753   682 net.cpp:94] Creating Layer label_val-data_1_split
I0814 21:32:58.719758   682 net.cpp:435] label_val-data_1_split <- label
I0814 21:32:58.719766   682 net.cpp:409] label_val-data_1_split -> label_val-data_1_split_0
I0814 21:32:58.719777   682 net.cpp:409] label_val-data_1_split -> label_val-data_1_split_1
I0814 21:32:58.719867   682 net.cpp:144] Setting up label_val-data_1_split
I0814 21:32:58.719875   682 net.cpp:151] Top shape: 32 (32)
I0814 21:32:58.719879   682 net.cpp:151] Top shape: 32 (32)
I0814 21:32:58.719882   682 net.cpp:159] Memory required for data: 19787520
I0814 21:32:58.719887   682 layer_factory.hpp:77] Creating layer conv1
I0814 21:32:58.719902   682 net.cpp:94] Creating Layer conv1
I0814 21:32:58.719905   682 net.cpp:435] conv1 <- data
I0814 21:32:58.719913   682 net.cpp:409] conv1 -> conv1
I0814 21:32:58.720865   682 net.cpp:144] Setting up conv1
I0814 21:32:58.720885   682 net.cpp:151] Top shape: 32 96 55 55 (9292800)
I0814 21:32:58.720888   682 net.cpp:159] Memory required for data: 56958720
I0814 21:32:58.720916   682 layer_factory.hpp:77] Creating layer relu1
I0814 21:32:58.720924   682 net.cpp:94] Creating Layer relu1
I0814 21:32:58.720928   682 net.cpp:435] relu1 <- conv1
I0814 21:32:58.720934   682 net.cpp:396] relu1 -> conv1 (in-place)
I0814 21:32:58.720945   682 net.cpp:144] Setting up relu1
I0814 21:32:58.720965   682 net.cpp:151] Top shape: 32 96 55 55 (9292800)
I0814 21:32:58.720968   682 net.cpp:159] Memory required for data: 94129920
I0814 21:32:58.720973   682 layer_factory.hpp:77] Creating layer norm1
I0814 21:32:58.720980   682 net.cpp:94] Creating Layer norm1
I0814 21:32:58.720984   682 net.cpp:435] norm1 <- conv1
I0814 21:32:58.720990   682 net.cpp:409] norm1 -> norm1
I0814 21:32:58.721038   682 net.cpp:144] Setting up norm1
I0814 21:32:58.721045   682 net.cpp:151] Top shape: 32 96 55 55 (9292800)
I0814 21:32:58.721048   682 net.cpp:159] Memory required for data: 131301120
I0814 21:32:58.721052   682 layer_factory.hpp:77] Creating layer pool1
I0814 21:32:58.721060   682 net.cpp:94] Creating Layer pool1
I0814 21:32:58.721062   682 net.cpp:435] pool1 <- norm1
I0814 21:32:58.721068   682 net.cpp:409] pool1 -> pool1
I0814 21:32:58.721103   682 net.cpp:144] Setting up pool1
I0814 21:32:58.721110   682 net.cpp:151] Top shape: 32 96 27 27 (2239488)
I0814 21:32:58.721113   682 net.cpp:159] Memory required for data: 140259072
I0814 21:32:58.721117   682 layer_factory.hpp:77] Creating layer conv2
I0814 21:32:58.721127   682 net.cpp:94] Creating Layer conv2
I0814 21:32:58.721130   682 net.cpp:435] conv2 <- pool1
I0814 21:32:58.721138   682 net.cpp:409] conv2 -> conv2
I0814 21:32:58.726956   682 net.cpp:144] Setting up conv2
I0814 21:32:58.726974   682 net.cpp:151] Top shape: 32 256 27 27 (5971968)
I0814 21:32:58.726977   682 net.cpp:159] Memory required for data: 164146944
I0814 21:32:58.726987   682 layer_factory.hpp:77] Creating layer relu2
I0814 21:32:58.726995   682 net.cpp:94] Creating Layer relu2
I0814 21:32:58.727000   682 net.cpp:435] relu2 <- conv2
I0814 21:32:58.727010   682 net.cpp:396] relu2 -> conv2 (in-place)
I0814 21:32:58.727017   682 net.cpp:144] Setting up relu2
I0814 21:32:58.727022   682 net.cpp:151] Top shape: 32 256 27 27 (5971968)
I0814 21:32:58.727025   682 net.cpp:159] Memory required for data: 188034816
I0814 21:32:58.727028   682 layer_factory.hpp:77] Creating layer norm2
I0814 21:32:58.727036   682 net.cpp:94] Creating Layer norm2
I0814 21:32:58.727039   682 net.cpp:435] norm2 <- conv2
I0814 21:32:58.727046   682 net.cpp:409] norm2 -> norm2
I0814 21:32:58.727087   682 net.cpp:144] Setting up norm2
I0814 21:32:58.727097   682 net.cpp:151] Top shape: 32 256 27 27 (5971968)
I0814 21:32:58.727099   682 net.cpp:159] Memory required for data: 211922688
I0814 21:32:58.727113   682 layer_factory.hpp:77] Creating layer pool2
I0814 21:32:58.727119   682 net.cpp:94] Creating Layer pool2
I0814 21:32:58.727123   682 net.cpp:435] pool2 <- norm2
I0814 21:32:58.727134   682 net.cpp:409] pool2 -> pool2
I0814 21:32:58.727164   682 net.cpp:144] Setting up pool2
I0814 21:32:58.727170   682 net.cpp:151] Top shape: 32 256 13 13 (1384448)
I0814 21:32:58.727174   682 net.cpp:159] Memory required for data: 217460480
I0814 21:32:58.727176   682 layer_factory.hpp:77] Creating layer conv3
I0814 21:32:58.727186   682 net.cpp:94] Creating Layer conv3
I0814 21:32:58.727190   682 net.cpp:435] conv3 <- pool2
I0814 21:32:58.727202   682 net.cpp:409] conv3 -> conv3
I0814 21:32:58.738461   682 net.cpp:144] Setting up conv3
I0814 21:32:58.738497   682 net.cpp:151] Top shape: 32 384 13 13 (2076672)
I0814 21:32:58.738517   682 net.cpp:159] Memory required for data: 225767168
I0814 21:32:58.738530   682 layer_factory.hpp:77] Creating layer relu3
I0814 21:32:58.738543   682 net.cpp:94] Creating Layer relu3
I0814 21:32:58.738548   682 net.cpp:435] relu3 <- conv3
I0814 21:32:58.738555   682 net.cpp:396] relu3 -> conv3 (in-place)
I0814 21:32:58.738567   682 net.cpp:144] Setting up relu3
I0814 21:32:58.738572   682 net.cpp:151] Top shape: 32 384 13 13 (2076672)
I0814 21:32:58.738575   682 net.cpp:159] Memory required for data: 234073856
I0814 21:32:58.738579   682 layer_factory.hpp:77] Creating layer conv4
I0814 21:32:58.738590   682 net.cpp:94] Creating Layer conv4
I0814 21:32:58.738592   682 net.cpp:435] conv4 <- conv3
I0814 21:32:58.738600   682 net.cpp:409] conv4 -> conv4
I0814 21:32:58.755164   682 net.cpp:144] Setting up conv4
I0814 21:32:58.755188   682 net.cpp:151] Top shape: 32 384 13 13 (2076672)
I0814 21:32:58.755195   682 net.cpp:159] Memory required for data: 242380544
I0814 21:32:58.755206   682 layer_factory.hpp:77] Creating layer relu4
I0814 21:32:58.755216   682 net.cpp:94] Creating Layer relu4
I0814 21:32:58.755223   682 net.cpp:435] relu4 <- conv4
I0814 21:32:58.755232   682 net.cpp:396] relu4 -> conv4 (in-place)
I0814 21:32:58.755244   682 net.cpp:144] Setting up relu4
I0814 21:32:58.755251   682 net.cpp:151] Top shape: 32 384 13 13 (2076672)
I0814 21:32:58.755256   682 net.cpp:159] Memory required for data: 250687232
I0814 21:32:58.755261   682 layer_factory.hpp:77] Creating layer conv5
I0814 21:32:58.755275   682 net.cpp:94] Creating Layer conv5
I0814 21:32:58.755280   682 net.cpp:435] conv5 <- conv4
I0814 21:32:58.755290   682 net.cpp:409] conv5 -> conv5
I0814 21:32:58.763952   682 net.cpp:144] Setting up conv5
I0814 21:32:58.763974   682 net.cpp:151] Top shape: 32 256 13 13 (1384448)
I0814 21:32:58.763980   682 net.cpp:159] Memory required for data: 256225024
I0814 21:32:58.763995   682 layer_factory.hpp:77] Creating layer relu5
I0814 21:32:58.764004   682 net.cpp:94] Creating Layer relu5
I0814 21:32:58.764010   682 net.cpp:435] relu5 <- conv5
I0814 21:32:58.764072   682 net.cpp:396] relu5 -> conv5 (in-place)
I0814 21:32:58.764086   682 net.cpp:144] Setting up relu5
I0814 21:32:58.764093   682 net.cpp:151] Top shape: 32 256 13 13 (1384448)
I0814 21:32:58.764098   682 net.cpp:159] Memory required for data: 261762816
I0814 21:32:58.764103   682 layer_factory.hpp:77] Creating layer pool5
I0814 21:32:58.764115   682 net.cpp:94] Creating Layer pool5
I0814 21:32:58.764122   682 net.cpp:435] pool5 <- conv5
I0814 21:32:58.764129   682 net.cpp:409] pool5 -> pool5
I0814 21:32:58.764214   682 net.cpp:144] Setting up pool5
I0814 21:32:58.764225   682 net.cpp:151] Top shape: 32 256 6 6 (294912)
I0814 21:32:58.764230   682 net.cpp:159] Memory required for data: 262942464
I0814 21:32:58.764236   682 layer_factory.hpp:77] Creating layer fc6
I0814 21:32:58.764247   682 net.cpp:94] Creating Layer fc6
I0814 21:32:58.764253   682 net.cpp:435] fc6 <- pool5
I0814 21:32:58.764262   682 net.cpp:409] fc6 -> fc6
I0814 21:32:59.260982   682 net.cpp:144] Setting up fc6
I0814 21:32:59.261023   682 net.cpp:151] Top shape: 32 4096 (131072)
I0814 21:32:59.261029   682 net.cpp:159] Memory required for data: 263466752
I0814 21:32:59.261039   682 layer_factory.hpp:77] Creating layer relu6
I0814 21:32:59.261051   682 net.cpp:94] Creating Layer relu6
I0814 21:32:59.261056   682 net.cpp:435] relu6 <- fc6
I0814 21:32:59.261065   682 net.cpp:396] relu6 -> fc6 (in-place)
I0814 21:32:59.261078   682 net.cpp:144] Setting up relu6
I0814 21:32:59.261083   682 net.cpp:151] Top shape: 32 4096 (131072)
I0814 21:32:59.261086   682 net.cpp:159] Memory required for data: 263991040
I0814 21:32:59.261090   682 layer_factory.hpp:77] Creating layer drop6
I0814 21:32:59.261098   682 net.cpp:94] Creating Layer drop6
I0814 21:32:59.261102   682 net.cpp:435] drop6 <- fc6
I0814 21:32:59.261107   682 net.cpp:396] drop6 -> fc6 (in-place)
I0814 21:32:59.261135   682 net.cpp:144] Setting up drop6
I0814 21:32:59.261142   682 net.cpp:151] Top shape: 32 4096 (131072)
I0814 21:32:59.261144   682 net.cpp:159] Memory required for data: 264515328
I0814 21:32:59.261148   682 layer_factory.hpp:77] Creating layer fc7
I0814 21:32:59.261157   682 net.cpp:94] Creating Layer fc7
I0814 21:32:59.261160   682 net.cpp:435] fc7 <- fc6
I0814 21:32:59.261166   682 net.cpp:409] fc7 -> fc7
I0814 21:32:59.472412   682 net.cpp:144] Setting up fc7
I0814 21:32:59.472452   682 net.cpp:151] Top shape: 32 4096 (131072)
I0814 21:32:59.472457   682 net.cpp:159] Memory required for data: 265039616
I0814 21:32:59.472467   682 layer_factory.hpp:77] Creating layer relu7
I0814 21:32:59.472478   682 net.cpp:94] Creating Layer relu7
I0814 21:32:59.472483   682 net.cpp:435] relu7 <- fc7
I0814 21:32:59.472491   682 net.cpp:396] relu7 -> fc7 (in-place)
I0814 21:32:59.472506   682 net.cpp:144] Setting up relu7
I0814 21:32:59.472509   682 net.cpp:151] Top shape: 32 4096 (131072)
I0814 21:32:59.472512   682 net.cpp:159] Memory required for data: 265563904
I0814 21:32:59.472517   682 layer_factory.hpp:77] Creating layer drop7
I0814 21:32:59.472523   682 net.cpp:94] Creating Layer drop7
I0814 21:32:59.472527   682 net.cpp:435] drop7 <- fc7
I0814 21:32:59.472532   682 net.cpp:396] drop7 -> fc7 (in-place)
I0814 21:32:59.472571   682 net.cpp:144] Setting up drop7
I0814 21:32:59.472579   682 net.cpp:151] Top shape: 32 4096 (131072)
I0814 21:32:59.472581   682 net.cpp:159] Memory required for data: 266088192
I0814 21:32:59.472585   682 layer_factory.hpp:77] Creating layer fc8
I0814 21:32:59.472594   682 net.cpp:94] Creating Layer fc8
I0814 21:32:59.472597   682 net.cpp:435] fc8 <- fc7
I0814 21:32:59.472604   682 net.cpp:409] fc8 -> fc8
I0814 21:32:59.472913   682 net.cpp:144] Setting up fc8
I0814 21:32:59.472921   682 net.cpp:151] Top shape: 32 5 (160)
I0814 21:32:59.472924   682 net.cpp:159] Memory required for data: 266088832
I0814 21:32:59.472930   682 layer_factory.hpp:77] Creating layer fc8_fc8_0_split
I0814 21:32:59.472939   682 net.cpp:94] Creating Layer fc8_fc8_0_split
I0814 21:32:59.472941   682 net.cpp:435] fc8_fc8_0_split <- fc8
I0814 21:32:59.472949   682 net.cpp:409] fc8_fc8_0_split -> fc8_fc8_0_split_0
I0814 21:32:59.472993   682 net.cpp:409] fc8_fc8_0_split -> fc8_fc8_0_split_1
I0814 21:32:59.473026   682 net.cpp:144] Setting up fc8_fc8_0_split
I0814 21:32:59.473032   682 net.cpp:151] Top shape: 32 5 (160)
I0814 21:32:59.473037   682 net.cpp:151] Top shape: 32 5 (160)
I0814 21:32:59.473039   682 net.cpp:159] Memory required for data: 266090112
I0814 21:32:59.473042   682 layer_factory.hpp:77] Creating layer accuracy
I0814 21:32:59.473052   682 net.cpp:94] Creating Layer accuracy
I0814 21:32:59.473055   682 net.cpp:435] accuracy <- fc8_fc8_0_split_0
I0814 21:32:59.473060   682 net.cpp:435] accuracy <- label_val-data_1_split_0
I0814 21:32:59.473080   682 net.cpp:409] accuracy -> accuracy
…
