…
I0814 21:35:49.126317   773 net.cpp:323] The NetState phase (0) differed from the phase (1) specified by a rule in layer loss3/top-5
I0814 21:35:49.127086   773 net.cpp:52] Initializing net from parameters:
state {
phase: TRAIN
}
layer {
name: "train-data"
type: "Data"
top: "data"
top: "label"
include {
phase: TRAIN
}
transform_param {
mirror: true
crop_size: 224
mean_file: "/opt/DIGITS/digits/jobs/20190814-204945-55ec/mean.binaryproto"
}
data_param {
source: "/opt/DIGITS/digits/jobs/20190814-204945-55ec/train_db"
batch_size: 32
backend: LMDB
}
}
layer {
name: "conv1/7x7_s2"
type: "Convolution"
bottom: "data"
top: "conv1/7x7_s2"
param {
lr_mult: 1
decay_mult: 1
}
param {
lr_mult: 2
decay_mult: 0
}
convolution_param {
num_output: 64
pad: 3
kernel_size: 7
stride: 2
weight_filler {
type: "xavier"
std: 0.1
}
bias_filler {
type: "constant"
value: 0.2
}
}
}
layer {
name: "conv1/relu_7x7"
type: "ReLU"
bottom: "conv1/7x7_s2"
top: "conv1/7x7_s2"
}
layer {
name: "pool1/3x3_s2"
type: "Pooling"
bottom: "conv1/7x7_s2"
top: "pool1/3x3_s2"
pooling_param {
pool: MAX
kernel_size: 3
stride: 2
}
}
layer {
name: "pool1/norm1"
type: "LRN"
bottom: "pool1/3x3_s2"
top: "pool1/norm1"
lrn_param {
local_size: 5
alpha: 0.0001
beta: 0.75
}
}
layer {
name: "conv2/3x3_reduce"
type: "Convolution"
bottom: "pool1/norm1"
top: "conv2/3x3_reduce"
param {
lr_mult: 1
decay_mult: 1
}
param {
lr_mult: 2
decay_mult: 0
}
convolution_param {
num_output: 64
kernel_size: 1
weight_filler {
type: "xavier"
std: 0.1
}
bias_filler {
type: "constant"
value: 0.2
}
}
}
layer {
name: "conv2/relu_3x3_reduce"
type: "ReLU"
bottom: "conv2/3x3_reduce"
top: "conv2/3x3_reduce"
}
layer {
name: "conv2/3x3"
type: "Convolution"
bottom: "conv2/3x3_reduce"
top: "conv2/3x3"
param {
lr_mult: 1
decay_mult: 1
}
param {
lr_mult: 2
decay_mult: 0
}
convolution_param {
num_output: 192
pad: 1
kernel_size: 3
weight_filler {
type: "xavier"
std: 0.03
}
bias_filler {
type: "constant"
value: 0.2
}
}
}
layer {
name: "conv2/relu_3x3"
type: "ReLU"
bottom: "conv2/3x3"
top: "conv2/3x3"
}
layer {
name: "conv2/norm2"
type: "LRN"
bottom: "conv2/3x3"
top: "conv2/norm2"
lrn_param {
local_size: 5
alpha: 0.0001
beta: 0.75
}
}
layer {
name: "pool2/3x3_s2"
type: "Pooling"
bottom: "conv2/norm2"
top: "pool2/3x3_s2"
pooling_param {
pool: MAX
kernel_size: 3
stride: 2
}
}
layer {
name: "inception_3a/1x1"
type: "Convolution"
bottom: "pool2/3x3_s2"
top: "inception_3a/1x1"
param {
lr_mult: 1
decay_mult: 1
}
param {
lr_mult: 2
decay_mult: 0
}
convolution_param {
num_output: 64
kernel_size: 1
weight_filler {
type: "xavier"
std: 0.03
}
bias_filler {
type: "constant"
value: 0.2
}
}
}
layer {
name: "inception_3a/relu_1x1"
type: "ReLU"
bottom: "inception_3a/1x1"
top: "inception_3a/1x1"
}
layer {
name: "inception_3a/3x3_reduce"
type: "Convolution"
bottom: "pool2/3x3_s2"
top: "inception_3a/3x3_reduce"
param {
lr_mult: 1
decay_mult: 1
}
param {
lr_mult: 2
decay_mult: 0
}
convolution_param {
num_output: 96
kernel_size: 1
weight_filler {
type: "xavier"
std: 0.09
}
bias_filler {
type: "constant"
value: 0.2
}
}
}
layer {
name: "inception_3a/relu_3x3_reduce"
type: "ReLU"
bottom: "inception_3a/3x3_reduce"
top: "inception_3a/3x3_reduce"
}
layer {
name: "inception_3a/3x3"
type: "Convolution"
bottom: "inception_3a/3x3_reduce"
top: "inception_3a/3x3"
param {
lr_mult: 1
decay_mult: 1
}
param {
lr_mult: 2
decay_mult: 0
}
convolution_param {
num_output: 128
pad: 1
kernel_size: 3
weight_filler {
type: "xavier"
std: 0.03
}
bias_filler {
type: "constant"
value: 0.2
}
}
}
layer {
name: "inception_3a/relu_3x3"
type: "ReLU"
bottom: "inception_3a/3x3"
top: "inception_3a/3x3"
}
layer {
name: "inception_3a/5x5_reduce"
type: "Convolution"
bottom: "pool2/3x3_s2"
top: "inception_3a/5x5_reduce"
param {
lr_mult: 1
decay_mult: 1
}
param {
lr_mult: 2
decay_mult: 0
}
convolution_param {
num_output: 16
kernel_size: 1
weight_filler {
type: "xavier"
std: 0.2
}
bias_filler {
type: "constant"
value: 0.2
}
}
}
layer {
name: "inception_3a/relu_5x5_reduce"
type: "ReLU"
bottom: "inception_3a/5x5_reduce"
top: "inception_3a/5x5_reduce"
}
layer {
name: "inception_3a/5x5"
type: "Convolution"
bottom: "inception_3a/5x5_reduce"
top: "inception_3a/5x5"
param {
lr_mult: 1
decay_mult: 1
}
param {
lr_mult: 2
decay_mult: 0
}
convolution_param {
num_output: 32
pad: 2
kernel_size: 5
weight_filler {
type: "xavier"
std: 0.03
}
bias_filler {
type: "constant"
value: 0.2
}
}
}
layer {
name: "inception_3a/relu_5x5"
type: "ReLU"
bottom: "inception_3a/5x5"
top: "inception_3a/5x5"
}
layer {
name: "inception_3a/pool"
type: "Pooling"
bottom: "pool2/3x3_s2"
top: "inception_3a/pool"
pooling_param {
pool: MAX
kernel_size: 3
stride: 1
pad: 1
}
}
layer {
name: "inception_3a/pool_proj"
type: "Convolution"
bottom: "inception_3a/pool"
top: "inception_3a/pool_proj"
param {
lr_mult: 1
decay_mult: 1
}
param {
lr_mult: 2
decay_mult: 0
}
convolution_param {
num_output: 32
kernel_size: 1
weight_filler {
type: "xavier"
std: 0.1
}
bias_filler {
type: "constant"
value: 0.2
}
}
}
layer {
name: "inception_3a/relu_pool_proj"
type: "ReLU"
bottom: "inception_3a/pool_proj"
top: "inception_3a/pool_proj"
}
layer {
name: "inception_3a/output"
type: "Concat"
bottom: "inception_3a/1x1"
bottom: "inception_3a/3x3"
bottom: "inception_3a/5x5"
bottom: "inception_3a/pool_proj"
top: "inception_3a/output"
}
layer {
name: "inception_3b/1x1"
type: "Convolution"
bottom: "inception_3a/output"
top: "inception_3b/1x1"
param {
lr_mult: 1
decay_mult: 1
}
param {
lr_mult: 2
decay_mult: 0
}
convolution_param {
num_output: 128
kernel_size: 1
weight_filler {
type: "xavier"
std: 0.03
}
bias_filler {
type: "constant"
value: 0.2
}
}
}
layer {
name: "inception_3b/relu_1x1"
type: "ReLU"
bottom: "inception_3b/1x1"
top: "inception_3b/1x1"
}
layer {
name: "inception_3b/3x3_reduce"
type: "Convolution"
bottom: "inception_3a/output"
top: "inception_3b/3x3_reduce"
param {
lr_mult: 1
decay_mult: 1
}
param {
lr_mult: 2
decay_mult: 0
}
convolution_param {
num_output: 128
kernel_size: 1
weight_filler {
type: "xavier"
std: 0.09
}
bias_filler {
type: "constant"
value: 0.2
}
}
}
layer {
name: "inception_3b/relu_3x3_reduce"
type: "ReLU"
bottom: "inception_3b/3x3_reduce"
top: "inception_3b/3x3_reduce"
}
layer {
name: "inception_3b/3x3"
type: "Convolution"
bottom: "inception_3b/3x3_reduce"
top: "inception_3b/3x3"
param {
lr_mult: 1
decay_mult: 1
}
param {
lr_mult: 2
decay_mult: 0
}
convolution_param {
num_output: 192
pad: 1
kernel_size: 3
weight_filler {
type: "xavier"
std: 0.03
}
bias_filler {
type: "constant"
value: 0.2
}
}
}
layer {
name: "inception_3b/relu_3x3"
type: "ReLU"
bottom: "inception_3b/3x3"
top: "inception_3b/3x3"
}
layer {
name: "inception_3b/5x5_reduce"
type: "Convolution"
bottom: "inception_3a/output"
top: "inception_3b/5x5_reduce"
param {
lr_mult: 1
decay_mult: 1
}
param {
lr_mult: 2
decay_mult: 0
}
convolution_param {
num_output: 32
kernel_size: 1
weight_filler {
type: "xavier"
std: 0.2
}
bias_filler {
type: "constant"
value: 0.2
}
}
}
layer {
name: "inception_3b/relu_5x5_reduce"
type: "ReLU"
bottom: "inception_3b/5x5_reduce"
top: "inception_3b/5x5_reduce"
}
layer {
name: "inception_3b/5x5"
type: "Convolution"
bottom: "inception_3b/5x5_reduce"
top: "inception_3b/5x5"
param {
lr_mult: 1
decay_mult: 1
}
param {
lr_mult: 2
decay_mult: 0
}
convolution_param {
num_output: 96
pad: 2
kernel_size: 5
weight_filler {
type: "xavier"
std: 0.03
}
bias_filler {
type: "constant"
value: 0.2
}
}
}
layer {
name: "inception_3b/relu_5x5"
type: "ReLU"
bottom: "inception_3b/5x5"
top: "inception_3b/5x5"
}
layer {
name: "inception_3b/pool"
type: "Pooling"
bottom: "inception_3a/output"
top: "inception_3b/pool"
pooling_param {
pool: MAX
kernel_size: 3
stride: 1
pad: 1
}
}
layer {
name: "inception_3b/pool_proj"
type: "Convolution"
bottom: "inception_3b/pool"
top: "inception_3b/pool_proj"
param {
lr_mult: 1
decay_mult: 1
}
param {
lr_mult: 2
decay_mult: 0
}
convolution_param {
num_output: 64
kernel_size: 1
weight_filler {
type: "xavier"
std: 0.1
}
bias_filler {
type: "constant"
value: 0.2
}
}
}
layer {
name: "inception_3b/relu_pool_proj"
type: "ReLU"
bottom: "inception_3b/pool_proj"
top: "inception_3b/pool_proj"
}
layer {
name: "inception_3b/output"
type: "Concat"
bottom: "inception_3b/1x1"
bottom: "inception_3b/3x3"
bottom: "inception_3b/5x5"
bottom: "inception_3b/pool_proj"
top: "inception_3b/output"
}
layer {
name: "pool3/3x3_s2"
type: "Pooling"
bottom: "inception_3b/output"
top: "pool3/3x3_s2"
pooling_param {
pool: MAX
kernel_size: 3
stride: 2
}
}
layer {
name: "inception_4a/1x1"
type: "Convolution"
bottom: "pool3/3x3_s2"
top: "inception_4a/1x1"
param {
lr_mult: 1
decay_mult: 1
}
param {
lr_mult: 2
decay_mult: 0
}
convolution_param {
num_output: 192
kernel_size: 1
weight_filler {
type: "xavier"
std: 0.03
}
bias_filler {
type: "constant"
value: 0.2
}
}
}
layer {
name: "inception_4a/relu_1x1"
type: "ReLU"
bottom: "inception_4a/1x1"
top: "inception_4a/1x1"
}
layer {
name: "inception_4a/3x3_reduce"
type: "Convolution"
bottom: "pool3/3x3_s2"
top: "inception_4a/3x3_reduce"
param {
lr_mult: 1
decay_mult: 1
}
param {
lr_mult: 2
decay_mult: 0
}
convolution_param {
num_output: 96
kernel_size: 1
weight_filler {
type: "xavier"
std: 0.09
}
bias_filler {
type: "constant"
value: 0.2
}
}
}
layer {
name: "inception_4a/relu_3x3_reduce"
type: "ReLU"
bottom: "inception_4a/3x3_reduce"
top: "inception_4a/3x3_reduce"
}
layer {
name: "inception_4a/3x3"
type: "Convolution"
bottom: "inception_4a/3x3_reduce"
top: "inception_4a/3x3"
param {
lr_mult: 1
decay_mult: 1
}
param {
lr_mult: 2
decay_mult: 0
}
convolution_param {
num_output: 208
pad: 1
kernel_size: 3
weight_filler {
type: "xavier"
std: 0.03
}
bias_filler {
type: "constant"
value: 0.2
}
}
}
layer {
name: "inception_4a/relu_3x3"
type: "ReLU"
bottom: "inception_4a/3x3"
top: "inception_4a/3x3"
}
layer {
name: "inception_4a/5x5_reduce"
type: "Convolution"
bottom: "pool3/3x3_s2"
top: "inception_4a/5x5_reduce"
param {
lr_mult: 1
decay_mult: 1
}
param {
lr_mult: 2
decay_mult: 0
}
convolution_param {
num_output: 16
kernel_size: 1
weight_filler {
type: "xavier"
std: 0.2
}
bias_filler {
type: "constant"
value: 0.2
}
}
}
layer {
name: "inception_4a/relu_5x5_reduce"
type: "ReLU"
bottom: "inception_4a/5x5_reduce"
top: "inception_4a/5x5_reduce"
}
layer {
name: "inception_4a/5x5"
type: "Convolution"
bottom: "inception_4a/5x5_reduce"
top: "inception_4a/5x5"
param {
lr_mult: 1
decay_mult: 1
}
param {
lr_mult: 2
decay_mult: 0
}
convolution_param {
num_output: 48
pad: 2
kernel_size: 5
weight_filler {
type: "xavier"
std: 0.03
}
bias_filler {
type: "constant"
value: 0.2
}
}
}
layer {
name: "inception_4a/relu_5x5"
type: "ReLU"
bottom: "inception_4a/5x5"
top: "inception_4a/5x5"
}
layer {
name: "inception_4a/pool"
type: "Pooling"
bottom: "pool3/3x3_s2"
top: "inception_4a/pool"
pooling_param {
pool: MAX
kernel_size: 3
stride: 1
pad: 1
}
}
layer {
name: "inception_4a/pool_proj"
type: "Convolution"
bottom: "inception_4a/pool"
top: "inception_4a/pool_proj"
param {
lr_mult: 1
decay_mult: 1
}
param {
lr_mult: 2
decay_mult: 0
}
convolution_param {
num_output: 64
kernel_size: 1
weight_filler {
type: "xavier"
std: 0.1
}
bias_filler {
type: "constant"
value: 0.2
}
}
}
layer {
name: "inception_4a/relu_pool_proj"
type: "ReLU"
bottom: "inception_4a/pool_proj"
top: "inception_4a/pool_proj"
}
layer {
name: "inception_4a/output"
type: "Concat"
bottom: "inception_4a/1x1"
bottom: "inception_4a/3x3"
bottom: "inception_4a/5x5"
bottom: "inception_4a/pool_proj"
top: "inception_4a/output"
}
layer {
name: "loss1/ave_pool"
type: "Pooling"
bottom: "inception_4a/output"
top: "loss1/ave_pool"
pooling_param {
pool: AVE
kernel_size: 5
stride: 3
}
}
layer {
name: "loss1/conv"
type: "Convolution"
bottom: "loss1/ave_pool"
top: "loss1/conv"
param {
lr_mult: 1
decay_mult: 1
}
param {
lr_mult: 2
decay_mult: 0
}
convolution_param {
num_output: 128
kernel_size: 1
weight_filler {
type: "xavier"
std: 0.08
}
bias_filler {
type: "constant"
value: 0.2
}
}
}
layer {
name: "loss1/relu_conv"
type: "ReLU"
bottom: "loss1/conv"
top: "loss1/conv"
}
layer {
name: "loss1/fc"
type: "InnerProduct"
bottom: "loss1/conv"
top: "loss1/fc"
param {
lr_mult: 1
decay_mult: 1
}
param {
lr_mult: 2
decay_mult: 0
}
inner_product_param {
num_output: 1024
weight_filler {
type: "xavier"
std: 0.02
}
bias_filler {
type: "constant"
value: 0.2
}
}
}
layer {
name: "loss1/relu_fc"
type: "ReLU"
bottom: "loss1/fc"
top: "loss1/fc"
}
layer {
name: "loss1/drop_fc"
type: "Dropout"
bottom: "loss1/fc"
top: "loss1/fc"
dropout_param {
dropout_ratio: 0.7
}
}
layer {
name: "loss1/classifier"
type: "InnerProduct"
bottom: "loss1/fc"
top: "loss1/classifier"
param {
lr_mult: 1
decay_mult: 1
}
param {
lr_mult: 2
decay_mult: 0
}
inner_product_param {
num_output: 5
weight_filler {
type: "xavier"
std: 0.0009765625
}
bias_filler {
type: "constant"
value: 0
}
}
}
layer {
name: "loss1/loss"
type: "SoftmaxWithLoss"
bottom: "loss1/classifier"
bottom: "label"
top: "loss1/loss"
loss_weight: 0.3
}
layer {
name: "inception_4b/1x1"
type: "Convolution"
bottom: "inception_4a/output"
top: "inception_4b/1x1"
param {
lr_mult: 1
decay_mult: 1
}
param {
lr_mult: 2
decay_mult: 0
}
convolution_param {
num_output: 160
kernel_size: 1
weight_filler {
type: "xavier"
std: 0.03
}
bias_filler {
type: "constant"
value: 0.2
}
}
}
layer {
name: "inception_4b/relu_1x1"
type: "ReLU"
bottom: "inception_4b/1x1"
top: "inception_4b/1x1"
}
layer {
name: "inception_4b/3x3_reduce"
type: "Convolution"
bottom: "inception_4a/output"
top: "inception_4b/3x3_reduce"
param {
lr_mult: 1
decay_mult: 1
}
param {
lr_mult: 2
decay_mult: 0
}
convolution_param {
num_output: 112
kernel_size: 1
weight_filler {
type: "xavier"
std: 0.09
}
bias_filler {
type: "constant"
value: 0.2
}
}
}
layer {
name: "inception_4b/relu_3x3_reduce"
type: "ReLU"
bottom: "inception_4b/3x3_reduce"
top: "inception_4b/3x3_reduce"
}
layer {
name: "inception_4b/3x3"
type: "Convolution"
bottom: "inception_4b/3x3_reduce"
top: "inception_4b/3x3"
param {
lr_mult: 1
decay_mult: 1
}
param {
lr_mult: 2
decay_mult: 0
}
convolution_param {
num_output: 224
pad: 1
kernel_size: 3
weight_filler {
type: "xavier"
std: 0.03
}
bias_filler {
type: "constant"
value: 0.2
}
}
}
layer {
name: "inception_4b/relu_3x3"
type: "ReLU"
bottom: "inception_4b/3x3"
top: "inception_4b/3x3"
}
layer {
name: "inception_4b/5x5_reduce"
type: "Convolution"
bottom: "inception_4a/output"
top: "inception_4b/5x5_reduce"
param {
lr_mult: 1
decay_mult: 1
}
param {
lr_mult: 2
decay_mult: 0
}
convolution_param {
num_output: 24
kernel_size: 1
weight_filler {
type: "xavier"
std: 0.2
}
bias_filler {
type: "constant"
value: 0.2
}
}
}
layer {
name: "inception_4b/relu_5x5_reduce"
type: "ReLU"
bottom: "inception_4b/5x5_reduce"
top: "inception_4b/5x5_reduce"
}
layer {
name: "inception_4b/5x5"
type: "Convolution"
bottom: "inception_4b/5x5_reduce"
top: "inception_4b/5x5"
param {
lr_mult: 1
decay_mult: 1
}
param {
lr_mult: 2
decay_mult: 0
}
convolution_param {
num_output: 64
pad: 2
kernel_size: 5
weight_filler {
type: "xavier"
std: 0.03
}
bias_filler {
type: "constant"
value: 0.2
}
}
}
layer {
name: "inception_4b/relu_5x5"
type: "ReLU"
bottom: "inception_4b/5x5"
top: "inception_4b/5x5"
}
layer {
name: "inception_4b/pool"
type: "Pooling"
bottom: "inception_4a/output"
top: "inception_4b/pool"
pooling_param {
pool: MAX
kernel_size: 3
stride: 1
pad: 1
}
}
layer {
name: "inception_4b/pool_proj"
type: "Convolution"
bottom: "inception_4b/pool"
top: "inception_4b/pool_proj"
param {
lr_mult: 1
decay_mult: 1
}
param {
lr_mult: 2
decay_mult: 0
}
convolution_param {
num_output: 64
kernel_size: 1
weight_filler {
type: "xavier"
std: 0.1
}
bias_filler {
type: "constant"
value: 0.2
}
}
}
layer {
name: "inception_4b/relu_pool_proj"
type: "ReLU"
bottom: "inception_4b/pool_proj"
top: "inception_4b/pool_proj"
}
layer {
name: "inception_4b/output"
type: "Concat"
bottom: "inception_4b/1x1"
bottom: "inception_4b/3x3"
bottom: "inception_4b/5x5"
bottom: "inception_4b/pool_proj"
top: "inception_4b/output"
}
layer {
name: "inception_4c/1x1"
type: "Convolution"
bottom: "inception_4b/output"
top: "inception_4c/1x1"
param {
lr_mult: 1
decay_mult: 1
}
param {
lr_mult: 2
decay_mult: 0
}
convolution_param {
num_output: 128
kernel_size: 1
weight_filler {
type: "xavier"
std: 0.03
}
bias_filler {
type: "constant"
value: 0.2
}
}
}
layer {
name: "inception_4c/relu_1x1"
type: "ReLU"
bottom: "inception_4c/1x1"
top: "inception_4c/1x1"
}
layer {
name: "inception_4c/3x3_reduce"
type: "Convolution"
bottom: "inception_4b/output"
top: "inception_4c/3x3_reduce"
param {
lr_mult: 1
decay_mult: 1
}
param {
lr_mult: 2
decay_mult: 0
}
convolution_param {
num_output: 128
kernel_size: 1
weight_filler {
type: "xavier"
std: 0.09
}
bias_filler {
type: "constant"
value: 0.2
}
}
}
layer {
name: "inception_4c/relu_3x3_reduce"
type: "ReLU"
bottom: "inception_4c/3x3_reduce"
top: "inception_4c/3x3_reduce"
}
layer {
name: "inception_4c/3x3"
type: "Convolution"
bottom: "inception_4c/3x3_reduce"
top: "inception_4c/3x3"
param {
lr_mult: 1
decay_mult: 1
}
param {
lr_mult: 2
decay_mult: 0
}
convolution_param {
num_output: 256
pad: 1
kernel_size: 3
weight_filler {
type: "xavier"
std: 0.03
}
bias_filler {
type: "constant"
value: 0.2
}
}
}
layer {
name: "inception_4c/relu_3x3"
type: "ReLU"
bottom: "inception_4c/3x3"
top: "inception_4c/3x3"
}
layer {
name: "inception_4c/5x5_reduce"
type: "Convolution"
bottom: "inception_4b/output"
top: "inception_4c/5x5_reduce"
param {
lr_mult: 1
decay_mult: 1
}
param {
lr_mult: 2
decay_mult: 0
}
convolution_param {
num_output: 24
kernel_size: 1
weight_filler {
type: "xavier"
std: 0.2
}
bias_filler {
type: "constant"
value: 0.2
}
}
}
layer {
name: "inception_4c/relu_5x5_reduce"
type: "ReLU"
bottom: "inception_4c/5x5_reduce"
top: "inception_4c/5x5_reduce"
}
layer {
name: "inception_4c/5x5"
type: "Convolution"
bottom: "inception_4c/5x5_reduce"
top: "inception_4c/5x5"
param {
lr_mult: 1
decay_mult: 1
}
param {
lr_mult: 2
decay_mult: 0
}
convolution_param {
num_output: 64
pad: 2
kernel_size: 5
weight_filler {
type: "xavier"
std: 0.03
}
bias_filler {
type: "constant"
value: 0.2
}
}
}
layer {
name: "inception_4c/relu_5x5"
type: "ReLU"
bottom: "inception_4c/5x5"
top: "inception_4c/5x5"
}
layer {
name: "inception_4c/pool"
type: "Pooling"
bottom: "inception_4b/output"
top: "inception_4c/pool"
pooling_param {
pool: MAX
kernel_size: 3
stride: 1
pad: 1
}
}
layer {
name: "inception_4c/pool_proj"
type: "Convolution"
bottom: "inception_4c/pool"
top: "inception_4c/pool_proj"
param {
lr_mult: 1
decay_mult: 1
}
param {
lr_mult: 2
decay_mult: 0
}
convolution_param {
num_output: 64
kernel_size: 1
weight_filler {
type: "xavier"
std: 0.1
}
bias_filler {
type: "constant"
value: 0.2
}
}
}
layer {
name: "inception_4c/relu_pool_proj"
type: "ReLU"
bottom: "inception_4c/pool_proj"
top: "inception_4c/pool_proj"
}
layer {
name: "inception_4c/output"
type: "Concat"
bottom: "inception_4c/1x1"
bottom: "inception_4c/3x3"
bottom: "inception_4c/5x5"
bottom: "inception_4c/pool_proj"
top: "inception_4c/output"
}
layer {
name: "inception_4d/1x1"
type: "Convolution"
bottom: "inception_4c/output"
top: "inception_4d/1x1"
param {
lr_mult: 1
decay_mult: 1
}
param {
lr_mult: 2
decay_mult: 0
}
convolution_param {
num_output: 112
kernel_size: 1
weight_filler {
type: "xavier"
std: 0.03
}
bias_filler {
type: "constant"
value: 0.2
}
}
}
layer {
name: "inception_4d/relu_1x1"
type: "ReLU"
bottom: "inception_4d/1x1"
top: "inception_4d/1x1"
}
layer {
name: "inception_4d/3x3_reduce"
type: "Convolution"
bottom: "inception_4c/output"
top: "inception_4d/3x3_reduce"
param {
lr_mult: 1
decay_mult: 1
}
param {
lr_mult: 2
decay_mult: 0
}
convolution_param {
num_output: 144
kernel_size: 1
weight_filler {
type: "xavier"
std: 0.09
}
bias_filler {
type: "constant"
value: 0.2
}
}
}
layer {
name: "inception_4d/relu_3x3_reduce"
type: "ReLU"
bottom: "inception_4d/3x3_reduce"
top: "inception_4d/3x3_reduce"
}
layer {
name: "inception_4d/3x3"
type: "Convolution"
bottom: "inception_4d/3x3_reduce"
top: "inception_4d/3x3"
param {
lr_mult: 1
decay_mult: 1
}
param {
lr_mult: 2
decay_mult: 0
}
convolution_param {
num_output: 288
pad: 1
kernel_size: 3
weight_filler {
type: "xavier"
std: 0.03
}
bias_filler {
type: "constant"
value: 0.2
}
}
}
layer {
name: "inception_4d/relu_3x3"
type: "ReLU"
bottom: "inception_4d/3x3"
top: "inception_4d/3x3"
}
layer {
name: "inception_4d/5x5_reduce"
type: "Convolution"
bottom: "inception_4c/output"
top: "inception_4d/5x5_reduce"
param {
lr_mult: 1
decay_mult: 1
}
param {
lr_mult: 2
decay_mult: 0
}
convolution_param {
num_output: 32
kernel_size: 1
weight_filler {
type: "xavier"
std: 0.2
}
bias_filler {
type: "constant"
value: 0.2
}
}
}
layer {
name: "inception_4d/relu_5x5_reduce"
type: "ReLU"
bottom: "inception_4d/5x5_reduce"
top: "inception_4d/5x5_reduce"
}
layer {
name: "inception_4d/5x5"
type: "Convolution"
bottom: "inception_4d/5x5_reduce"
top: "inception_4d/5x5"
param {
lr_mult: 1
decay_mult: 1
}
param {
lr_mult: 2
decay_mult: 0
}
convolution_param {
num_output: 64
pad: 2
kernel_size: 5
weight_filler {
type: "xavier"
std: 0.03
}
bias_filler {
type: "constant"
value: 0.2
}
}
}
layer {
name: "inception_4d/relu_5x5"
type: "ReLU"
bottom: "inception_4d/5x5"
top: "inception_4d/5x5"
}
layer {
name: "inception_4d/pool"
type: "Pooling"
bottom: "inception_4c/output"
top: "inception_4d/pool"
pooling_param {
pool: MAX
kernel_size: 3
stride: 1
pad: 1
}
}
layer {
name: "inception_4d/pool_proj"
type: "Convolution"
bottom: "inception_4d/pool"
top: "inception_4d/pool_proj"
param {
lr_mult: 1
decay_mult: 1
}
param {
lr_mult: 2
decay_mult: 0
}
convolution_param {
num_output: 64
kernel_size: 1
weight_filler {
type: "xavier"
std: 0.1
}
bias_filler {
type: "constant"
value: 0.2
}
}
}
layer {
name: "inception_4d/relu_pool_proj"
type: "ReLU"
bottom: "inception_4d/pool_proj"
top: "inception_4d/pool_proj"
}
layer {
name: "inception_4d/output"
type: "Concat"
bottom: "inception_4d/1x1"
bottom: "inception_4d/3x3"
bottom: "inception_4d/5x5"
bottom: "inception_4d/pool_proj"
top: "inception_4d/output"
}
layer {
name: "loss2/ave_pool"
type: "Pooling"
bottom: "inception_4d/output"
top: "loss2/ave_pool"
pooling_param {
pool: AVE
kernel_size: 5
stride: 3
}
}
layer {
name: "loss2/conv"
type: "Convolution"
bottom: "loss2/ave_pool"
top: "loss2/conv"
param {
lr_mult: 1
decay_mult: 1
}
param {
lr_mult: 2
decay_mult: 0
}
convolution_param {
num_output: 128
kernel_size: 1
weight_filler {
type: "xavier"
std: 0.08
}
bias_filler {
type: "constant"
value: 0.2
}
}
}
layer {
name: "loss2/relu_conv"
type: "ReLU"
bottom: "loss2/conv"
top: "loss2/conv"
}
layer {
name: "loss2/fc"
type: "InnerProduct"
bottom: "loss2/conv"
top: "loss2/fc"
param {
lr_mult: 1
decay_mult: 1
}
param {
lr_mult: 2
decay_mult: 0
}
inner_product_param {
num_output: 1024
weight_filler {
type: "xavier"
std: 0.02
}
bias_filler {
type: "constant"
value: 0.2
}
}
}
layer {
name: "loss2/relu_fc"
type: "ReLU"
bottom: "loss2/fc"
top: "loss2/fc"
}
layer {
name: "loss2/drop_fc"
type: "Dropout"
bottom: "loss2/fc"
top: "loss2/fc"
dropout_param {
dropout_ratio: 0.7
}
}
layer {
name: "loss2/classifier"
type: "InnerProduct"
bottom: "loss2/fc"
top: "loss2/classifier"
param {
lr_mult: 1
decay_mult: 1
}
param {
lr_mult: 2
decay_mult: 0
}
inner_product_param {
num_output: 5
weight_filler {
type: "xavier"
std: 0.0009765625
}
bias_filler {
type: "constant"
value: 0
}
}
}
layer {
name: "loss2/loss"
type: "SoftmaxWithLoss"
bottom: "loss2/classifier"
bottom: "label"
top: "loss2/loss"
loss_weight: 0.3
}
layer {
name: "inception_4e/1x1"
type: "Convolution"
bottom: "inception_4d/output"
top: "inception_4e/1x1"
param {
lr_mult: 1
decay_mult: 1
}
param {
lr_mult: 2
decay_mult: 0
}
convolution_param {
num_output: 256
kernel_size: 1
weight_filler {
type: "xavier"
std: 0.03
}
bias_filler {
type: "constant"
value: 0.2
}
}
}
layer {
name: "inception_4e/relu_1x1"
type: "ReLU"
bottom: "inception_4e/1x1"
top: "inception_4e/1x1"
}
layer {
name: "inception_4e/3x3_reduce"
type: "Convolution"
bottom: "inception_4d/output"
top: "inception_4e/3x3_reduce"
param {
lr_mult: 1
decay_mult: 1
}
param {
lr_mult: 2
decay_mult: 0
}
convolution_param {
num_output: 160
kernel_size: 1
weight_filler {
type: "xavier"
std: 0.09
}
bias_filler {
type: "constant"
value: 0.2
}
}
}
layer {
name: "inception_4e/relu_3x3_reduce"
type: "ReLU"
bottom: "inception_4e/3x3_reduce"
top: "inception_4e/3x3_reduce"
}
layer {
name: "inception_4e/3x3"
type: "Convolution"
bottom: "inception_4e/3x3_reduce"
top: "inception_4e/3x3"
param {
lr_mult: 1
decay_mult: 1
}
param {
lr_mult: 2
decay_mult: 0
}
convolution_param {
num_output: 320
pad: 1
kernel_size: 3
weight_filler {
type: "xavier"
std: 0.03
}
bias_filler {
type: "constant"
value: 0.2
}
}
}
layer {
name: "inception_4e/relu_3x3"
type: "ReLU"
bottom: "inception_4e/3x3"
top: "inception_4e/3x3"
}
layer {
name: "inception_4e/5x5_reduce"
type: "Convolution"
bottom: "inception_4d/output"
top: "inception_4e/5x5_reduce"
param {
lr_mult: 1
decay_mult: 1
}
param {
lr_mult: 2
decay_mult: 0
}
convolution_param {
num_output: 32
kernel_size: 1
weight_filler {
type: "xavier"
std: 0.2
}
bias_filler {
type: "constant"
value: 0.2
}
}
}
layer {
name: "inceptio
I0814 21:35:49.127861   773 layer_factory.hpp:77] Creating layer train-data
I0814 21:35:49.128742   773 net.cpp:94] Creating Layer train-data
I0814 21:35:49.128765   773 net.cpp:409] train-data -> data
I0814 21:35:49.128813   773 net.cpp:409] train-data -> label
I0814 21:35:49.128830   773 data_transformer.cpp:25] Loading mean file from: /opt/DIGITS/digits/jobs/20190814-204945-55ec/mean.binaryproto
I0814 21:35:49.129992   776 db_lmdb.cpp:35] Opened lmdb /opt/DIGITS/digits/jobs/20190814-204945-55ec/train_db
I0814 21:35:49.138180   773 data_layer.cpp:78] ReshapePrefetch 32, 3, 224, 224
I0814 21:35:49.138237   773 data_layer.cpp:83] output data size: 32,3,224,224
I0814 21:35:49.175889   773 net.cpp:144] Setting up train-data
I0814 21:35:49.175920   773 net.cpp:151] Top shape: 32 3 224 224 (4816896)
I0814 21:35:49.175925   773 net.cpp:151] Top shape: 32 (32)
I0814 21:35:49.175943   773 net.cpp:159] Memory required for data: 19267712
I0814 21:35:49.175954   773 layer_factory.hpp:77] Creating layer label_train-data_1_split
I0814 21:35:49.176004   773 net.cpp:94] Creating Layer label_train-data_1_split
I0814 21:35:49.176012   773 net.cpp:435] label_train-data_1_split <- label
I0814 21:35:49.176024   773 net.cpp:409] label_train-data_1_split -> label_train-data_1_split_0
I0814 21:35:49.176034   773 net.cpp:409] label_train-data_1_split -> label_train-data_1_split_1
I0814 21:35:49.176040   773 net.cpp:409] label_train-data_1_split -> label_train-data_1_split_2
I0814 21:35:49.176095   773 net.cpp:144] Setting up label_train-data_1_split
I0814 21:35:49.176100   773 net.cpp:151] Top shape: 32 (32)
I0814 21:35:49.176105   773 net.cpp:151] Top shape: 32 (32)
I0814 21:35:49.176107   773 net.cpp:151] Top shape: 32 (32)
I0814 21:35:49.176110   773 net.cpp:159] Memory required for data: 19268096
I0814 21:35:49.176113   773 layer_factory.hpp:77] Creating layer conv1/7x7_s2
I0814 21:35:49.176132   773 net.cpp:94] Creating Layer conv1/7x7_s2
I0814 21:35:49.176136   773 net.cpp:435] conv1/7x7_s2 <- data
I0814 21:35:49.176143   773 net.cpp:409] conv1/7x7_s2 -> conv1/7x7_s2
I0814 21:35:49.176482   773 net.cpp:144] Setting up conv1/7x7_s2
I0814 21:35:49.176492   773 net.cpp:151] Top shape: 32 64 112 112 (25690112)
I0814 21:35:49.176496   773 net.cpp:159] Memory required for data: 122028544
I0814 21:35:49.176512   773 layer_factory.hpp:77] Creating layer conv1/relu_7x7
I0814 21:35:49.176519   773 net.cpp:94] Creating Layer conv1/relu_7x7
I0814 21:35:49.176522   773 net.cpp:435] conv1/relu_7x7 <- conv1/7x7_s2
I0814 21:35:49.176527   773 net.cpp:396] conv1/relu_7x7 -> conv1/7x7_s2 (in-place)
I0814 21:35:49.176539   773 net.cpp:144] Setting up conv1/relu_7x7
I0814 21:35:49.176544   773 net.cpp:151] Top shape: 32 64 112 112 (25690112)
I0814 21:35:49.176548   773 net.cpp:159] Memory required for data: 224788992
I0814 21:35:49.176551   773 layer_factory.hpp:77] Creating layer pool1/3x3_s2
I0814 21:35:49.176560   773 net.cpp:94] Creating Layer pool1/3x3_s2
I0814 21:35:49.176563   773 net.cpp:435] pool1/3x3_s2 <- conv1/7x7_s2
I0814 21:35:49.176573   773 net.cpp:409] pool1/3x3_s2 -> pool1/3x3_s2
I0814 21:35:49.176609   773 net.cpp:144] Setting up pool1/3x3_s2
I0814 21:35:49.176615   773 net.cpp:151] Top shape: 32 64 56 56 (6422528)
I0814 21:35:49.176618   773 net.cpp:159] Memory required for data: 250479104
I0814 21:35:49.176621   773 layer_factory.hpp:77] Creating layer pool1/norm1
I0814 21:35:49.176630   773 net.cpp:94] Creating Layer pool1/norm1
I0814 21:35:49.176635   773 net.cpp:435] pool1/norm1 <- pool1/3x3_s2
I0814 21:35:49.176640   773 net.cpp:409] pool1/norm1 -> pool1/norm1
I0814 21:35:49.176689   773 net.cpp:144] Setting up pool1/norm1
I0814 21:35:49.176704   773 net.cpp:151] Top shape: 32 64 56 56 (6422528)
I0814 21:35:49.176708   773 net.cpp:159] Memory required for data: 276169216
I0814 21:35:49.176712   773 layer_factory.hpp:77] Creating layer conv2/3x3_reduce
I0814 21:35:49.176720   773 net.cpp:94] Creating Layer conv2/3x3_reduce
I0814 21:35:49.176723   773 net.cpp:435] conv2/3x3_reduce <- pool1/norm1
I0814 21:35:49.176730   773 net.cpp:409] conv2/3x3_reduce -> conv2/3x3_reduce
I0814 21:35:49.176986   773 net.cpp:144] Setting up conv2/3x3_reduce
I0814 21:35:49.176995   773 net.cpp:151] Top shape: 32 64 56 56 (6422528)
I0814 21:35:49.176997   773 net.cpp:159] Memory required for data: 301859328
I0814 21:35:49.177003   773 layer_factory.hpp:77] Creating layer conv2/relu_3x3_reduce
I0814 21:35:49.177009   773 net.cpp:94] Creating Layer conv2/relu_3x3_reduce
I0814 21:35:49.177012   773 net.cpp:435] conv2/relu_3x3_reduce <- conv2/3x3_reduce
I0814 21:35:49.177017   773 net.cpp:396] conv2/relu_3x3_reduce -> conv2/3x3_reduce (in-place)
I0814 21:35:49.177024   773 net.cpp:144] Setting up conv2/relu_3x3_reduce
I0814 21:35:49.177028   773 net.cpp:151] Top shape: 32 64 56 56 (6422528)
I0814 21:35:49.177031   773 net.cpp:159] Memory required for data: 327549440
I0814 21:35:49.177034   773 layer_factory.hpp:77] Creating layer conv2/3x3
I0814 21:35:49.177043   773 net.cpp:94] Creating Layer conv2/3x3
I0814 21:35:49.177047   773 net.cpp:435] conv2/3x3 <- conv2/3x3_reduce
I0814 21:35:49.177065   773 net.cpp:409] conv2/3x3 -> conv2/3x3
I0814 21:35:49.178637   773 net.cpp:144] Setting up conv2/3x3
I0814 21:35:49.178650   773 net.cpp:151] Top shape: 32 192 56 56 (19267584)
I0814 21:35:49.178654   773 net.cpp:159] Memory required for data: 404619776
I0814 21:35:49.178663   773 layer_factory.hpp:77] Creating layer conv2/relu_3x3
I0814 21:35:49.178669   773 net.cpp:94] Creating Layer conv2/relu_3x3
I0814 21:35:49.178689   773 net.cpp:435] conv2/relu_3x3 <- conv2/3x3
I0814 21:35:49.178704   773 net.cpp:396] conv2/relu_3x3 -> conv2/3x3 (in-place)
I0814 21:35:49.178711   773 net.cpp:144] Setting up conv2/relu_3x3
I0814 21:35:49.178716   773 net.cpp:151] Top shape: 32 192 56 56 (19267584)
I0814 21:35:49.178719   773 net.cpp:159] Memory required for data: 481690112
I0814 21:35:49.178721   773 layer_factory.hpp:77] Creating layer conv2/norm2
I0814 21:35:49.178728   773 net.cpp:94] Creating Layer conv2/norm2
I0814 21:35:49.178731   773 net.cpp:435] conv2/norm2 <- conv2/3x3
I0814 21:35:49.178752   773 net.cpp:409] conv2/norm2 -> conv2/norm2
I0814 21:35:49.178786   773 net.cpp:144] Setting up conv2/norm2
I0814 21:35:49.178792   773 net.cpp:151] Top shape: 32 192 56 56 (19267584)
I0814 21:35:49.178795   773 net.cpp:159] Memory required for data: 558760448
I0814 21:35:49.178798   773 layer_factory.hpp:77] Creating layer pool2/3x3_s2
I0814 21:35:49.178804   773 net.cpp:94] Creating Layer pool2/3x3_s2
I0814 21:35:49.178808   773 net.cpp:435] pool2/3x3_s2 <- conv2/norm2
I0814 21:35:49.178814   773 net.cpp:409] pool2/3x3_s2 -> pool2/3x3_s2
I0814 21:35:49.178900   773 net.cpp:144] Setting up pool2/3x3_s2
I0814 21:35:49.178907   773 net.cpp:151] Top shape: 32 192 28 28 (4816896)
I0814 21:35:49.178910   773 net.cpp:159] Memory required for data: 578028032
I0814 21:35:49.178913   773 layer_factory.hpp:77] Creating layer pool2/3x3_s2_pool2/3x3_s2_0_split
I0814 21:35:49.178920   773 net.cpp:94] Creating Layer pool2/3x3_s2_pool2/3x3_s2_0_split
I0814 21:35:49.178923   773 net.cpp:435] pool2/3x3_s2_pool2/3x3_s2_0_split <- pool2/3x3_s2
I0814 21:35:49.178928   773 net.cpp:409] pool2/3x3_s2_pool2/3x3_s2_0_split -> pool2/3x3_s2_pool2/3x3_s2_0_split_0
I0814 21:35:49.178936   773 net.cpp:409] pool2/3x3_s2_pool2/3x3_s2_0_split -> pool2/3x3_s2_pool2/3x3_s2_0_split_1
I0814 21:35:49.178941   773 net.cpp:409] pool2/3x3_s2_pool2/3x3_s2_0_split -> pool2/3x3_s2_pool2/3x3_s2_0_split_2
I0814 21:35:49.178947   773 net.cpp:409] pool2/3x3_s2_pool2/3x3_s2_0_split -> pool2/3x3_s2_pool2/3x3_s2_0_split_3
I0814 21:35:49.179458   773 net.cpp:144] Setting up pool2/3x3_s2_pool2/3x3_s2_0_split
I0814 21:35:49.179477   773 net.cpp:151] Top shape: 32 192 28 28 (4816896)
I0814 21:35:49.179482   773 net.cpp:151] Top shape: 32 192 28 28 (4816896)
I0814 21:35:49.179486   773 net.cpp:151] Top shape: 32 192 28 28 (4816896)
I0814 21:35:49.179491   773 net.cpp:151] Top shape: 32 192 28 28 (4816896)
I0814 21:35:49.179509   773 net.cpp:159] Memory required for data: 655098368
I0814 21:35:49.179513   773 layer_factory.hpp:77] Creating layer inception_3a/1x1
I0814 21:35:49.179525   773 net.cpp:94] Creating Layer inception_3a/1x1
I0814 21:35:49.179530   773 net.cpp:435] inception_3a/1x1 <- pool2/3x3_s2_pool2/3x3_s2_0_split_0
I0814 21:35:49.179538   773 net.cpp:409] inception_3a/1x1 -> inception_3a/1x1
I0814 21:35:49.179836   773 net.cpp:144] Setting up inception_3a/1x1
I0814 21:35:49.179847   773 net.cpp:151] Top shape: 32 64 28 28 (1605632)
I0814 21:35:49.179849   773 net.cpp:159] Memory required for data: 661520896
I0814 21:35:49.179855   773 layer_factory.hpp:77] Creating layer inception_3a/relu_1x1
I0814 21:35:49.179862   773 net.cpp:94] Creating Layer inception_3a/relu_1x1
I0814 21:35:49.179865   773 net.cpp:435] inception_3a/relu_1x1 <- inception_3a/1x1
I0814 21:35:49.179870   773 net.cpp:396] inception_3a/relu_1x1 -> inception_3a/1x1 (in-place)
I0814 21:35:49.179877   773 net.cpp:144] Setting up inception_3a/relu_1x1
I0814 21:35:49.179883   773 net.cpp:151] Top shape: 32 64 28 28 (1605632)
I0814 21:35:49.179884   773 net.cpp:159] Memory required for data: 667943424
I0814 21:35:49.179904   773 layer_factory.hpp:77] Creating layer inception_3a/3x3_reduce
I0814 21:35:49.179913   773 net.cpp:94] Creating Layer inception_3a/3x3_reduce
I0814 21:35:49.179916   773 net.cpp:435] inception_3a/3x3_reduce <- pool2/3x3_s2_pool2/3x3_s2_0_split_1
I0814 21:35:49.179924   773 net.cpp:409] inception_3a/3x3_reduce -> inception_3a/3x3_reduce
I0814 21:35:49.180367   773 net.cpp:144] Setting up inception_3a/3x3_reduce
I0814 21:35:49.180375   773 net.cpp:151] Top shape: 32 96 28 28 (2408448)
I0814 21:35:49.180378   773 net.cpp:159] Memory required for data: 677577216
I0814 21:35:49.180387   773 layer_factory.hpp:77] Creating layer inception_3a/relu_3x3_reduce
I0814 21:35:49.180395   773 net.cpp:94] Creating Layer inception_3a/relu_3x3_reduce
I0814 21:35:49.180399   773 net.cpp:435] inception_3a/relu_3x3_reduce <- inception_3a/3x3_reduce
I0814 21:35:49.180404   773 net.cpp:396] inception_3a/relu_3x3_reduce -> inception_3a/3x3_reduce (in-place)
I0814 21:35:49.180424   773 net.cpp:144] Setting up inception_3a/relu_3x3_reduce
I0814 21:35:49.180429   773 net.cpp:151] Top shape: 32 96 28 28 (2408448)
I0814 21:35:49.180449   773 net.cpp:159] Memory required for data: 687211008
I0814 21:35:49.180451   773 layer_factory.hpp:77] Creating layer inception_3a/3x3
I0814 21:35:49.180474   773 net.cpp:94] Creating Layer inception_3a/3x3
I0814 21:35:49.180478   773 net.cpp:435] inception_3a/3x3 <- inception_3a/3x3_reduce
I0814 21:35:49.180485   773 net.cpp:409] inception_3a/3x3 -> inception_3a/3x3
I0814 21:35:49.181391   773 net.cpp:144] Setting up inception_3a/3x3
I0814 21:35:49.181401   773 net.cpp:151] Top shape: 32 128 28 28 (3211264)
I0814 21:35:49.181403   773 net.cpp:159] Memory required for data: 700056064
I0814 21:35:49.181408   773 layer_factory.hpp:77] Creating layer inception_3a/relu_3x3
I0814 21:35:49.181414   773 net.cpp:94] Creating Layer inception_3a/relu_3x3
I0814 21:35:49.181418   773 net.cpp:435] inception_3a/relu_3x3 <- inception_3a/3x3
I0814 21:35:49.181424   773 net.cpp:396] inception_3a/relu_3x3 -> inception_3a/3x3 (in-place)
I0814 21:35:49.181432   773 net.cpp:144] Setting up inception_3a/relu_3x3
I0814 21:35:49.181435   773 net.cpp:151] Top shape: 32 128 28 28 (3211264)
I0814 21:35:49.181438   773 net.cpp:159] Memory required for data: 712901120
I0814 21:35:49.181442   773 layer_factory.hpp:77] Creating layer inception_3a/5x5_reduce
I0814 21:35:49.181449   773 net.cpp:94] Creating Layer inception_3a/5x5_reduce
I0814 21:35:49.181453   773 net.cpp:435] inception_3a/5x5_reduce <- pool2/3x3_s2_pool2/3x3_s2_0_split_2
I0814 21:35:49.181459   773 net.cpp:409] inception_3a/5x5_reduce -> inception_3a/5x5_reduce
I0814 21:35:49.181665   773 net.cpp:144] Setting up inception_3a/5x5_reduce
I0814 21:35:49.181674   773 net.cpp:151] Top shape: 32 16 28 28 (401408)
I0814 21:35:49.181676   773 net.cpp:159] Memory required for data: 714506752
I0814 21:35:49.181681   773 layer_factory.hpp:77] Creating layer inception_3a/relu_5x5_reduce
I0814 21:35:49.181696   773 net.cpp:94] Creating Layer inception_3a/relu_5x5_reduce
I0814 21:35:49.181700   773 net.cpp:435] inception_3a/relu_5x5_reduce <- inception_3a/5x5_reduce
I0814 21:35:49.181706   773 net.cpp:396] inception_3a/relu_5x5_reduce -> inception_3a/5x5_reduce (in-place)
I0814 21:35:49.181712   773 net.cpp:144] Setting up inception_3a/relu_5x5_reduce
I0814 21:35:49.181717   773 net.cpp:151] Top shape: 32 16 28 28 (401408)
I0814 21:35:49.181720   773 net.cpp:159] Memory required for data: 716112384
I0814 21:35:49.181723   773 layer_factory.hpp:77] Creating layer inception_3a/5x5
I0814 21:35:49.181731   773 net.cpp:94] Creating Layer inception_3a/5x5
I0814 21:35:49.181735   773 net.cpp:435] inception_3a/5x5 <- inception_3a/5x5_reduce
I0814 21:35:49.181740   773 net.cpp:409] inception_3a/5x5 -> inception_3a/5x5
I0814 21:35:49.182090   773 net.cpp:144] Setting up inception_3a/5x5
I0814 21:35:49.182099   773 net.cpp:151] Top shape: 32 32 28 28 (802816)
I0814 21:35:49.182102   773 net.cpp:159] Memory required for data: 719323648
I0814 21:35:49.182121   773 layer_factory.hpp:77] Creating layer inception_3a/relu_5x5
I0814 21:35:49.182127   773 net.cpp:94] Creating Layer inception_3a/relu_5x5
I0814 21:35:49.182132   773 net.cpp:435] inception_3a/relu_5x5 <- inception_3a/5x5
I0814 21:35:49.182153   773 net.cpp:396] inception_3a/relu_5x5 -> inception_3a/5x5 (in-place)
I0814 21:35:49.182160   773 net.cpp:144] Setting up inception_3a/relu_5x5
I0814 21:35:49.182165   773 net.cpp:151] Top shape: 32 32 28 28 (802816)
I0814 21:35:49.182168   773 net.cpp:159] Memory required for data: 722534912
I0814 21:35:49.182171   773 layer_factory.hpp:77] Creating layer inception_3a/pool
I0814 21:35:49.182178   773 net.cpp:94] Creating Layer inception_3a/pool
I0814 21:35:49.182181   773 net.cpp:435] inception_3a/pool <- pool2/3x3_s2_pool2/3x3_s2_0_split_3
I0814 21:35:49.182189   773 net.cpp:409] inception_3a/pool -> inception_3a/pool
I0814 21:35:49.182225   773 net.cpp:144] Setting up inception_3a/pool
I0814 21:35:49.182231   773 net.cpp:151] Top shape: 32 192 28 28 (4816896)
I0814 21:35:49.182235   773 net.cpp:159] Memory required for data: 741802496
I0814 21:35:49.182237   773 layer_factory.hpp:77] Creating layer inception_3a/pool_proj
I0814 21:35:49.182245   773 net.cpp:94] Creating Layer inception_3a/pool_proj
I0814 21:35:49.182250   773 net.cpp:435] inception_3a/pool_proj <- inception_3a/pool
I0814 21:35:49.182255   773 net.cpp:409] inception_3a/pool_proj -> inception_3a/pool_proj
I0814 21:35:49.183231   773 net.cpp:144] Setting up inception_3a/pool_proj
I0814 21:35:49.183245   773 net.cpp:151] Top shape: 32 32 28 28 (802816)
I0814 21:35:49.183249   773 net.cpp:159] Memory required for data: 745013760
I0814 21:35:49.183259   773 layer_factory.hpp:77] Creating layer inception_3a/relu_pool_proj
I0814 21:35:49.183266   773 net.cpp:94] Creating Layer inception_3a/relu_pool_proj
I0814 21:35:49.183270   773 net.cpp:435] inception_3a/relu_pool_proj <- inception_3a/pool_proj
I0814 21:35:49.183276   773 net.cpp:396] inception_3a/relu_pool_proj -> inception_3a/pool_proj (in-place)
I0814 21:35:49.183284   773 net.cpp:144] Setting up inception_3a/relu_pool_proj
I0814 21:35:49.183290   773 net.cpp:151] Top shape: 32 32 28 28 (802816)
I0814 21:35:49.183292   773 net.cpp:159] Memory required for data: 748225024
I0814 21:35:49.183295   773 layer_factory.hpp:77] Creating layer inception_3a/output
I0814 21:35:49.183301   773 net.cpp:94] Creating Layer inception_3a/output
I0814 21:35:49.183305   773 net.cpp:435] inception_3a/output <- inception_3a/1x1
I0814 21:35:49.183310   773 net.cpp:435] inception_3a/output <- inception_3a/3x3
I0814 21:35:49.183313   773 net.cpp:435] inception_3a/output <- inception_3a/5x5
I0814 21:35:49.183317   773 net.cpp:435] inception_3a/output <- inception_3a/pool_proj
I0814 21:35:49.183322   773 net.cpp:409] inception_3a/output -> inception_3a/output
I0814 21:35:49.183347   773 net.cpp:144] Setting up inception_3a/output
I0814 21:35:49.183353   773 net.cpp:151] Top shape: 32 256 28 28 (6422528)
I0814 21:35:49.183358   773 net.cpp:159] Memory required for data: 773915136
I0814 21:35:49.183362   773 layer_factory.hpp:77] Creating layer inception_3a/output_inception_3a/output_0_split
I0814 21:35:49.183367   773 net.cpp:94] Creating Layer inception_3a/output_inception_3a/output_0_split
I0814 21:35:49.183372   773 net.cpp:435] inception_3a/output_inception_3a/output_0_split <- inception_3a/output
I0814 21:35:49.183377   773 net.cpp:409] inception_3a/output_inception_3a/output_0_split -> inception_3a/output_inception_3a/output_0_split_0
I0814 21:35:49.183384   773 net.cpp:409] inception_3a/output_inception_3a/output_0_split -> inception_3a/output_inception_3a/output_0_split_1
I0814 21:35:49.183392   773 net.cpp:409] inception_3a/output_inception_3a/output_0_split -> inception_3a/output_inception_3a/output_0_split_2
I0814 21:35:49.183398   773 net.cpp:409] inception_3a/output_inception_3a/output_0_split -> inception_3a/output_inception_3a/output_0_split_3
I0814 21:35:49.183465   773 net.cpp:144] Setting up inception_3a/output_inception_3a/output_0_split
I0814 21:35:49.183485   773 net.cpp:151] Top shape: 32 256 28 28 (6422528)
I0814 21:35:49.183488   773 net.cpp:151] Top shape: 32 256 28 28 (6422528)
I0814 21:35:49.183492   773 net.cpp:151] Top shape: 32 256 28 28 (6422528)
I0814 21:35:49.183496   773 net.cpp:151] Top shape: 32 256 28 28 (6422528)
I0814 21:35:49.183499   773 net.cpp:159] Memory required for data: 876675584
I0814 21:35:49.183502   773 layer_factory.hpp:77] Creating layer inception_3b/1x1
I0814 21:35:49.183527   773 net.cpp:94] Creating Layer inception_3b/1x1
I0814 21:35:49.183531   773 net.cpp:435] inception_3b/1x1 <- inception_3a/output_inception_3a/output_0_split_0
I0814 21:35:49.183538   773 net.cpp:409] inception_3b/1x1 -> inception_3b/1x1
I0814 21:35:49.186439   773 net.cpp:144] Setting up inception_3b/1x1
I0814 21:35:49.186455   773 net.cpp:151] Top shape: 32 128 28 28 (3211264)
I0814 21:35:49.186458   773 net.cpp:159] Memory required for data: 889520640
I0814 21:35:49.186465   773 layer_factory.hpp:77] Creating layer inception_3b/relu_1x1
I0814 21:35:49.186471   773 net.cpp:94] Creating Layer inception_3b/relu_1x1
I0814 21:35:49.186476   773 net.cpp:435] inception_3b/relu_1x1 <- inception_3b/1x1
I0814 21:35:49.186482   773 net.cpp:396] inception_3b/relu_1x1 -> inception_3b/1x1 (in-place)
I0814 21:35:49.186491   773 net.cpp:144] Setting up inception_3b/relu_1x1
I0814 21:35:49.186496   773 net.cpp:151] Top shape: 32 128 28 28 (3211264)
I0814 21:35:49.186498   773 net.cpp:159] Memory required for data: 902365696
I0814 21:35:49.186501   773 layer_factory.hpp:77] Creating layer inception_3b/3x3_reduce
I0814 21:35:49.186511   773 net.cpp:94] Creating Layer inception_3b/3x3_reduce
I0814 21:35:49.186514   773 net.cpp:435] inception_3b/3x3_reduce <- inception_3a/output_inception_3a/output_0_split_1
I0814 21:35:49.186520   773 net.cpp:409] inception_3b/3x3_reduce -> inception_3b/3x3_reduce
I0814 21:35:49.186930   773 net.cpp:144] Setting up inception_3b/3x3_reduce
I0814 21:35:49.186940   773 net.cpp:151] Top shape: 32 128 28 28 (3211264)
I0814 21:35:49.186965   773 net.cpp:159] Memory required for data: 915210752
I0814 21:35:49.186971   773 layer_factory.hpp:77] Creating layer inception_3b/relu_3x3_reduce
I0814 21:35:49.186977   773 net.cpp:94] Creating Layer inception_3b/relu_3x3_reduce
I0814 21:35:49.186981   773 net.cpp:435] inception_3b/relu_3x3_reduce <- inception_3b/3x3_reduce
I0814 21:35:49.186987   773 net.cpp:396] inception_3b/relu_3x3_reduce -> inception_3b/3x3_reduce (in-place)
I0814 21:35:49.186995   773 net.cpp:144] Setting up inception_3b/relu_3x3_reduce
I0814 21:35:49.187000   773 net.cpp:151] Top shape: 32 128 28 28 (3211264)
I0814 21:35:49.187003   773 net.cpp:159] Memory required for data: 928055808
I0814 21:35:49.187007   773 layer_factory.hpp:77] Creating layer inception_3b/3x3
I0814 21:35:49.187036   773 net.cpp:94] Creating Layer inception_3b/3x3
I0814 21:35:49.187041   773 net.cpp:435] inception_3b/3x3 <- inception_3b/3x3_reduce
I0814 21:35:49.187047   773 net.cpp:409] inception_3b/3x3 -> inception_3b/3x3
I0814 21:35:49.189505   773 net.cpp:144] Setting up inception_3b/3x3
I0814 21:35:49.189520   773 net.cpp:151] Top shape: 32 192 28 28 (4816896)
I0814 21:35:49.189523   773 net.cpp:159] Memory required for data: 947323392
I0814 21:35:49.189530   773 layer_factory.hpp:77] Creating layer inception_3b/relu_3x3
I0814 21:35:49.189537   773 net.cpp:94] Creating Layer inception_3b/relu_3x3
I0814 21:35:49.189540   773 net.cpp:435] inception_3b/relu_3x3 <- inception_3b/3x3
I0814 21:35:49.189548   773 net.cpp:396] inception_3b/relu_3x3 -> inception_3b/3x3 (in-place)
I0814 21:35:49.189555   773 net.cpp:144] Setting up inception_3b/relu_3x3
I0814 21:35:49.189559   773 net.cpp:151] Top shape: 32 192 28 28 (4816896)
I0814 21:35:49.189563   773 net.cpp:159] Memory required for data: 966590976
I0814 21:35:49.189565   773 layer_factory.hpp:77] Creating layer inception_3b/5x5_reduce
I0814 21:35:49.189574   773 net.cpp:94] Creating Layer inception_3b/5x5_reduce
I0814 21:35:49.189579   773 net.cpp:435] inception_3b/5x5_reduce <- inception_3a/output_inception_3a/output_0_split_2
I0814 21:35:49.189602   773 net.cpp:409] inception_3b/5x5_reduce -> inception_3b/5x5_reduce
I0814 21:35:49.189908   773 net.cpp:144] Setting up inception_3b/5x5_reduce
I0814 21:35:49.189918   773 net.cpp:151] Top shape: 32 32 28 28 (802816)
I0814 21:35:49.189921   773 net.cpp:159] Memory required for data: 969802240
I0814 21:35:49.189926   773 layer_factory.hpp:77] Creating layer inception_3b/relu_5x5_reduce
I0814 21:35:49.189932   773 net.cpp:94] Creating Layer inception_3b/relu_5x5_reduce
I0814 21:35:49.189936   773 net.cpp:435] inception_3b/relu_5x5_reduce <- inception_3b/5x5_reduce
I0814 21:35:49.189942   773 net.cpp:396] inception_3b/relu_5x5_reduce -> inception_3b/5x5_reduce (in-place)
I0814 21:35:49.189949   773 net.cpp:144] Setting up inception_3b/relu_5x5_reduce
I0814 21:35:49.189954   773 net.cpp:151] Top shape: 32 32 28 28 (802816)
I0814 21:35:49.189956   773 net.cpp:159] Memory required for data: 973013504
I0814 21:35:49.189960   773 layer_factory.hpp:77] Creating layer inception_3b/5x5
I0814 21:35:49.189967   773 net.cpp:94] Creating Layer inception_3b/5x5
I0814 21:35:49.189970   773 net.cpp:435] inception_3b/5x5 <- inception_3b/5x5_reduce
I0814 21:35:49.189977   773 net.cpp:409] inception_3b/5x5 -> inception_3b/5x5
I0814 21:35:49.190625   773 net.cpp:144] Setting up inception_3b/5x5
I0814 21:35:49.190634   773 net.cpp:151] Top shape: 32 96 28 28 (2408448)
I0814 21:35:49.190637   773 net.cpp:159] Memory required for data: 982647296
I0814 21:35:49.190642   773 layer_factory.hpp:77] Creating layer inception_3b/relu_5x5
I0814 21:35:49.190647   773 net.cpp:94] Creating Layer inception_3b/relu_5x5
I0814 21:35:49.190651   773 net.cpp:435] inception_3b/relu_5x5 <- inception_3b/5x5
I0814 21:35:49.190656   773 net.cpp:396] inception_3b/relu_5x5 -> inception_3b/5x5 (in-place)
I0814 21:35:49.190663   773 net.cpp:144] Setting up inception_3b/relu_5x5
I0814 21:35:49.190667   773 net.cpp:151] Top shape: 32 96 28 28 (2408448)
I0814 21:35:49.190670   773 net.cpp:159] Memory required for data: 992281088
I0814 21:35:49.190672   773 layer_factory.hpp:77] Creating layer inception_3b/pool
I0814 21:35:49.190678   773 net.cpp:94] Creating Layer inception_3b/pool
I0814 21:35:49.190688   773 net.cpp:435] inception_3b/pool <- inception_3a/output_inception_3a/output_0_split_3
I0814 21:35:49.190696   773 net.cpp:409] inception_3b/pool -> inception_3b/pool
I0814 21:35:49.190728   773 net.cpp:144] Setting up inception_3b/pool
I0814 21:35:49.190749   773 net.cpp:151] Top shape: 32 256 28 28 (6422528)
I0814 21:35:49.190752   773 net.cpp:159] Memory required for data: 1017971200
I0814 21:35:49.190755   773 layer_factory.hpp:77] Creating layer inception_3b/pool_proj
I0814 21:35:49.190764   773 net.cpp:94] Creating Layer inception_3b/pool_proj
I0814 21:35:49.190768   773 net.cpp:435] inception_3b/pool_proj <- inception_3b/pool
I0814 21:35:49.190774   773 net.cpp:409] inception_3b/pool_proj -> inception_3b/pool_proj
I0814 21:35:49.191123   773 net.cpp:144] Setting up inception_3b/pool_proj
I0814 21:35:49.191130   773 net.cpp:151] Top shape: 32 64 28 28 (1605632)
I0814 21:35:49.191133   773 net.cpp:159] Memory required for data: 1024393728
I0814 21:35:49.191138   773 layer_factory.hpp:77] Creating layer inception_3b/relu_pool_proj
I0814 21:35:49.191144   773 net.cpp:94] Creating Layer inception_3b/relu_pool_proj
I0814 21:35:49.191148   773 net.cpp:435] inception_3b/relu_pool_proj <- inception_3b/pool_proj
I0814 21:35:49.191154   773 net.cpp:396] inception_3b/relu_pool_proj -> inception_3b/pool_proj (in-place)
I0814 21:35:49.191159   773 net.cpp:144] Setting up inception_3b/relu_pool_proj
I0814 21:35:49.191164   773 net.cpp:151] Top shape: 32 64 28 28 (1605632)
I0814 21:35:49.191166   773 net.cpp:159] Memory required for data: 1030816256
I0814 21:35:49.191169   773 layer_factory.hpp:77] Creating layer inception_3b/output
I0814 21:35:49.191175   773 net.cpp:94] Creating Layer inception_3b/output
I0814 21:35:49.191179   773 net.cpp:435] inception_3b/output <- inception_3b/1x1
I0814 21:35:49.191184   773 net.cpp:435] inception_3b/output <- inception_3b/3x3
I0814 21:35:49.191200   773 net.cpp:435] inception_3b/output <- inception_3b/5x5
I0814 21:35:49.191205   773 net.cpp:435] inception_3b/output <- inception_3b/pool_proj
I0814 21:35:49.191211   773 net.cpp:409] inception_3b/output -> inception_3b/output
I0814 21:35:49.191234   773 net.cpp:144] Setting up inception_3b/output
I0814 21:35:49.191239   773 net.cpp:151] Top shape: 32 480 28 28 (12042240)
I0814 21:35:49.191242   773 net.cpp:159] Memory required for data: 1078985216
I0814 21:35:49.191246   773 layer_factory.hpp:77] Creating layer pool3/3x3_s2
I0814 21:35:49.191252   773 net.cpp:94] Creating Layer pool3/3x3_s2
I0814 21:35:49.191256   773 net.cpp:435] pool3/3x3_s2 <- inception_3b/output
I0814 21:35:49.191262   773 net.cpp:409] pool3/3x3_s2 -> pool3/3x3_s2
I0814 21:35:49.191288   773 net.cpp:144] Setting up pool3/3x3_s2
I0814 21:35:49.191293   773 net.cpp:151] Top shape: 32 480 14 14 (3010560)
I0814 21:35:49.191296   773 net.cpp:159] Memory required for data: 1091027456
I0814 21:35:49.191299   773 layer_factory.hpp:77] Creating layer pool3/3x3_s2_pool3/3x3_s2_0_split
I0814 21:35:49.191305   773 net.cpp:94] Creating Layer pool3/3x3_s2_pool3/3x3_s2_0_split
I0814 21:35:49.191309   773 net.cpp:435] pool3/3x3_s2_pool3/3x3_s2_0_split <- pool3/3x3_s2
I0814 21:35:49.191315   773 net.cpp:409] pool3/3x3_s2_pool3/3x3_s2_0_split -> pool3/3x3_s2_pool3/3x3_s2_0_split_0
I0814 21:35:49.191321   773 net.cpp:409] pool3/3x3_s2_pool3/3x3_s2_0_split -> pool3/3x3_s2_pool3/3x3_s2_0_split_1
I0814 21:35:49.191327   773 net.cpp:409] pool3/3x3_s2_pool3/3x3_s2_0_split -> pool3/3x3_s2_pool3/3x3_s2_0_split_2
I0814 21:35:49.191332   773 net.cpp:409] pool3/3x3_s2_pool3/3x3_s2_0_split -> pool3/3x3_s2_pool3/3x3_s2_0_split_3
I0814 21:35:49.191373   773 net.cpp:144] Setting up pool3/3x3_s2_pool3/3x3_s2_0_split
I0814 21:35:49.191378   773 net.cpp:151] Top shape: 32 480 14 14 (3010560)
I0814 21:35:49.191382   773 net.cpp:151] Top shape: 32 480 14 14 (3010560)
I0814 21:35:49.191386   773 net.cpp:151] Top shape: 32 480 14 14 (3010560)
I0814 21:35:49.191390   773 net.cpp:151] Top shape: 32 480 14 14 (3010560)
I0814 21:35:49.191392   773 net.cpp:159] Memory required for data: 1139196416
I0814 21:35:49.191395   773 layer_factory.hpp:77] Creating layer inception_4a/1x1
I0814 21:35:49.191403   773 net.cpp:94] Creating Layer inception_4a/1x1
I0814 21:35:49.191407   773 net.cpp:435] inception_4a/1x1 <- pool3/3x3_s2_pool3/3x3_s2_0_split_0
I0814 21:35:49.191413   773 net.cpp:409] inception_4a/1x1 -> inception_4a/1x1
I0814 21:35:49.192205   773 net.cpp:144] Setting up inception_4a/1x1
I0814 21:35:49.192214   773 net.cpp:151] Top shape: 32 192 14 14 (1204224)
I0814 21:35:49.192216   773 net.cpp:159] Memory required for data: 1144013312
I0814 21:35:49.192222   773 layer_factory.hpp:77] Creating layer inception_4a/relu_1x1
I0814 21:35:49.192229   773 net.cpp:94] Creating Layer inception_4a/relu_1x1
I0814 21:35:49.192234   773 net.cpp:435] inception_4a/relu_1x1 <- inception_4a/1x1
I0814 21:35:49.192239   773 net.cpp:396] inception_4a/relu_1x1 -> inception_4a/1x1 (in-place)
I0814 21:35:49.192245   773 net.cpp:144] Setting up inception_4a/relu_1x1
I0814 21:35:49.192250   773 net.cpp:151] Top shape: 32 192 14 14 (1204224)
I0814 21:35:49.192252   773 net.cpp:159] Memory required for data: 1148830208
I0814 21:35:49.192255   773 layer_factory.hpp:77] Creating layer inception_4a/3x3_reduce
I0814 21:35:49.192265   773 net.cpp:94] Creating Layer inception_4a/3x3_reduce
I0814 21:35:49.192283   773 net.cpp:435] inception_4a/3x3_reduce <- pool3/3x3_s2_pool3/3x3_s2_0_split_1
I0814 21:35:49.192291   773 net.cpp:409] inception_4a/3x3_reduce -> inception_4a/3x3_reduce
I0814 21:35:49.195019   773 net.cpp:144] Setting up inception_4a/3x3_reduce
I0814 21:35:49.195034   773 net.cpp:151] Top shape: 32 96 14 14 (602112)
I0814 21:35:49.195037   773 net.cpp:159] Memory required for data: 1151238656
I0814 21:35:49.195049   773 layer_factory.hpp:77] Creating layer inception_4a/relu_3x3_reduce
I0814 21:35:49.195055   773 net.cpp:94] Creating Layer inception_4a/relu_3x3_reduce
I0814 21:35:49.195075   773 net.cpp:435] inception_4a/relu_3x3_reduce <- inception_4a/3x3_reduce
I0814 21:35:49.195081   773 net.cpp:396] inception_4a/relu_3x3_reduce -> inception_4a/3x3_reduce (in-place)
I0814 21:35:49.195091   773 net.cpp:144] Setting up inception_4a/relu_3x3_reduce
I0814 21:35:49.195094   773 net.cpp:151] Top shape: 32 96 14 14 (602112)
I0814 21:35:49.195098   773 net.cpp:159] Memory required for data: 1153647104
I0814 21:35:49.195101   773 layer_factory.hpp:77] Creating layer inception_4a/3x3
I0814 21:35:49.195111   773 net.cpp:94] Creating Layer inception_4a/3x3
I0814 21:35:49.195113   773 net.cpp:435] inception_4a/3x3 <- inception_4a/3x3_reduce
I0814 21:35:49.195120   773 net.cpp:409] inception_4a/3x3 -> inception_4a/3x3
I0814 21:35:49.196400   773 net.cpp:144] Setting up inception_4a/3x3
I0814 21:35:49.196444   773 net.cpp:151] Top shape: 32 208 14 14 (1304576)
I0814 21:35:49.196446   773 net.cpp:159] Memory required for data: 1158865408
I0814 21:35:49.196468   773 layer_factory.hpp:77] Creating layer inception_4a/relu_3x3
I0814 21:35:49.196475   773 net.cpp:94] Creating Layer inception_4a/relu_3x3
I0814 21:35:49.196494   773 net.cpp:435] inception_4a/relu_3x3 <- inception_4a/3x3
I0814 21:35:49.196499   773 net.cpp:396] inception_4a/relu_3x3 -> inception_4a/3x3 (in-place)
I0814 21:35:49.196506   773 net.cpp:144] Setting up inception_4a/relu_3x3
I0814 21:35:49.196511   773 net.cpp:151] Top shape: 32 208 14 14 (1304576)
I0814 21:35:49.196513   773 net.cpp:159] Memory required for data: 1164083712
I0814 21:35:49.196516   773 layer_factory.hpp:77] Creating layer inception_4a/5x5_reduce
I0814 21:35:49.196525   773 net.cpp:94] Creating Layer inception_4a/5x5_reduce
I0814 21:35:49.196529   773 net.cpp:435] inception_4a/5x5_reduce <- pool3/3x3_s2_pool3/3x3_s2_0_split_2
I0814 21:35:49.196537   773 net.cpp:409] inception_4a/5x5_reduce -> inception_4a/5x5_reduce
I0814 21:35:49.196794   773 net.cpp:144] Setting up inception_4a/5x5_reduce
I0814 21:35:49.196801   773 net.cpp:151] Top shape: 32 16 14 14 (100352)
I0814 21:35:49.196805   773 net.cpp:159] Memory required for data: 1164485120
I0814 21:35:49.196810   773 layer_factory.hpp:77] Creating layer inception_4a/relu_5x5_reduce
I0814 21:35:49.196816   773 net.cpp:94] Creating Layer inception_4a/relu_5x5_reduce
I0814 21:35:49.196820   773 net.cpp:435] inception_4a/relu_5x5_reduce <- inception_4a/5x5_reduce
I0814 21:35:49.196826   773 net.cpp:396] inception_4a/relu_5x5_reduce -> inception_4a/5x5_reduce (in-place)
I0814 21:35:49.196833   773 net.cpp:144] Setting up inception_4a/relu_5x5_reduce
I0814 21:35:49.196837   773 net.cpp:151] Top shape: 32 16 14 14 (100352)
I0814 21:35:49.196841   773 net.cpp:159] Memory required for data: 1164886528
I0814 21:35:49.196843   773 layer_factory.hpp:77] Creating layer inception_4a/5x5
I0814 21:35:49.196851   773 net.cpp:94] Creating Layer inception_4a/5x5
I0814 21:35:49.196856   773 net.cpp:435] inception_4a/5x5 <- inception_4a/5x5_reduce
I0814 21:35:49.196861   773 net.cpp:409] inception_4a/5x5 -> inception_4a/5x5
I0814 21:35:49.197177   773 net.cpp:144] Setting up inception_4a/5x5
I0814 21:35:49.197186   773 net.cpp:151] Top shape: 32 48 14 14 (301056)
I0814 21:35:49.197190   773 net.cpp:159] Memory required for data: 1166090752
I0814 21:35:49.197196   773 layer_factory.hpp:77] Creating layer inception_4a/relu_5x5
I0814 21:35:49.197201   773 net.cpp:94] Creating Layer inception_4a/relu_5x5
I0814 21:35:49.197204   773 net.cpp:435] inception_4a/relu_5x5 <- inception_4a/5x5
I0814 21:35:49.197211   773 net.cpp:396] inception_4a/relu_5x5 -> inception_4a/5x5 (in-place)
I0814 21:35:49.197216   773 net.cpp:144] Setting up inception_4a/relu_5x5
I0814 21:35:49.197221   773 net.cpp:151] Top shape: 32 48 14 14 (301056)
I0814 21:35:49.197223   773 net.cpp:159] Memory required for data: 1167294976
I0814 21:35:49.197227   773 layer_factory.hpp:77] Creating layer inception_4a/pool
I0814 21:35:49.197248   773 net.cpp:94] Creating Layer inception_4a/pool
I0814 21:35:49.197252   773 net.cpp:435] inception_4a/pool <- pool3/3x3_s2_pool3/3x3_s2_0_split_3
I0814 21:35:49.197270   773 net.cpp:409] inception_4a/pool -> inception_4a/pool
I0814 21:35:49.197307   773 net.cpp:144] Setting up inception_4a/pool
I0814 21:35:49.197314   773 net.cpp:151] Top shape: 32 480 14 14 (3010560)
I0814 21:35:49.197317   773 net.cpp:159] Memory required for data: 1179337216
I0814 21:35:49.197320   773 layer_factory.hpp:77] Creating layer inception_4a/pool_proj
I0814 21:35:49.197345   773 net.cpp:94] Creating Layer inception_4a/pool_proj
I0814 21:35:49.197348   773 net.cpp:435] inception_4a/pool_proj <- inception_4a/pool
I0814 21:35:49.197355   773 net.cpp:409] inception_4a/pool_proj -> inception_4a/pool_proj
I0814 21:35:49.198580   773 net.cpp:144] Setting up inception_4a/pool_proj
I0814 21:35:49.198637   773 net.cpp:151] Top shape: 32 64 14 14 (401408)
I0814 21:35:49.198642   773 net.cpp:159] Memory required for data: 1180942848
I0814 21:35:49.198648   773 layer_factory.hpp:77] Creating layer inception_4a/relu_pool_proj
I0814 21:35:49.198657   773 net.cpp:94] Creating Layer inception_4a/relu_pool_proj
I0814 21:35:49.198660   773 net.cpp:435] inception_4a/relu_pool_proj <- inception_4a/pool_proj
I0814 21:35:49.198668   773 net.cpp:396] inception_4a/relu_pool_proj -> inception_4a/pool_proj (in-place)
I0814 21:35:49.198675   773 net.cpp:144] Setting up inception_4a/relu_pool_proj
I0814 21:35:49.198680   773 net.cpp:151] Top shape: 32 64 14 14 (401408)
I0814 21:35:49.198694   773 net.cpp:159] Memory required for data: 1182548480
I0814 21:35:49.198698   773 layer_factory.hpp:77] Creating layer inception_4a/output
I0814 21:35:49.198704   773 net.cpp:94] Creating Layer inception_4a/output
I0814 21:35:49.198707   773 net.cpp:435] inception_4a/output <- inception_4a/1x1
I0814 21:35:49.198712   773 net.cpp:435] inception_4a/output <- inception_4a/3x3
I0814 21:35:49.198716   773 net.cpp:435] inception_4a/output <- inception_4a/5x5
I0814 21:35:49.198720   773 net.cpp:435] inception_4a/output <- inception_4a/pool_proj
I0814 21:35:49.198726   773 net.cpp:409] inception_4a/output -> inception_4a/output
I0814 21:35:49.198753   773 net.cpp:144] Setting up inception_4a/output
I0814 21:35:49.198760   773 net.cpp:151] Top shape: 32 512 14 14 (3211264)
I0814 21:35:49.198763   773 net.cpp:159] Memory required for data: 1195393536
I0814 21:35:49.198766   773 layer_factory.hpp:77] Creating layer inception_4a/output_inception_4a/output_0_split
I0814 21:35:49.198839   773 net.cpp:94] Creating Layer inception_4a/output_inception_4a/output_0_split
I0814 21:35:49.198845   773 net.cpp:435] inception_4a/output_inception_4a/output_0_split <- inception_4a/output
I0814 21:35:49.198853   773 net.cpp:409] inception_4a/output_inception_4a/output_0_split -> inception_4a/output_inception_4a/output_0_split_0
I0814 21:35:49.198860   773 net.cpp:409] inception_4a/output_inception_4a/output_0_split -> inception_4a/output_inception_4a/output_0_split_1
I0814 21:35:49.198868   773 net.cpp:409] inception_4a/output_inception_4a/output_0_split -> inception_4a/output_inception_4a/output_0_split_2
I0814 21:35:49.198875   773 net.cpp:409] inception_4a/output_inception_4a/output_0_split -> inception_4a/output_inception_4a/output_0_split_3
I0814 21:35:49.198882   773 net.cpp:409] inception_4a/output_inception_4a/output_0_split -> inception_4a/output_inception_4a/output_0_split_4
I0814 21:35:49.198942   773 net.cpp:144] Setting up inception_4a/output_inception_4a/output_0_split
I0814 21:35:49.198949   773 net.cpp:151] Top shape: 32 512 14 14 (3211264)
I0814 21:35:49.198953   773 net.cpp:151] Top shape: 32 512 14 14 (3211264)
I0814 21:35:49.198957   773 net.cpp:151] Top shape: 32 512 14 14 (3211264)
I0814 21:35:49.198961   773 net.cpp:151] Top shape: 32 512 14 14 (3211264)
I0814 21:35:49.198964   773 net.cpp:151] Top shape: 32 512 14 14 (3211264)
I0814 21:35:49.198967   773 net.cpp:159] Memory required for data: 1259618816
I0814 21:35:49.198971   773 layer_factory.hpp:77] Creating layer loss1/ave_pool
I0814 21:35:49.198977   773 net.cpp:94] Creating Layer loss1/ave_pool
I0814 21:35:49.198981   773 net.cpp:435] loss1/ave_pool <- inception_4a/output_inception_4a/output_0_split_0
I0814 21:35:49.199007   773 net.cpp:409] loss1/ave_pool -> loss1/ave_pool
I0814 21:35:49.199040   773 net.cpp:144] Setting up loss1/ave_pool
I0814 21:35:49.199048   773 net.cpp:151] Top shape: 32 512 4 4 (262144)
I0814 21:35:49.199050   773 net.cpp:159] Memory required for data: 1260667392
I0814 21:35:49.199054   773 layer_factory.hpp:77] Creating layer loss1/conv
I0814 21:35:49.199064   773 net.cpp:94] Creating Layer loss1/conv
I0814 21:35:49.199067   773 net.cpp:435] loss1/conv <- loss1/ave_pool
I0814 21:35:49.199074   773 net.cpp:409] loss1/conv -> loss1/conv
I0814 21:35:49.199666   773 net.cpp:144] Setting up loss1/conv
I0814 21:35:49.199676   773 net.cpp:151] Top shape: 32 128 4 4 (65536)
I0814 21:35:49.199679   773 net.cpp:159] Memory required for data: 1260929536
I0814 21:35:49.199692   773 layer_factory.hpp:77] Creating layer loss1/relu_conv
I0814 21:35:49.199698   773 net.cpp:94] Creating Layer loss1/relu_conv
I0814 21:35:49.199703   773 net.cpp:435] loss1/relu_conv <- loss1/conv
I0814 21:35:49.199708   773 net.cpp:396] loss1/relu_conv -> loss1/conv (in-place)
I0814 21:35:49.199715   773 net.cpp:144] Setting up loss1/relu_conv
I0814 21:35:49.199720   773 net.cpp:151] Top shape: 32 128 4 4 (65536)
I0814 21:35:49.199723   773 net.cpp:159] Memory required for data: 1261191680
I0814 21:35:49.199726   773 layer_factory.hpp:77] Creating layer loss1/fc
I0814 21:35:49.199735   773 net.cpp:94] Creating Layer loss1/fc
I0814 21:35:49.199738   773 net.cpp:435] loss1/fc <- loss1/conv
I0814 21:35:49.199744   773 net.cpp:409] loss1/fc -> loss1/fc
I0814 21:35:49.217679   773 net.cpp:144] Setting up loss1/fc
I0814 21:35:49.217717   773 net.cpp:151] Top shape: 32 1024 (32768)
I0814 21:35:49.217721   773 net.cpp:159] Memory required for data: 1261322752
I0814 21:35:49.217728   773 layer_factory.hpp:77] Creating layer loss1/relu_fc
I0814 21:35:49.217736   773 net.cpp:94] Creating Layer loss1/relu_fc
I0814 21:35:49.217739   773 net.cpp:435] loss1/relu_fc <- loss1/fc
I0814 21:35:49.217746   773 net.cpp:396] loss1/relu_fc -> loss1/fc (in-place)
I0814 21:35:49.217754   773 net.cpp:144] Setting up loss1/relu_fc
I0814 21:35:49.217758   773 net.cpp:151] Top shape: 32 1024 (32768)
I0814 21:35:49.217761   773 net.cpp:159] Memory required for data: 1261453824
I0814 21:35:49.217764   773 layer_factory.hpp:77] Creating layer loss1/drop_fc
I0814 21:35:49.217782   773 net.cpp:94] Creating Layer loss1/drop_fc
I0814 21:35:49.217787   773 net.cpp:435] loss1/drop_fc <- loss1/fc
I0814 21:35:49.217792   773 net.cpp:396] loss1/drop_fc -> loss1/fc (in-place)
I0814 21:35:49.217816   773 net.cpp:144] Setting up loss1/drop_fc
I0814 21:35:49.217821   773 net.cpp:151] Top shape: 32 1024 (32768)
I0814 21:35:49.217824   773 net.cpp:159] Memory required for data: 1261584896
I0814 21:35:49.217859   773 layer_factory.hpp:77] Creating layer loss1/classifier
I0814 21:35:49.217869   773 net.cpp:94] Creating Layer loss1/classifier
I0814 21:35:49.217872   773 net.cpp:435] loss1/classifier <- loss1/fc
I0814 21:35:49.217878   773 net.cpp:409] loss1/classifier -> loss1/classifier
I0814 21:35:49.217991   773 net.cpp:144] Setting up loss1/classifier
I0814 21:35:49.217998   773 net.cpp:151] Top shape: 32 5 (160)
I0814 21:35:49.218000   773 net.cpp:159] Memory required for data: 1261585536
I0814 21:35:49.218005   773 layer_factory.hpp:77] Creating layer loss1/loss
I0814 21:35:49.218013   773 net.cpp:94] Creating Layer loss1/loss
I0814 21:35:49.218016   773 net.cpp:435] loss1/loss <- loss1/classifier
I0814 21:35:49.218020   773 net.cpp:435] loss1/loss <- label_train-data_1_split_0
I0814 21:35:49.218026   773 net.cpp:409] loss1/loss -> loss1/loss
I0814 21:35:49.218036   773 layer_factory.hpp:77] Creating layer loss1/loss
I0814 21:35:49.218116   773 net.cpp:144] Setting up loss1/loss
I0814 21:35:49.218120   773 net.cpp:151] Top shape: (1)
I0814 21:35:49.218123   773 net.cpp:154]     with loss weight 0.3
I0814 21:35:49.218159   773 net.cpp:159] Memory required for data: 1261585540
I0814 21:35:49.218163   773 layer_factory.hpp:77] Creating layer inception_4b/1x1
I0814 21:35:49.218190   773 net.cpp:94] Creating Layer inception_4b/1x1
I0814 21:35:49.218196   773 net.cpp:435] inception_4b/1x1 <- inception_4a/output_inception_4a/output_0_split_1
I0814 21:35:49.218204   773 net.cpp:409] inception_4b/1x1 -> inception_4b/1x1
I0814 21:35:49.219022   773 net.cpp:144] Setting up inception_4b/1x1
I0814 21:35:49.219048   773 net.cpp:151] Top shape: 32 160 14 14 (1003520)
I0814 21:35:49.219051   773 net.cpp:159] Memory required for data: 1265599620
I0814 21:35:49.219056   773 layer_factory.hpp:77] Creating layer inception_4b/relu_1x1
I0814 21:35:49.219063   773 net.cpp:94] Creating Layer inception_4b/relu_1x1
I0814 21:35:49.219066   773 net.cpp:435] inception_4b/relu_1x1 <- inception_4b/1x1
I0814 21:35:49.219072   773 net.cpp:396] inception_4b/relu_1x1 -> inception_4b/1x1 (in-place)
I0814 21:35:49.219079   773 net.cpp:144] Setting up inception_4b/relu_1x1
I0814 21:35:49.219084   773 net.cpp:151] Top shape: 32 160 14 14 (1003520)
I0814 21:35:49.219087   773 net.cpp:159] Memory required for data: 1269613700
I0814 21:35:49.219090   773 layer_factory.hpp:77] Creating layer inception_4b/3x3_reduce
I0814 21:35:49.219099   773 net.cpp:94] Creating Layer inception_4b/3x3_reduce
I0814 21:35:49.219102   773 net.cpp:435] inception_4b/3x3_reduce <- inception_4a/output_inception_4a/output_0_split_2
I0814 21:35:49.219110   773 net.cpp:409] inception_4b/3x3_reduce -> inception_4b/3x3_reduce
I0814 21:35:49.219660   773 net.cpp:144] Setting up inception_4b/3x3_reduce
I0814 21:35:49.219668   773 net.cpp:151] Top shape: 32 112 14 14 (702464)
I0814 21:35:49.219671   773 net.cpp:159] Memory required for data: 1272423556
I0814 21:35:49.219676   773 layer_factory.hpp:77] Creating layer inception_4b/relu_3x3_reduce
I0814 21:35:49.219691   773 net.cpp:94] Creating Layer inception_4b/relu_3x3_reduce
I0814 21:35:49.219696   773 net.cpp:435] inception_4b/relu_3x3_reduce <- inception_4b/3x3_reduce
I0814 21:35:49.219702   773 net.cpp:396] inception_4b/relu_3x3_reduce -> inception_4b/3x3_reduce (in-place)
I0814 21:35:49.219708   773 net.cpp:144] Setting up inception_4b/relu_3x3_reduce
I0814 21:35:49.219712   773 net.cpp:151] Top shape: 32 112 14 14 (702464)
I0814 21:35:49.219715   773 net.cpp:159] Memory required for data: 1275233412
I0814 21:35:49.219718   773 layer_factory.hpp:77] Creating layer inception_4b/3x3
I0814 21:35:49.219727   773 net.cpp:94] Creating Layer inception_4b/3x3
I0814 21:35:49.219732   773 net.cpp:435] inception_4b/3x3 <- inception_4b/3x3_reduce
I0814 21:35:49.219736   773 net.cpp:409] inception_4b/3x3 -> inception_4b/3x3
I0814 21:35:49.222717   773 net.cpp:144] Setting up inception_4b/3x3
I0814 21:35:49.222733   773 net.cpp:151] Top shape: 32 224 14 14 (1404928)
I0814 21:35:49.222738   773 net.cpp:159] Memory required for data: 1280853124
I0814 21:35:49.222744   773 layer_factory.hpp:77] Creating layer inception_4b/relu_3x3
I0814 21:35:49.222751   773 net.cpp:94] Creating Layer inception_4b/relu_3x3
I0814 21:35:49.222755   773 net.cpp:435] inception_4b/relu_3x3 <- inception_4b/3x3
I0814 21:35:49.222762   773 net.cpp:396] inception_4b/relu_3x3 -> inception_4b/3x3 (in-place)
I0814 21:35:49.222770   773 net.cpp:144] Setting up inception_4b/relu_3x3
I0814 21:35:49.222775   773 net.cpp:151] Top shape: 32 224 14 14 (1404928)
I0814 21:35:49.222779   773 net.cpp:159] Memory required for data: 1286472836
I0814 21:35:49.222781   773 layer_factory.hpp:77] Creating layer inception_4b/5x5_reduce
I0814 21:35:49.222790   773 net.cpp:94] Creating Layer inception_4b/5x5_reduce
I0814 21:35:49.222795   773 net.cpp:435] inception_4b/5x5_reduce <- inception_4a/output_inception_4a/output_0_split_3
I0814 21:35:49.222801   773 net.cpp:409] inception_4b/5x5_reduce -> inception_4b/5x5_reduce
I0814 21:35:49.223093   773 net.cpp:144] Setting up inception_4b/5x5_reduce
I0814 21:35:49.223101   773 net.cpp:151] Top shape: 32 24 14 14 (150528)
I0814 21:35:49.223104   773 net.cpp:159] Memory required for data: 1287074948
I0814 21:35:49.223109   773 layer_factory.hpp:77] Creating layer inception_4b/relu_5x5_reduce
I0814 21:35:49.223130   773 net.cpp:94] Creating Layer inception_4b/relu_5x5_reduce
I0814 21:35:49.223135   773 net.cpp:435] inception_4b/relu_5x5_reduce <- inception_4b/5x5_reduce
I0814 21:35:49.223142   773 net.cpp:396] inception_4b/relu_5x5_reduce -> inception_4b/5x5_reduce (in-place)
I0814 21:35:49.223148   773 net.cpp:144] Setting up inception_4b/relu_5x5_reduce
I0814 21:35:49.223153   773 net.cpp:151] Top shape: 32 24 14 14 (150528)
I0814 21:35:49.223156   773 net.cpp:159] Memory required for data: 1287677060
I0814 21:35:49.223160   773 layer_factory.hpp:77] Creating layer inception_4b/5x5
I0814 21:35:49.223168   773 net.cpp:94] Creating Layer inception_4b/5x5
I0814 21:35:49.223172   773 net.cpp:435] inception_4b/5x5 <- inception_4b/5x5_reduce
I0814 21:35:49.223178   773 net.cpp:409] inception_4b/5x5 -> inception_4b/5x5
I0814 21:35:49.224272   773 net.cpp:144] Setting up inception_4b/5x5
I0814 21:35:49.224284   773 net.cpp:151] Top shape: 32 64 14 14 (401408)
I0814 21:35:49.224288   773 net.cpp:159] Memory required for data: 1289282692
I0814 21:35:49.224294   773 layer_factory.hpp:77] Creating layer inception_4b/relu_5x5
I0814 21:35:49.224300   773 net.cpp:94] Creating Layer inception_4b/relu_5x5
I0814 21:35:49.224304   773 net.cpp:435] inception_4b/relu_5x5 <- inception_4b/5x5
I0814 21:35:49.224310   773 net.cpp:396] inception_4b/relu_5x5 -> inception_4b/5x5 (in-place)
I0814 21:35:49.224318   773 net.cpp:144] Setting up inception_4b/relu_5x5
I0814 21:35:49.224323   773 net.cpp:151] Top shape: 32 64 14 14 (401408)
I0814 21:35:49.224325   773 net.cpp:159] Memory required for data: 1290888324
I0814 21:35:49.224328   773 layer_factory.hpp:77] Creating layer inception_4b/pool
I0814 21:35:49.224334   773 net.cpp:94] Creating Layer inception_4b/pool
I0814 21:35:49.224339   773 net.cpp:435] inception_4b/pool <- inception_4a/output_inception_4a/output_0_split_4
I0814 21:35:49.224345   773 net.cpp:409] inception_4b/pool -> inception_4b/pool
I0814 21:35:49.224390   773 net.cpp:144] Setting up inception_4b/pool
I0814 21:35:49.224396   773 net.cpp:151] Top shape: 32 512 14 14 (3211264)
I0814 21:35:49.224400   773 net.cpp:159] Memory required for data: 1303733380
I0814 21:35:49.224402   773 layer_factory.hpp:77] Creating layer inception_4b/pool_proj
I0814 21:35:49.224411   773 net.cpp:94] Creating Layer inception_4b/pool_proj
I0814 21:35:49.224416   773 net.cpp:435] inception_4b/pool_proj <- inception_4b/pool
I0814 21:35:49.224421   773 net.cpp:409] inception_4b/pool_proj -> inception_4b/pool_proj
I0814 21:35:49.224905   773 net.cpp:144] Setting up inception_4b/pool_proj
I0814 21:35:49.224915   773 net.cpp:151] Top shape: 32 64 14 14 (401408)
I0814 21:35:49.224918   773 net.cpp:159] Memory required for data: 1305339012
I0814 21:35:49.224925   773 layer_factory.hpp:77] Creating layer inception_4b/relu_pool_proj
I0814 21:35:49.224931   773 net.cpp:94] Creating Layer inception_4b/relu_pool_proj
I0814 21:35:49.224934   773 net.cpp:435] inception_4b/relu_pool_proj <- inception_4b/pool_proj
I0814 21:35:49.224941   773 net.cpp:396] inception_4b/relu_pool_proj -> inception_4b/pool_proj (in-place)
I0814 21:35:49.224962   773 net.cpp:144] Setting up inception_4b/relu_pool_proj
I0814 21:35:49.224982   773 net.cpp:151] Top shape: 32 64 14 14 (401408)
I0814 21:35:49.224984   773 net.cpp:159] Memory required for data: 1306944644
I0814 21:35:49.224987   773 layer_factory.hpp:77] Creating layer inception_4b/output
I0814 21:35:49.225008   773 net.cpp:94] Creating Layer inception_4b/output
I0814 21:35:49.225013   773 net.cpp:435] inception_4b/output <- inception_4b/1x1
I0814 21:35:49.225016   773 net.cpp:435] inception_4b/output <- inception_4b/3x3
I0814 21:35:49.225020   773 net.cpp:435] inception_4b/output <- inception_4b/5x5
I0814 21:35:49.225024   773 net.cpp:435] inception_4b/output <- inception_4b/pool_proj
I0814 21:35:49.225030   773 net.cpp:409] inception_4b/output -> inception_4b/output
I0814 21:35:49.225052   773 net.cpp:144] Setting up inception_4b/output
I0814 21:35:49.225059   773 net.cpp:151] Top shape: 32 512 14 14 (3211264)
I0814 21:35:49.225090   773 net.cpp:159] Memory required for data: 1319789700
I0814 21:35:49.225095   773 layer_factory.hpp:77] Creating layer inception_4b/output_inception_4b/output_0_split
I0814 21:35:49.225101   773 net.cpp:94] Creating Layer inception_4b/output_inception_4b/output_0_split
I0814 21:35:49.225106   773 net.cpp:435] inception_4b/output_inception_4b/output_0_split <- inception_4b/output
I0814 21:35:49.225112   773 net.cpp:409] inception_4b/output_inception_4b/output_0_split -> inception_4b/output_inception_4b/output_0_split_0
I0814 21:35:49.225119   773 net.cpp:409] inception_4b/output_inception_4b/output_0_split -> inception_4b/output_inception_4b/output_0_split_1
I0814 21:35:49.225126   773 net.cpp:409] inception_4b/output_inception_4b/output_0_split -> inception_4b/output_inception_4b/output_0_split_2
I0814 21:35:49.225133   773 net.cpp:409] inception_4b/output_inception_4b/output_0_split -> inception_4b/output_inception_4b/output_0_split_3
I0814 21:35:49.225186   773 net.cpp:144] Setting up inception_4b/output_inception_4b/output_0_split
I0814 21:35:49.225194   773 net.cpp:151] Top shape: 32 512 14 14 (3211264)
I0814 21:35:49.225198   773 net.cpp:151] Top shape: 32 512 14 14 (3211264)
I0814 21:35:49.225203   773 net.cpp:151] Top shape: 32 512 14 14 (3211264)
I0814 21:35:49.225206   773 net.cpp:151] Top shape: 32 512 14 14 (3211264)
I0814 21:35:49.225209   773 net.cpp:159] Memory required for data: 1371169924
I0814 21:35:49.225212   773 layer_factory.hpp:77] Creating layer inception_4c/1x1
I0814 21:35:49.225220   773 net.cpp:94] Creating Layer inception_4c/1x1
I0814 21:35:49.225224   773 net.cpp:435] inception_4c/1x1 <- inception_4b/output_inception_4b/output_0_split_0
I0814 21:35:49.225231   773 net.cpp:409] inception_4c/1x1 -> inception_4c/1x1
I0814 21:35:49.225826   773 net.cpp:144] Setting up inception_4c/1x1
I0814 21:35:49.225854   773 net.cpp:151] Top shape: 32 128 14 14 (802816)
I0814 21:35:49.225858   773 net.cpp:159] Memory required for data: 1374381188
I0814 21:35:49.225865   773 layer_factory.hpp:77] Creating layer inception_4c/relu_1x1
I0814 21:35:49.225872   773 net.cpp:94] Creating Layer inception_4c/relu_1x1
I0814 21:35:49.225875   773 net.cpp:435] inception_4c/relu_1x1 <- inception_4c/1x1
I0814 21:35:49.225881   773 net.cpp:396] inception_4c/relu_1x1 -> inception_4c/1x1 (in-place)
I0814 21:35:49.225888   773 net.cpp:144] Setting up inception_4c/relu_1x1
I0814 21:35:49.225893   773 net.cpp:151] Top shape: 32 128 14 14 (802816)
I0814 21:35:49.225896   773 net.cpp:159] Memory required for data: 1377592452
I0814 21:35:49.225899   773 layer_factory.hpp:77] Creating layer inception_4c/3x3_reduce
I0814 21:35:49.225909   773 net.cpp:94] Creating Layer inception_4c/3x3_reduce
I0814 21:35:49.225914   773 net.cpp:435] inception_4c/3x3_reduce <- inception_4b/output_inception_4b/output_0_split_1
I0814 21:35:49.225920   773 net.cpp:409] inception_4c/3x3_reduce -> inception_4c/3x3_reduce
I0814 21:35:49.226512   773 net.cpp:144] Setting up inception_4c/3x3_reduce
I0814 21:35:49.226521   773 net.cpp:151] Top shape: 32 128 14 14 (802816)
I0814 21:35:49.226523   773 net.cpp:159] Memory required for data: 1380803716
I0814 21:35:49.226529   773 layer_factory.hpp:77] Creating layer inception_4c/relu_3x3_reduce
I0814 21:35:49.226534   773 net.cpp:94] Creating Layer inception_4c/relu_3x3_reduce
I0814 21:35:49.226538   773 net.cpp:435] inception_4c/relu_3x3_reduce <- inception_4c/3x3_reduce
I0814 21:35:49.226544   773 net.cpp:396] inception_4c/relu_3x3_reduce -> inception_4c/3x3_reduce (in-place)
I0814 21:35:49.226550   773 net.cpp:144] Setting up inception_4c/relu_3x3_reduce
I0814 21:35:49.226555   773 net.cpp:151] Top shape: 32 128 14 14 (802816)
I0814 21:35:49.226558   773 net.cpp:159] Memory required for data: 1384014980
I0814 21:35:49.226562   773 layer_factory.hpp:77] Creating layer inception_4c/3x3
I0814 21:35:49.226570   773 net.cpp:94] Creating Layer inception_4c/3x3
I0814 21:35:49.226573   773 net.cpp:435] inception_4c/3x3 <- inception_4c/3x3_reduce
I0814 21:35:49.226595   773 net.cpp:409] inception_4c/3x3 -> inception_4c/3x3
I0814 21:35:49.229312   773 net.cpp:144] Setting up inception_4c/3x3
I0814 21:35:49.229326   773 net.cpp:151] Top shape: 32 256 14 14 (1605632)
I0814 21:35:49.229331   773 net.cpp:159] Memory required for data: 1390437508
I0814 21:35:49.229344   773 layer_factory.hpp:77] Creating layer inception_4c/relu_3x3
I0814 21:35:49.229351   773 net.cpp:94] Creating Layer inception_4c/relu_3x3
I0814 21:35:49.229357   773 net.cpp:435] inception_4c/relu_3x3 <- inception_4c/3x3
I0814 21:35:49.229362   773 net.cpp:396] inception_4c/relu_3x3 -> inception_4c/3x3 (in-place)
I0814 21:35:49.229370   773 net.cpp:144] Setting up inception_4c/relu_3x3
I0814 21:35:49.229374   773 net.cpp:151] Top shape: 32 256 14 14 (1605632)
I0814 21:35:49.229377   773 net.cpp:159] Memory required for data: 1396860036
I0814 21:35:49.229382   773 layer_factory.hpp:77] Creating layer inception_4c/5x5_reduce
I0814 21:35:49.229389   773 net.cpp:94] Creating Layer inception_4c/5x5_reduce
I0814 21:35:49.229393   773 net.cpp:435] inception_4c/5x5_reduce <- inception_4b/output_inception_4b/output_0_split_2
I0814 21:35:49.229400   773 net.cpp:409] inception_4c/5x5_reduce -> inception_4c/5x5_reduce
I0814 21:35:49.229666   773 net.cpp:144] Setting up inception_4c/5x5_reduce
I0814 21:35:49.229674   773 net.cpp:151] Top shape: 32 24 14 14 (150528)
I0814 21:35:49.229677   773 net.cpp:159] Memory required for data: 1397462148
I0814 21:35:49.229691   773 layer_factory.hpp:77] Creating layer inception_4c/relu_5x5_reduce
I0814 21:35:49.229713   773 net.cpp:94] Creating Layer inception_4c/relu_5x5_reduce
I0814 21:35:49.229717   773 net.cpp:435] inception_4c/relu_5x5_reduce <- inception_4c/5x5_reduce
I0814 21:35:49.229723   773 net.cpp:396] inception_4c/relu_5x5_reduce -> inception_4c/5x5_reduce (in-place)
I0814 21:35:49.229730   773 net.cpp:144] Setting up inception_4c/relu_5x5_reduce
I0814 21:35:49.229734   773 net.cpp:151] Top shape: 32 24 14 14 (150528)
I0814 21:35:49.229737   773 net.cpp:159] Memory required for data: 1398064260
I0814 21:35:49.229741   773 layer_factory.hpp:77] Creating layer inception_4c/5x5
I0814 21:35:49.229750   773 net.cpp:94] Creating Layer inception_4c/5x5
I0814 21:35:49.229753   773 net.cpp:435] inception_4c/5x5 <- inception_4c/5x5_reduce
I0814 21:35:49.229760   773 net.cpp:409] inception_4c/5x5 -> inception_4c/5x5
I0814 21:35:49.230285   773 net.cpp:144] Setting up inception_4c/5x5
I0814 21:35:49.230294   773 net.cpp:151] Top shape: 32 64 14 14 (401408)
I0814 21:35:49.230298   773 net.cpp:159] Memory required for data: 1399669892
I0814 21:35:49.230304   773 layer_factory.hpp:77] Creating layer inception_4c/relu_5x5
I0814 21:35:49.230310   773 net.cpp:94] Creating Layer inception_4c/relu_5x5
I0814 21:35:49.230314   773 net.cpp:435] inception_4c/relu_5x5 <- inception_4c/5x5
I0814 21:35:49.230320   773 net.cpp:396] inception_4c/relu_5x5 -> inception_4c/5x5 (in-place)
I0814 21:35:49.230326   773 net.cpp:144] Setting up inception_4c/relu_5x5
I0814 21:35:49.230331   773 net.cpp:151] Top shape: 32 64 14 14 (401408)
I0814 21:35:49.230334   773 net.cpp:159] Memory required for data: 1401275524
I0814 21:35:49.230336   773 layer_factory.hpp:77] Creating layer inception_4c/pool
I0814 21:35:49.230343   773 net.cpp:94] Creating Layer inception_4c/pool
I0814 21:35:49.230347   773 net.cpp:435] inception_4c/pool <- inception_4b/output_inception_4b/output_0_split_3
I0814 21:35:49.230353   773 net.cpp:409] inception_4c/pool -> inception_4c/pool
I0814 21:35:49.230386   773 net.cpp:144] Setting up inception_4c/pool
I0814 21:35:49.230392   773 net.cpp:151] Top shape: 32 512 14 14 (3211264)
I0814 21:35:49.230396   773 net.cpp:159] Memory required for data: 1414120580
I0814 21:35:49.230398   773 layer_factory.hpp:77] Creating layer inception_4c/pool_proj
I0814 21:35:49.230406   773 net.cpp:94] Creating Layer inception_4c/pool_proj
I0814 21:35:49.230410   773 net.cpp:435] inception_4c/pool_proj <- inception_4c/pool
I0814 21:35:49.230417   773 net.cpp:409] inception_4c/pool_proj -> inception_4c/pool_proj
I0814 21:35:49.231423   773 net.cpp:144] Setting up inception_4c/pool_proj
I0814 21:35:49.231451   773 net.cpp:151] Top shape: 32 64 14 14 (401408)
I0814 21:35:49.231456   773 net.cpp:159] Memory required for data: 1415726212
I0814 21:35:49.231462   773 layer_factory.hpp:77] Creating layer inception_4c/relu_pool_proj
I0814 21:35:49.231469   773 net.cpp:94] Creating Layer inception_4c/relu_pool_proj
I0814 21:35:49.231473   773 net.cpp:435] inception_4c/relu_pool_proj <- inception_4c/pool_proj
I0814 21:35:49.231480   773 net.cpp:396] inception_4c/relu_pool_proj -> inception_4c/pool_proj (in-place)
I0814 21:35:49.231488   773 net.cpp:144] Setting up inception_4c/relu_pool_proj
I0814 21:35:49.231492   773 net.cpp:151] Top shape: 32 64 14 14 (401408)
I0814 21:35:49.231495   773 net.cpp:159] Memory required for data: 1417331844
I0814 21:35:49.231498   773 layer_factory.hpp:77] Creating layer inception_4c/output
I0814 21:35:49.231504   773 net.cpp:94] Creating Layer inception_4c/output
I0814 21:35:49.231508   773 net.cpp:435] inception_4c/output <- inception_4c/1x1
I0814 21:35:49.231513   773 net.cpp:435] inception_4c/output <- inception_4c/3x3
I0814 21:35:49.231518   773 net.cpp:435] inception_4c/output <- inception_4c/5x5
I0814 21:35:49.231520   773 net.cpp:435] inception_4c/output <- inception_4c/pool_proj
I0814 21:35:49.231526   773 net.cpp:409] inception_4c/output -> inception_4c/output
I0814 21:35:49.231552   773 net.cpp:144] Setting up inception_4c/output
I0814 21:35:49.231559   773 net.cpp:151] Top shape: 32 512 14 14 (3211264)
I0814 21:35:49.231560   773 net.cpp:159] Memory required for data: 1430176900
I0814 21:35:49.231564   773 layer_factory.hpp:77] Creating layer inception_4c/output_inception_4c/output_0_split
I0814 21:35:49.231586   773 net.cpp:94] Creating Layer inception_4c/output_inception_4c/output_0_split
I0814 21:35:49.231590   773 net.cpp:435] inception_4c/output_inception_4c/output_0_split <- inception_4c/output
I0814 21:35:49.231598   773 net.cpp:409] inception_4c/output_inception_4c/output_0_split -> inception_4c/output_inception_4c/output_0_split_0
I0814 21:35:49.231606   773 net.cpp:409] inception_4c/output_inception_4c/output_0_split -> inception_4c/output_inception_4c/output_0_split_1
I0814 21:35:49.231612   773 net.cpp:409] inception_4c/output_inception_4c/output_0_split -> inception_4c/output_inception_4c/output_0_split_2
I0814 21:35:49.231619   773 net.cpp:409] inception_4c/output_inception_4c/output_0_split -> inception_4c/output_inception_4c/output_0_split_3
I0814 21:35:49.231669   773 net.cpp:144] Setting up inception_4c/output_inception_4c/output_0_split
I0814 21:35:49.231675   773 net.cpp:151] Top shape: 32 512 14 14 (3211264)
I0814 21:35:49.231679   773 net.cpp:151] Top shape: 32 512 14 14 (3211264)
I0814 21:35:49.231693   773 net.cpp:151] Top shape: 32 512 14 14 (3211264)
I0814 21:35:49.231698   773 net.cpp:151] Top shape: 32 512 14 14 (3211264)
I0814 21:35:49.231700   773 net.cpp:159] Memory required for data: 1481557124
I0814 21:35:49.231703   773 layer_factory.hpp:77] Creating layer inception_4d/1x1
I0814 21:35:49.231712   773 net.cpp:94] Creating Layer inception_4d/1x1
I0814 21:35:49.231716   773 net.cpp:435] inception_4d/1x1 <- inception_4c/output_inception_4c/output_0_split_0
I0814 21:35:49.231724   773 net.cpp:409] inception_4d/1x1 -> inception_4d/1x1
I0814 21:35:49.232266   773 net.cpp:144] Setting up inception_4d/1x1
I0814 21:35:49.232275   773 net.cpp:151] Top shape: 32 112 14 14 (702464)
I0814 21:35:49.232277   773 net.cpp:159] Memory required for data: 1484366980
I0814 21:35:49.232282   773 layer_factory.hpp:77] Creating layer inception_4d/relu_1x1
I0814 21:35:49.232290   773 net.cpp:94] Creating Layer inception_4d/relu_1x1
I0814 21:35:49.232293   773 net.cpp:435] inception_4d/relu_1x1 <- inception_4d/1x1
I0814 21:35:49.232298   773 net.cpp:396] inception_4d/relu_1x1 -> inception_4d/1x1 (in-place)
I0814 21:35:49.232306   773 net.cpp:144] Setting up inception_4d/relu_1x1
I0814 21:35:49.232309   773 net.cpp:151] Top shape: 32 112 14 14 (702464)
I0814 21:35:49.232312   773 net.cpp:159] Memory required for data: 1487176836
I0814 21:35:49.232327   773 layer_factory.hpp:77] Creating layer inception_4d/3x3_reduce
I0814 21:35:49.232336   773 net.cpp:94] Creating Layer inception_4d/3x3_reduce
I0814 21:35:49.232340   773 net.cpp:435] inception_4d/3x3_reduce <- inception_4c/output_inception_4c/output_0_split_1
I0814 21:35:49.232347   773 net.cpp:409] inception_4d/3x3_reduce -> inception_4d/3x3_reduce
I0814 21:35:49.233017   773 net.cpp:144] Setting up inception_4d/3x3_reduce
I0814 21:35:49.233028   773 net.cpp:151] Top shape: 32 144 14 14 (903168)
I0814 21:35:49.233032   773 net.cpp:159] Memory required for data: 1490789508
I0814 21:35:49.233037   773 layer_factory.hpp:77] Creating layer inception_4d/relu_3x3_reduce
I0814 21:35:49.233058   773 net.cpp:94] Creating Layer inception_4d/relu_3x3_reduce
I0814 21:35:49.233063   773 net.cpp:435] inception_4d/relu_3x3_reduce <- inception_4d/3x3_reduce
I0814 21:35:49.233069   773 net.cpp:396] inception_4d/relu_3x3_reduce -> inception_4d/3x3_reduce (in-place)
I0814 21:35:49.233076   773 net.cpp:144] Setting up inception_4d/relu_3x3_reduce
I0814 21:35:49.233098   773 net.cpp:151] Top shape: 32 144 14 14 (903168)
I0814 21:35:49.233101   773 net.cpp:159] Memory required for data: 1494402180
I0814 21:35:49.233104   773 layer_factory.hpp:77] Creating layer inception_4d/3x3
I0814 21:35:49.233139   773 net.cpp:94] Creating Layer inception_4d/3x3
I0814 21:35:49.233142   773 net.cpp:435] inception_4d/3x3 <- inception_4d/3x3_reduce
I0814 21:35:49.233148   773 net.cpp:409] inception_4d/3x3 -> inception_4d/3x3
I0814 21:35:49.236469   773 net.cpp:144] Setting up inception_4d/3x3
I0814 21:35:49.236485   773 net.cpp:151] Top shape: 32 288 14 14 (1806336)
I0814 21:35:49.236488   773 net.cpp:159] Memory required for data: 1501627524
I0814 21:35:49.236495   773 layer_factory.hpp:77] Creating layer inception_4d/relu_3x3
I0814 21:35:49.236501   773 net.cpp:94] Creating Layer inception_4d/relu_3x3
I0814 21:35:49.236505   773 net.cpp:435] inception_4d/relu_3x3 <- inception_4d/3x3
I0814 21:35:49.236512   773 net.cpp:396] inception_4d/relu_3x3 -> inception_4d/3x3 (in-place)
I0814 21:35:49.236521   773 net.cpp:144] Setting up inception_4d/relu_3x3
I0814 21:35:49.236524   773 net.cpp:151] Top shape: 32 288 14 14 (1806336)
I0814 21:35:49.236527   773 net.cpp:159] Memory required for data: 1508852868
I0814 21:35:49.236531   773 layer_factory.hpp:77] Creating layer inception_4d/5x5_reduce
I0814 21:35:49.236539   773 net.cpp:94] Creating Layer inception_4d/5x5_reduce
I0814 21:35:49.236546   773 net.cpp:435] inception_4d/5x5_reduce <- inception_4c/output_inception_4c/output_0_split_2
I0814 21:35:49.236553   773 net.cpp:409] inception_4d/5x5_reduce -> inception_4d/5x5_reduce
I0814 21:35:49.236877   773 net.cpp:144] Setting up inception_4d/5x5_reduce
I0814 21:35:49.236886   773 net.cpp:151] Top shape: 32 32 14 14 (200704)
I0814 21:35:49.236891   773 net.cpp:159] Memory required for data: 1509655684
I0814 21:35:49.236901   773 layer_factory.hpp:77] Creating layer inception_4d/relu_5x5_reduce
I0814 21:35:49.236908   773 net.cpp:94] Creating Layer inception_4d/relu_5x5_reduce
I0814 21:35:49.236912   773 net.cpp:435] inception_4d/relu_5x5_reduce <- inception_4d/5x5_reduce
I0814 21:35:49.236918   773 net.cpp:396] inception_4d/relu_5x5_reduce -> inception_4d/5x5_reduce (in-place)
I0814 21:35:49.236925   773 net.cpp:144] Setting up inception_4d/relu_5x5_reduce
I0814 21:35:49.236929   773 net.cpp:151] Top shape: 32 32 14 14 (200704)
I0814 21:35:49.236933   773 net.cpp:159] Memory required for data: 1510458500
I0814 21:35:49.236937   773 layer_factory.hpp:77] Creating layer inception_4d/5x5
I0814 21:35:49.236944   773 net.cpp:94] Creating Layer inception_4d/5x5
I0814 21:35:49.236948   773 net.cpp:435] inception_4d/5x5 <- inception_4d/5x5_reduce
I0814 21:35:49.236955   773 net.cpp:409] inception_4d/5x5 -> inception_4d/5x5
I0814 21:35:49.237469   773 net.cpp:144] Setting up inception_4d/5x5
I0814 21:35:49.237478   773 net.cpp:151] Top shape: 32 64 14 14 (401408)
I0814 21:35:49.237480   773 net.cpp:159] Memory required for data: 1512064132
I0814 21:35:49.237500   773 layer_factory.hpp:77] Creating layer inception_4d/relu_5x5
I0814 21:35:49.237507   773 net.cpp:94] Creating Layer inception_4d/relu_5x5
I0814 21:35:49.237510   773 net.cpp:435] inception_4d/relu_5x5 <- inception_4d/5x5
I0814 21:35:49.237516   773 net.cpp:396] inception_4d/relu_5x5 -> inception_4d/5x5 (in-place)
I0814 21:35:49.237524   773 net.cpp:144] Setting up inception_4d/relu_5x5
I0814 21:35:49.237529   773 net.cpp:151] Top shape: 32 64 14 14 (401408)
I0814 21:35:49.237531   773 net.cpp:159] Memory required for data: 1513669764
I0814 21:35:49.237535   773 layer_factory.hpp:77] Creating layer inception_4d/pool
I0814 21:35:49.237541   773 net.cpp:94] Creating Layer inception_4d/pool
I0814 21:35:49.237545   773 net.cpp:435] inception_4d/pool <- inception_4c/output_inception_4c/output_0_split_3
I0814 21:35:49.237566   773 net.cpp:409] inception_4d/pool -> inception_4d/pool
I0814 21:35:49.237604   773 net.cpp:144] Setting up inception_4d/pool
I0814 21:35:49.237610   773 net.cpp:151] Top shape: 32 512 14 14 (3211264)
I0814 21:35:49.237614   773 net.cpp:159] Memory required for data: 1526514820
I0814 21:35:49.237617   773 layer_factory.hpp:77] Creating layer inception_4d/pool_proj
I0814 21:35:49.237628   773 net.cpp:94] Creating Layer inception_4d/pool_proj
I0814 21:35:49.237632   773 net.cpp:435] inception_4d/pool_proj <- inception_4d/pool
I0814 21:35:49.237639   773 net.cpp:409] inception_4d/pool_proj -> inception_4d/pool_proj
I0814 21:35:49.238082   773 net.cpp:144] Setting up inception_4d/pool_proj
I0814 21:35:49.238093   773 net.cpp:151] Top shape: 32 64 14 14 (401408)
I0814 21:35:49.238097   773 net.cpp:159] Memory required for data: 1528120452
I0814 21:35:49.238102   773 layer_factory.hpp:77] Creating layer inception_4d/relu_pool_proj
I0814 21:35:49.238109   773 net.cpp:94] Creating Layer inception_4d/relu_pool_proj
I0814 21:35:49.238113   773 net.cpp:435] inception_4d/relu_pool_proj <- inception_4d/pool_proj
I0814 21:35:49.238119   773 net.cpp:396] inception_4d/relu_pool_proj -> inception_4d/pool_proj (in-place)
I0814 21:35:49.238126   773 net.cpp:144] Setting up inception_4d/relu_pool_proj
I0814 21:35:49.238131   773 net.cpp:151] Top shape: 32 64 14 14 (401408)
I0814 21:35:49.238133   773 net.cpp:159] Memory required for data: 1529726084
I0814 21:35:49.238137   773 layer_factory.hpp:77] Creating layer inception_4d/output
I0814 21:35:49.238143   773 net.cpp:94] Creating Layer inception_4d/output
I0814 21:35:49.238148   773 net.cpp:435] inception_4d/output <- inception_4d/1x1
I0814 21:35:49.238152   773 net.cpp:435] inception_4d/output <- inception_4d/3x3
I0814 21:35:49.238157   773 net.cpp:435] inception_4d/output <- inception_4d/5x5
I0814 21:35:49.238162   773 net.cpp:435] inception_4d/output <- inception_4d/pool_proj
I0814 21:35:49.238167   773 net.cpp:409] inception_4d/output -> inception_4d/output
I0814 21:35:49.238193   773 net.cpp:144] Setting up inception_4d/output
I0814 21:35:49.238198   773 net.cpp:151] Top shape: 32 528 14 14 (3311616)
I0814 21:35:49.238202   773 net.cpp:159] Memory required for data: 1542972548
I0814 21:35:49.238205   773 layer_factory.hpp:77] Creating layer inception_4d/output_inception_4d/output_0_split
I0814 21:35:49.238212   773 net.cpp:94] Creating Layer inception_4d/output_inception_4d/output_0_split
I0814 21:35:49.238216   773 net.cpp:435] inception_4d/output_inception_4d/output_0_split <- inception_4d/output
I0814 21:35:49.238222   773 net.cpp:409] inception_4d/output_inception_4d/output_0_split -> inception_4d/output_inception_4d/output_0_split_0
I0814 21:35:49.238230   773 net.cpp:409] inception_4d/output_inception_4d/output_0_split -> inception_4d/output_inception_4d/output_0_split_1
I0814 21:35:49.238236   773 net.cpp:409] inception_4d/output_inception_4d/output_0_split -> inception_4d/output_inception_4d/output_0_split_2
I0814 21:35:49.238243   773 net.cpp:409] inception_4d/output_inception_4d/output_0_split -> inception_4d/output_inception_4d/output_0_split_3
I0814 21:35:49.238250   773 net.cpp:409] inception_4d/output_inception_4d/output_0_split -> inception_4d/output_inception_4d/output_0_split_4
I0814 21:35:49.238325   773 net.cpp:144] Setting up inception_4d/output_inception_4d/output_0_split
I0814 21:35:49.238332   773 net.cpp:151] Top shape: 32 528 14 14 (3311616)
I0814 21:35:49.238337   773 net.cpp:151] Top shape: 32 528 14 14 (3311616)
I0814 21:35:49.238340   773 net.cpp:151] Top shape: 32 528 14 14 (3311616)
I0814 21:35:49.238344   773 net.cpp:151] Top shape: 32 528 14 14 (3311616)
I0814 21:35:49.238348   773 net.cpp:151] Top shape: 32 528 14 14 (3311616)
I0814 21:35:49.238351   773 net.cpp:159] Memory required for data: 1609204868
I0814 21:35:49.238354   773 layer_factory.hpp:77] Creating layer loss2/ave_pool
I0814 21:35:49.238360   773 net.cpp:94] Creating Layer loss2/ave_pool
I0814 21:35:49.238364   773 net.cpp:435] loss2/ave_pool <- inception_4d/output_inception_4d/output_0_split_0
I0814 21:35:49.238370   773 net.cpp:409] loss2/ave_pool -> loss2/ave_pool
I0814 21:35:49.238392   773 net.cpp:144] Setting up loss2/ave_pool
I0814 21:35:49.238399   773 net.cpp:151] Top shape: 32 528 4 4 (270336)
I0814 21:35:49.238401   773 net.cpp:159] Memory required for data: 1610286212
I0814 21:35:49.238404   773 layer_factory.hpp:77] Creating layer loss2/conv
I0814 21:35:49.238413   773 net.cpp:94] Creating Layer loss2/conv
I0814 21:35:49.238417   773 net.cpp:435] loss2/conv <- loss2/ave_pool
I0814 21:35:49.238423   773 net.cpp:409] loss2/conv -> loss2/conv
I0814 21:35:49.239734   773 net.cpp:144] Setting up loss2/conv
I0814 21:35:49.239748   773 net.cpp:151] Top shape: 32 128 4 4 (65536)
I0814 21:35:49.239753   773 net.cpp:159] Memory required for data: 1610548356
I0814 21:35:49.239758   773 layer_factory.hpp:77] Creating layer loss2/relu_conv
I0814 21:35:49.239765   773 net.cpp:94] Creating Layer loss2/relu_conv
I0814 21:35:49.239770   773 net.cpp:435] loss2/relu_conv <- loss2/conv
I0814 21:35:49.239775   773 net.cpp:396] loss2/relu_conv -> loss2/conv (in-place)
I0814 21:35:49.239784   773 net.cpp:144] Setting up loss2/relu_conv
I0814 21:35:49.239789   773 net.cpp:151] Top shape: 32 128 4 4 (65536)
I0814 21:35:49.239791   773 net.cpp:159] Memory required for data: 1610810500
I0814 21:35:49.239794   773 layer_factory.hpp:77] Creating layer loss2/fc
I0814 21:35:49.239802   773 net.cpp:94] Creating Layer loss2/fc
I0814 21:35:49.239805   773 net.cpp:435] loss2/fc <- loss2/conv
I0814 21:35:49.239811   773 net.cpp:409] loss2/fc -> loss2/fc
I0814 21:35:49.256677   773 net.cpp:144] Setting up loss2/fc
I0814 21:35:49.256700   773 net.cpp:151] Top shape: 32 1024 (32768)
I0814 21:35:49.256703   773 net.cpp:159] Memory required for data: 1610941572
I0814 21:35:49.256711   773 layer_factory.hpp:77] Creating layer loss2/relu_fc
I0814 21:35:49.256718   773 net.cpp:94] Creating Layer loss2/relu_fc
I0814 21:35:49.256722   773 net.cpp:435] loss2/relu_fc <- loss2/fc
I0814 21:35:49.256729   773 net.cpp:396] loss2/relu_fc -> loss2/fc (in-place)
I0814 21:35:49.256737   773 net.cpp:144] Setting up loss2/relu_fc
I0814 21:35:49.256757   773 net.cpp:151] Top shape: 32 1024 (32768)
I0814 21:35:49.256760   773 net.cpp:159] Memory required for data: 1611072644
I0814 21:35:49.256763   773 layer_factory.hpp:77] Creating layer loss2/drop_fc
I0814 21:35:49.256785   773 net.cpp:94] Creating Layer loss2/drop_fc
I0814 21:35:49.256788   773 net.cpp:435] loss2/drop_fc <- loss2/fc
I0814 21:35:49.256793   773 net.cpp:396] loss2/drop_fc -> loss2/fc (in-place)
I0814 21:35:49.256850   773 net.cpp:144] Setting up loss2/drop_fc
I0814 21:35:49.256855   773 net.cpp:151] Top shape: 32 1024 (32768)
I0814 21:35:49.256858   773 net.cpp:159] Memory required for data: 1611203716
I0814 21:35:49.256861   773 layer_factory.hpp:77] Creating layer loss2/classifier
I0814 21:35:49.256870   773 net.cpp:94] Creating Layer loss2/classifier
I0814 21:35:49.256888   773 net.cpp:435] loss2/classifier <- loss2/fc
I0814 21:35:49.256894   773 net.cpp:409] loss2/classifier -> loss2/classifier
I0814 21:35:49.257062   773 net.cpp:144] Setting up loss2/classifier
I0814 21:35:49.257071   773 net.cpp:151] Top shape: 32 5 (160)
I0814 21:35:49.257088   773 net.cpp:159] Memory required for data: 1611204356
I0814 21:35:49.257094   773 layer_factory.hpp:77] Creating layer loss2/loss
I0814 21:35:49.257102   773 net.cpp:94] Creating Layer loss2/loss
I0814 21:35:49.257105   773 net.cpp:435] loss2/loss <- loss2/classifier
I0814 21:35:49.257110   773 net.cpp:435] loss2/loss <- label_train-data_1_split_1
I0814 21:35:49.257117   773 net.cpp:409] loss2/loss -> loss2/loss
I0814 21:35:49.257127   773 layer_factory.hpp:77] Creating layer loss2/loss
I0814 21:35:49.257241   773 net.cpp:144] Setting up loss2/loss
I0814 21:35:49.257248   773 net.cpp:151] Top shape: (1)
I0814 21:35:49.257251   773 net.cpp:154]     with loss weight 0.3
I0814 21:35:49.257261   773 net.cpp:159] Memory required for data: 1611204360
I0814 21:35:49.257264   773 layer_factory.hpp:77] Creating layer inception_4e/1x1
I0814 21:35:49.257272   773 net.cpp:94] Creating Layer inception_4e/1x1
I0814 21:35:49.257277   773 net.cpp:435] inception_4e/1x1 <- inception_4d/output_inception_4d/output_0_split_1
I0814 21:35:49.257285   773 net.cpp:409] inception_4e/1x1 -> inception_4e/1x1
I0814 21:35:49.258363   773 net.cpp:144] Setting up inception_4e/1x1
I0814 21:35:49.258373   773 net.cpp:151] Top shape: 32 256 14 14 (1605632)
I0814 21:35:49.258378   773 net.cpp:159] Memory required for data: 1617626888
I0814 21:35:49.258383   773 layer_factory.hpp:77] Creating layer inception_4e/relu_1x1
I0814 21:35:49.258389   773 net.cpp:94] Creating Layer inception_4e/relu_1x1
I0814 21:35:49.258392   773 net.cpp:435] inception_4e/relu_1x1 <- inception_4e/1x1
I0814 21:35:49.258399   773 net.cpp:396] inception_4e/relu_1x1 -> inception_4e/1x1 (in-place)
I0814 21:35:49.258405   773 net.cpp:144] Setting up inception_4e/relu_1x1
I0814 21:35:49.258410   773 net.cpp:151] Top shape: 32 256 14 14 (1605632)
I0814 21:35:49.258414   773 net.cpp:159] Memory required for data: 1624049416
I0814 21:35:49.258416   773 layer_factory.hpp:77] Creating layer inception_4e/3x3_reduce
I0814 21:35:49.258427   773 net.cpp:94] Creating Layer inception_4e/3x3_reduce
I0814 21:35:49.258431   773 net.cpp:435] inception_4e/3x3_reduce <- inception_4d/output_inception_4d/output_0_split_2
I0814 21:35:49.258437   773 net.cpp:409] inception_4e/3x3_reduce -> inception_4e/3x3_reduce
I0814 21:35:49.262293   773 net.cpp:144] Setting up inception_4e/3x3_reduce
I0814 21:35:49.262315   773 net.cpp:151] Top shape: 32 160 14 14 (1003520)
I0814 21:35:49.262318   773 net.cpp:159] Memory required for data: 1628063496
I0814 21:35:49.262326   773 layer_factory.hpp:77] Creating layer inception_4e/relu_3x3_reduce
I0814 21:35:49.262332   773 net.cpp:94] Creating Layer inception_4e/relu_3x3_reduce
I0814 21:35:49.262337   773 net.cpp:435] inception_4e/relu_3x3_reduce <- inception_4e/3x3_reduce
I0814 21:35:49.262343   773 net.cpp:396] inception_4e/relu_3x3_reduce -> inception_4e/3x3_reduce (in-place)
I0814 21:35:49.262352   773 net.cpp:144] Setting up inception_4e/relu_3x3_reduce
I0814 21:35:49.262356   773 net.cpp:151] Top shape: 32 160 14 14 (1003520)
I0814 21:35:49.262359   773 net.cpp:159] Memory required for data: 1632077576
I0814 21:35:49.262362   773 layer_factory.hpp:77] Creating layer inception_4e/3x3
I0814 21:35:49.262373   773 net.cpp:94] Creating Layer inception_4e/3x3
I0814 21:35:49.262377   773 net.cpp:435] inception_4e/3x3 <- inception_4e/3x3_reduce
I0814 21:35:49.262387   773 net.cpp:409] inception_4e/3x3 -> inception_4e/3x3
I0814 21:35:49.266510   773 net.cpp:144] Setting up inception_4e/3x3
I0814 21:35:49.266526   773 net.cpp:151] Top shape: 32 320 14 14 (2007040)
I0814 21:35:49.266530   773 net.cpp:159] Memory required for data: 1640105736
I0814 21:35:49.266537   773 layer_factory.hpp:77] Creating layer inception_4e/relu_3x3
I0814 21:35:49.266543   773 net.cpp:94] Creating Layer inception_4e/relu_3x3
I0814 21:35:49.266548   773 net.cpp:435] inception_4e/relu_3x3 <- inception_4e/3x3
I0814 21:35:49.266554   773 net.cpp:396] inception_4e/relu_3x3 -> inception_4e/3x3 (in-place)
I0814 21:35:49.266562   773 net.cpp:144] Setting up inception_4e/relu_3x3
I0814 21:35:49.266567   773 net.cpp:151] Top shape: 32 320 14 14 (2007040)
I0814 21:35:49.266602   773 net.cpp:159] Memory required for data: 1648133896
I0814 21:35:49.266607   773 layer_factory.hpp:77] Creating layer inception_4e/5x5_reduce
I0814 21:35:49.266618   773 net.cpp:94] Creating Layer inception_4e/5x5_reduce
I0814 21:35:49.266623   773 net.cpp:435] inception_4e/5x5_reduce <- inception_4d/output_inception_4d/output_0_split_3
I0814 21:35:49.266628   773 net.cpp:409] inception_4e/5x5_reduce -> inception_4e/5x5_reduce
I0814 21:35:49.266959   773 net.cpp:144] Setting up inception_4e/5x5_reduce
I0814 21:35:49.266974   773 net.cpp:151] Top shape: 32 32 14 14 (200704)
I0814 21:35:49.266978   773 net.cpp:159] Memory required for data: 1648936712
I0814 21:35:49.266983   773 layer_factory.hpp:77] Creating layer inception_4e/relu_5x5_reduce
I0814 21:35:49.266989   773 net.cpp:94] Creating Layer inception_4e/relu_5x5_reduce
I0814 21:35:49.266993   773 net.cpp:435] inception_4e/relu_5x5_reduce <- inception_4e/5x5_reduce
I0814 21:35:49.266999   773 net.cpp:396] inception_4e/relu_5x5_reduce -> inception_4e/5x5_reduce (in-place)
I0814 21:35:49.267004   773 net.cpp:144] Setting up inception_4e/relu_5x5_reduce
I0814 21:35:49.267009   773 net.cpp:151] Top shape: 32 32 14 14 (200704)
I0814 21:35:49.267011   773 net.cpp:159] Memory required for data: 1649739528
I0814 21:35:49.267015   773 layer_factory.hpp:77] Creating layer inception_4e/5x5
I0814 21:35:49.267050   773 net.cpp:94] Creating Layer inception_4e/5x5
I0814 21:35:49.267055   773 net.cpp:435] inception_4e/5x5 <- inception_4e/5x5_reduce
I0814 21:35:49.267060   773 net.cpp:409] inception_4e/5x5 -> inception_4e/5x5
I0814 21:35:49.267964   773 net.cpp:144] Setting up inception_4e/5x5
I0814 21:35:49.267973   773 net.cpp:151] Top shape: 32 128 14 14 (802816)
I0814 21:35:49.267976   773 net.cpp:159] Memory required for data: 1652950792
I0814 21:35:49.267982   773 layer_factory.hpp:77] Creating layer inception_4e/relu_5x5
I0814 21:35:49.267987   773 net.cpp:94] Creating Layer inception_4e/relu_5x5
I0814 21:35:49.267992   773 net.cpp:435] inception_4e/relu_5x5 <- inception_4e/5x5
I0814 21:35:49.267997   773 net.cpp:396] inception_4e/relu_5x5 -> inception_4e/5x5 (in-place)
I0814 21:35:49.268003   773 net.cpp:144] Setting up inception_4e/relu_5x5
I0814 21:35:49.268007   773 net.cpp:151] Top shape: 32 128 14 14 (802816)
I0814 21:35:49.268012   773 net.cpp:159] Memory required for data: 1656162056
I0814 21:35:49.268014   773 layer_factory.hpp:77] Creating layer inception_4e/pool
I0814 21:35:49.268023   773 net.cpp:94] Creating Layer inception_4e/pool
I0814 21:35:49.268026   773 net.cpp:435] inception_4e/pool <- inception_4d/output_inception_4d/output_0_split_4
I0814 21:35:49.268031   773 net.cpp:409] inception_4e/pool -> inception_4e/pool
I0814 21:35:49.268071   773 net.cpp:144] Setting up inception_4e/pool
I0814 21:35:49.268077   773 net.cpp:151] Top shape: 32 528 14 14 (3311616)
I0814 21:35:49.268080   773 net.cpp:159] Memory required for data: 1669408520
I0814 21:35:49.268083   773 layer_factory.hpp:77] Creating layer inception_4e/pool_proj
I0814 21:35:49.268092   773 net.cpp:94] Creating Layer inception_4e/pool_proj
I0814 21:35:49.268097   773 net.cpp:435] inception_4e/pool_proj <- inception_4e/pool
I0814 21:35:49.268105   773 net.cpp:409] inception_4e/pool_proj -> inception_4e/pool_proj
I0814 21:35:49.268731   773 net.cpp:144] Setting up inception_4e/pool_proj
I0814 21:35:49.268739   773 net.cpp:151] Top shape: 32 128 14 14 (802816)
I0814 21:35:49.268743   773 net.cpp:159] Memory required for data: 1672619784
I0814 21:35:49.268748   773 layer_factory.hpp:77] Creating layer inception_4e/relu_pool_proj
I0814 21:35:49.268754   773 net.cpp:94] Creating Layer inception_4e/relu_pool_proj
I0814 21:35:49.268757   773 net.cpp:435] inception_4e/relu_pool_proj <- inception_4e/pool_proj
I0814 21:35:49.268762   773 net.cpp:396] inception_4e/relu_pool_proj -> inception_4e/pool_proj (in-place)
I0814 21:35:49.268769   773 net.cpp:144] Setting up inception_4e/relu_pool_proj
I0814 21:35:49.268774   773 net.cpp:151] Top shape: 32 128 14 14 (802816)
I0814 21:35:49.268788   773 net.cpp:159] Memory required for data: 1675831048
I0814 21:35:49.268792   773 layer_factory.hpp:77] Creating layer inception_4e/output
I0814 21:35:49.268798   773 net.cpp:94] Creating Layer inception_4e/output
I0814 21:35:49.268802   773 net.cpp:435] inception_4e/output <- inception_4e/1x1
I0814 21:35:49.268806   773 net.cpp:435] inception_4e/output <- inception_4e/3x3
I0814 21:35:49.268810   773 net.cpp:435] inception_4e/output <- inception_4e/5x5
I0814 21:35:49.268815   773 net.cpp:435] inception_4e/output <- inception_4e/pool_proj
I0814 21:35:49.268822   773 net.cpp:409] inception_4e/output -> inception_4e/output
I0814 21:35:49.268851   773 net.cpp:144] Setting up inception_4e/output
I0814 21:35:49.268857   773 net.cpp:151] Top shape: 32 832 14 14 (5218304)
I0814 21:35:49.268859   773 net.cpp:159] Memory required for data: 1696704264
I0814 21:35:49.268862   773 layer_factory.hpp:77] Creating layer pool4/3x3_s2
I0814 21:35:49.268867   773 net.cpp:94] Creating Layer pool4/3x3_s2
I0814 21:35:49.268872   773 net.cpp:435] pool4/3x3_s2 <- inception_4e/output
I0814 21:35:49.268877   773 net.cpp:409] pool4/3x3_s2 -> pool4/3x3_s2
I0814 21:35:49.268919   773 net.cpp:144] Setting up pool4/3x3_s2
I0814 21:35:49.268926   773 net.cpp:151] Top shape: 32 832 7 7 (1304576)
I0814 21:35:49.268929   773 net.cpp:159] Memory required for data: 1701922568
I0814 21:35:49.268932   773 layer_factory.hpp:77] Creating layer pool4/3x3_s2_pool4/3x3_s2_0_split
I0814 21:35:49.268941   773 net.cpp:94] Creating Layer pool4/3x3_s2_pool4/3x3_s2_0_split
I0814 21:35:49.268944   773 net.cpp:435] pool4/3x3_s2_pool4/3x3_s2_0_split <- pool4/3x3_s2
I0814 21:35:49.268950   773 net.cpp:409] pool4/3x3_s2_pool4/3x3_s2_0_split -> pool4/3x3_s2_pool4/3x3_s2_0_split_0
I0814 21:35:49.268960   773 net.cpp:409] pool4/3x3_s2_pool4/3x3_s2_0_split -> pool4/3x3_s2_pool4/3x3_s2_0_split_1
I0814 21:35:49.268967   773 net.cpp:409] pool4/3x3_s2_pool4/3x3_s2_0_split -> pool4/3x3_s2_pool4/3x3_s2_0_split_2
I0814 21:35:49.268973   773 net.cpp:409] pool4/3x3_s2_pool4/3x3_s2_0_split -> pool4/3x3_s2_pool4/3x3_s2_0_split_3
I0814 21:35:49.269028   773 net.cpp:144] Setting up pool4/3x3_s2_pool4/3x3_s2_0_split
I0814 21:35:49.269033   773 net.cpp:151] Top shape: 32 832 7 7 (1304576)
I0814 21:35:49.269038   773 net.cpp:151] Top shape: 32 832 7 7 (1304576)
I0814 21:35:49.269042   773 net.cpp:151] Top shape: 32 832 7 7 (1304576)
I0814 21:35:49.269047   773 net.cpp:151] Top shape: 32 832 7 7 (1304576)
I0814 21:35:49.269049   773 net.cpp:159] Memory required for data: 1722795784
I0814 21:35:49.269052   773 layer_factory.hpp:77] Creating layer inception_5a/1x1
I0814 21:35:49.269062   773 net.cpp:94] Creating Layer inception_5a/1x1
I0814 21:35:49.269064   773 net.cpp:435] inception_5a/1x1 <- pool4/3x3_s2_pool4/3x3_s2_0_split_0
I0814 21:35:49.269071   773 net.cpp:409] inception_5a/1x1 -> inception_5a/1x1
I0814 21:35:49.271190   773 net.cpp:144] Setting up inception_5a/1x1
I0814 21:35:49.271204   773 net.cpp:151] Top shape: 32 256 7 7 (401408)
I0814 21:35:49.271209   773 net.cpp:159] Memory required for data: 1724401416
I0814 21:35:49.271214   773 layer_factory.hpp:77] Creating layer inception_5a/relu_1x1
I0814 21:35:49.271220   773 net.cpp:94] Creating Layer inception_5a/relu_1x1
I0814 21:35:49.271225   773 net.cpp:435] inception_5a/relu_1x1 <- inception_5a/1x1
I0814 21:35:49.271232   773 net.cpp:396] inception_5a/relu_1x1 -> inception_5a/1x1 (in-place)
I0814 21:35:49.271240   773 net.cpp:144] Setting up inception_5a/relu_1x1
I0814 21:35:49.271245   773 net.cpp:151] Top shape: 32 256 7 7 (401408)
I0814 21:35:49.271248   773 net.cpp:159] Memory required for data: 1726007048
I0814 21:35:49.271251   773 layer_factory.hpp:77] Creating layer inception_5a/3x3_reduce
I0814 21:35:49.271261   773 net.cpp:94] Creating Layer inception_5a/3x3_reduce
I0814 21:35:49.271265   773 net.cpp:435] inception_5a/3x3_reduce <- pool4/3x3_s2_pool4/3x3_s2_0_split_1
I0814 21:35:49.271272   773 net.cpp:409] inception_5a/3x3_reduce -> inception_5a/3x3_reduce
I0814 21:35:49.273175   773 net.cpp:144] Setting up inception_5a/3x3_reduce
I0814 21:35:49.273190   773 net.cpp:151] Top shape: 32 160 7 7 (250880)
I0814 21:35:49.273195   773 net.cpp:159] Memory required for data: 1727010568
I0814 21:35:49.273200   773 layer_factory.hpp:77] Creating layer inception_5a/relu_3x3_reduce
I0814 21:35:49.273206   773 net.cpp:94] Creating Layer inception_5a/relu_3x3_reduce
I0814 21:35:49.273211   773 net.cpp:435] inception_5a/relu_3x3_reduce <- inception_5a/3x3_reduce
I0814 21:35:49.273216   773 net.cpp:396] inception_5a/relu_3x3_reduce -> inception_5a/3x3_reduce (in-place)
I0814 21:35:49.273224   773 net.cpp:144] Setting up inception_5a/relu_3x3_reduce
I0814 21:35:49.273228   773 net.cpp:151] Top shape: 32 160 7 7 (250880)
I0814 21:35:49.273231   773 net.cpp:159] Memory required for data: 1728014088
I0814 21:35:49.273234   773 layer_factory.hpp:77] Creating layer inception_5a/3x3
I0814 21:35:49.273247   773 net.cpp:94] Creating Layer inception_5a/3x3
I0814 21:35:49.273249   773 net.cpp:435] inception_5a/3x3 <- inception_5a/3x3_reduce
I0814 21:35:49.273270   773 net.cpp:409] inception_5a/3x3 -> inception_5a/3x3
I0814 21:35:49.277261   773 net.cpp:144] Setting up inception_5a/3x3
I0814 21:35:49.277276   773 net.cpp:151] Top shape: 32 320 7 7 (501760)
I0814 21:35:49.277281   773 net.cpp:159] Memory required for data: 1730021128
I0814 21:35:49.277287   773 layer_factory.hpp:77] Creating layer inception_5a/relu_3x3
I0814 21:35:49.277293   773 net.cpp:94] Creating Layer inception_5a/relu_3x3
I0814 21:35:49.277313   773 net.cpp:435] inception_5a/relu_3x3 <- inception_5a/3x3
I0814 21:35:49.277336   773 net.cpp:396] inception_5a/relu_3x3 -> inception_5a/3x3 (in-place)
I0814 21:35:49.277344   773 net.cpp:144] Setting up inception_5a/relu_3x3
I0814 21:35:49.277348   773 net.cpp:151] Top shape: 32 320 7 7 (501760)
I0814 21:35:49.277366   773 net.cpp:159] Memory required for data: 1732028168
I0814 21:35:49.277370   773 layer_factory.hpp:77] Creating layer inception_5a/5x5_reduce
I0814 21:35:49.277385   773 net.cpp:94] Creating Layer inception_5a/5x5_reduce
I0814 21:35:49.277390   773 net.cpp:435] inception_5a/5x5_reduce <- pool4/3x3_s2_pool4/3x3_s2_0_split_2
I0814 21:35:49.277405   773 net.cpp:409] inception_5a/5x5_reduce -> inception_5a/5x5_reduce
I0814 21:35:49.277822   773 net.cpp:144] Setting up inception_5a/5x5_reduce
I0814 21:35:49.277853   773 net.cpp:151] Top shape: 32 32 7 7 (50176)
I0814 21:35:49.277858   773 net.cpp:159] Memory required for data: 1732228872
I0814 21:35:49.277864   773 layer_factory.hpp:77] Creating layer inception_5a/relu_5x5_reduce
I0814 21:35:49.277869   773 net.cpp:94] Creating Layer inception_5a/relu_5x5_reduce
I0814 21:35:49.277874   773 net.cpp:435] inception_5a/relu_5x5_reduce <- inception_5a/5x5_reduce
I0814 21:35:49.277879   773 net.cpp:396] inception_5a/relu_5x5_reduce -> inception_5a/5x5_reduce (in-place)
I0814 21:35:49.277886   773 net.cpp:144] Setting up inception_5a/relu_5x5_reduce
I0814 21:35:49.277891   773 net.cpp:151] Top shape: 32 32 7 7 (50176)
I0814 21:35:49.277894   773 net.cpp:159] Memory required for data: 1732429576
I0814 21:35:49.277896   773 layer_factory.hpp:77] Creating layer inception_5a/5x5
I0814 21:35:49.277909   773 net.cpp:94] Creating Layer inception_5a/5x5
I0814 21:35:49.277915   773 net.cpp:435] inception_5a/5x5 <- inception_5a/5x5_reduce
I0814 21:35:49.277920   773 net.cpp:409] inception_5a/5x5 -> inception_5a/5x5
I0814 21:35:49.278779   773 net.cpp:144] Setting up inception_5a/5x5
I0814 21:35:49.278787   773 net.cpp:151] Top shape: 32 128 7 7 (200704)
I0814 21:35:49.278790   773 net.cpp:159] Memory required for data: 1733232392
I0814 21:35:49.278795   773 layer_factory.hpp:77] Creating layer inception_5a/relu_5x5
I0814 21:35:49.278801   773 net.cpp:94] Creating Layer inception_5a/relu_5x5
I0814 21:35:49.278805   773 net.cpp:435] inception_5a/relu_5x5 <- inception_5a/5x5
I0814 21:35:49.278810   773 net.cpp:396] inception_5a/relu_5x5 -> inception_5a/5x5 (in-place)
I0814 21:35:49.278820   773 net.cpp:144] Setting up inception_5a/relu_5x5
I0814 21:35:49.278839   773 net.cpp:151] Top shape: 32 128 7 7 (200704)
I0814 21:35:49.278843   773 net.cpp:159] Memory required for data: 1734035208
I0814 21:35:49.278846   773 layer_factory.hpp:77] Creating layer inception_5a/pool
I0814 21:35:49.278852   773 net.cpp:94] Creating Layer inception_5a/pool
I0814 21:35:49.278856   773 net.cpp:435] inception_5a/pool <- pool4/3x3_s2_pool4/3x3_s2_0_split_3
I0814 21:35:49.278861   773 net.cpp:409] inception_5a/pool -> inception_5a/pool
I0814 21:35:49.278913   773 net.cpp:144] Setting up inception_5a/pool
I0814 21:35:49.278919   773 net.cpp:151] Top shape: 32 832 7 7 (1304576)
I0814 21:35:49.278923   773 net.cpp:159] Memory required for data: 1739253512
I0814 21:35:49.278925   773 layer_factory.hpp:77] Creating layer inception_5a/pool_proj
I0814 21:35:49.278946   773 net.cpp:94] Creating Layer inception_5a/pool_proj
I0814 21:35:49.278950   773 net.cpp:435] inception_5a/pool_proj <- inception_5a/pool
I0814 21:35:49.278959   773 net.cpp:409] inception_5a/pool_proj -> inception_5a/pool_proj
I0814 21:35:49.280496   773 net.cpp:144] Setting up inception_5a/pool_proj
I0814 21:35:49.280514   773 net.cpp:151] Top shape: 32 128 7 7 (200704)
I0814 21:35:49.280517   773 net.cpp:159] Memory required for data: 1740056328
I0814 21:35:49.280524   773 layer_factory.hpp:77] Creating layer inception_5a/relu_pool_proj
I0814 21:35:49.280530   773 net.cpp:94] Creating Layer inception_5a/relu_pool_proj
I0814 21:35:49.280534   773 net.cpp:435] inception_5a/relu_pool_proj <- inception_5a/pool_proj
I0814 21:35:49.280539   773 net.cpp:396] inception_5a/relu_pool_proj -> inception_5a/pool_proj (in-place)
I0814 21:35:49.280548   773 net.cpp:144] Setting up inception_5a/relu_pool_proj
I0814 21:35:49.280552   773 net.cpp:151] Top shape: 32 128 7 7 (200704)
I0814 21:35:49.280555   773 net.cpp:159] Memory required for data: 1740859144
I0814 21:35:49.280558   773 layer_factory.hpp:77] Creating layer inception_5a/output
I0814 21:35:49.280566   773 net.cpp:94] Creating Layer inception_5a/output
I0814 21:35:49.280570   773 net.cpp:435] inception_5a/output <- inception_5a/1x1
I0814 21:35:49.280575   773 net.cpp:435] inception_5a/output <- inception_5a/3x3
I0814 21:35:49.280578   773 net.cpp:435] inception_5a/output <- inception_5a/5x5
I0814 21:35:49.280583   773 net.cpp:435] inception_5a/output <- inception_5a/pool_proj
I0814 21:35:49.280588   773 net.cpp:409] inception_5a/output -> inception_5a/output
I0814 21:35:49.280616   773 net.cpp:144] Setting up inception_5a/output
I0814 21:35:49.280622   773 net.cpp:151] Top shape: 32 832 7 7 (1304576)
I0814 21:35:49.280624   773 net.cpp:159] Memory required for data: 1746077448
I0814 21:35:49.280627   773 layer_factory.hpp:77] Creating layer inception_5a/output_inception_5a/output_0_split
I0814 21:35:49.280633   773 net.cpp:94] Creating Layer inception_5a/output_inception_5a/output_0_split
I0814 21:35:49.280637   773 net.cpp:435] inception_5a/output_inception_5a/output_0_split <- inception_5a/output
I0814 21:35:49.280645   773 net.cpp:409] inception_5a/output_inception_5a/output_0_split -> inception_5a/output_inception_5a/output_0_split_0
I0814 21:35:49.280652   773 net.cpp:409] inception_5a/output_inception_5a/output_0_split -> inception_5a/output_inception_5a/output_0_split_1
I0814 21:35:49.280660   773 net.cpp:409] inception_5a/output_inception_5a/output_0_split -> inception_5a/output_inception_5a/output_0_split_2
I0814 21:35:49.280666   773 net.cpp:409] inception_5a/output_inception_5a/output_0_split -> inception_5a/output_inception_5a/output_0_split_3
I0814 21:35:49.280726   773 net.cpp:144] Setting up inception_5a/output_inception_5a/output_0_split
I0814 21:35:49.280735   773 net.cpp:151] Top shape: 32 832 7 7 (1304576)
I0814 21:35:49.280738   773 net.cpp:151] Top shape: 32 832 7 7 (1304576)
I0814 21:35:49.280742   773 net.cpp:151] Top shape: 32 832 7 7 (1304576)
I0814 21:35:49.280746   773 net.cpp:151] Top shape: 32 832 7 7 (1304576)
I0814 21:35:49.280750   773 net.cpp:159] Memory required for data: 1766950664
I0814 21:35:49.280752   773 layer_factory.hpp:77] Creating layer inception_5b/1x1
I0814 21:35:49.280774   773 net.cpp:94] Creating Layer inception_5b/1x1
I0814 21:35:49.280778   773 net.cpp:435] inception_5b/1x1 <- inception_5a/output_inception_5a/output_0_split_0
I0814 21:35:49.280786   773 net.cpp:409] inception_5b/1x1 -> inception_5b/1x1
I0814 21:35:49.283710   773 net.cpp:144] Setting up inception_5b/1x1
I0814 21:35:49.283725   773 net.cpp:151] Top shape: 32 384 7 7 (602112)
I0814 21:35:49.283728   773 net.cpp:159] Memory required for data: 1769359112
I0814 21:35:49.283735   773 layer_factory.hpp:77] Creating layer inception_5b/relu_1x1
I0814 21:35:49.283741   773 net.cpp:94] Creating Layer inception_5b/relu_1x1
I0814 21:35:49.283746   773 net.cpp:435] inception_5b/relu_1x1 <- inception_5b/1x1
I0814 21:35:49.283753   773 net.cpp:396] inception_5b/relu_1x1 -> inception_5b/1x1 (in-place)
I0814 21:35:49.283762   773 net.cpp:144] Setting up inception_5b/relu_1x1
I0814 21:35:49.283766   773 net.cpp:151] Top shape: 32 384 7 7 (602112)
I0814 21:35:49.283769   773 net.cpp:159] Memory required for data: 1771767560
I0814 21:35:49.283772   773 layer_factory.hpp:77] Creating layer inception_5b/3x3_reduce
I0814 21:35:49.283787   773 net.cpp:94] Creating Layer inception_5b/3x3_reduce
I0814 21:35:49.283792   773 net.cpp:435] inception_5b/3x3_reduce <- inception_5a/output_inception_5a/output_0_split_1
I0814 21:35:49.283797   773 net.cpp:409] inception_5b/3x3_reduce -> inception_5b/3x3_reduce
I0814 21:35:49.285589   773 net.cpp:144] Setting up inception_5b/3x3_reduce
I0814 21:35:49.285604   773 net.cpp:151] Top shape: 32 192 7 7 (301056)
I0814 21:35:49.285609   773 net.cpp:159] Memory required for data: 1772971784
I0814 21:35:49.285614   773 layer_factory.hpp:77] Creating layer inception_5b/relu_3x3_reduce
I0814 21:35:49.285620   773 net.cpp:94] Creating Layer inception_5b/relu_3x3_reduce
I0814 21:35:49.285625   773 net.cpp:435] inception_5b/relu_3x3_reduce <- inception_5b/3x3_reduce
I0814 21:35:49.285630   773 net.cpp:396] inception_5b/relu_3x3_reduce -> inception_5b/3x3_reduce (in-place)
I0814 21:35:49.285639   773 net.cpp:144] Setting up inception_5b/relu_3x3_reduce
I0814 21:35:49.285642   773 net.cpp:151] Top shape: 32 192 7 7 (301056)
I0814 21:35:49.285645   773 net.cpp:159] Memory required for data: 1774176008
I0814 21:35:49.285648   773 layer_factory.hpp:77] Creating layer inception_5b/3x3
I0814 21:35:49.285658   773 net.cpp:94] Creating Layer inception_5b/3x3
I0814 21:35:49.285661   773 net.cpp:435] inception_5b/3x3 <- inception_5b/3x3_reduce
I0814 21:35:49.285670   773 net.cpp:409] inception_5b/3x3 -> inception_5b/3x3
I0814 21:35:49.291273   773 net.cpp:144] Setting up inception_5b/3x3
I0814 21:35:49.291294   773 net.cpp:151] Top shape: 32 384 7 7 (602112)
I0814 21:35:49.291297   773 net.cpp:159] Memory required for data: 1776584456
I0814 21:35:49.291304   773 layer_factory.hpp:77] Creating layer inception_5b/relu_3x3
I0814 21:35:49.291311   773 net.cpp:94] Creating Layer inception_5b/relu_3x3
I0814 21:35:49.291314   773 net.cpp:435] inception_5b/relu_3x3 <- inception_5b/3x3
I0814 21:35:49.291337   773 net.cpp:396] inception_5b/relu_3x3 -> inception_5b/3x3 (in-place)
I0814 21:35:49.291347   773 net.cpp:144] Setting up inception_5b/relu_3x3
I0814 21:35:49.291352   773 net.cpp:151] Top shape: 32 384 7 7 (602112)
I0814 21:35:49.291354   773 net.cpp:159] Memory required for data: 1778992904
I0814 21:35:49.291357   773 layer_factory.hpp:77] Creating layer inception_5b/5x5_reduce
I0814 21:35:49.291368   773 net.cpp:94] Creating Layer inception_5b/5x5_reduce
I0814 21:35:49.291371   773 net.cpp:435] inception_5b/5x5_reduce <- inception_5a/output_inception_5a/output_0_split_2
I0814 21:35:49.291378   773 net.cpp:409] inception_5b/5x5_reduce -> inception_5b/5x5_reduce
I0814 21:35:49.291853   773 net.cpp:144] Setting up inception_5b/5x5_reduce
I0814 21:35:49.291862   773 net.cpp:151] Top shape: 32 48 7 7 (75264)
I0814 21:35:49.291865   773 net.cpp:159] Memory required for data: 1779293960
I0814 21:35:49.291872   773 layer_factory.hpp:77] Creating layer inception_5b/relu_5x5_reduce
I0814 21:35:49.291877   773 net.cpp:94] Creating Layer inception_5b/relu_5x5_reduce
I0814 21:35:49.291895   773 net.cpp:435] inception_5b/relu_5x5_reduce <- inception_5b/5x5_reduce
I0814 21:35:49.291904   773 net.cpp:396] inception_5b/relu_5x5_reduce -> inception_5b/5x5_reduce (in-place)
I0814 21:35:49.291911   773 net.cpp:144] Setting up inception_5b/relu_5x5_reduce
I0814 21:35:49.291916   773 net.cpp:151] Top shape: 32 48 7 7 (75264)
I0814 21:35:49.291919   773 net.cpp:159] Memory required for data: 1779595016
I0814 21:35:49.291923   773 layer_factory.hpp:77] Creating layer inception_5b/5x5
I0814 21:35:49.291934   773 net.cpp:94] Creating Layer inception_5b/5x5
I0814 21:35:49.291936   773 net.cpp:435] inception_5b/5x5 <- inception_5b/5x5_reduce
I0814 21:35:49.291944   773 net.cpp:409] inception_5b/5x5 -> inception_5b/5x5
I0814 21:35:49.293113   773 net.cpp:144] Setting up inception_5b/5x5
I0814 21:35:49.293123   773 net.cpp:151] Top shape: 32 128 7 7 (200704)
I0814 21:35:49.293128   773 net.cpp:159] Memory required for data: 1780397832
I0814 21:35:49.293133   773 layer_factory.hpp:77] Creating layer inception_5b/relu_5x5
I0814 21:35:49.293139   773 net.cpp:94] Creating Layer inception_5b/relu_5x5
I0814 21:35:49.293143   773 net.cpp:435] inception_5b/relu_5x5 <- inception_5b/5x5
I0814 21:35:49.293148   773 net.cpp:396] inception_5b/relu_5x5 -> inception_5b/5x5 (in-place)
I0814 21:35:49.293155   773 net.cpp:144] Setting up inception_5b/relu_5x5
I0814 21:35:49.293159   773 net.cpp:151] Top shape: 32 128 7 7 (200704)
I0814 21:35:49.293162   773 net.cpp:159] Memory required for data: 1781200648
I0814 21:35:49.293166   773 layer_factory.hpp:77] Creating layer inception_5b/pool
I0814 21:35:49.293172   773 net.cpp:94] Creating Layer inception_5b/pool
I0814 21:35:49.293177   773 net.cpp:435] inception_5b/pool <- inception_5a/output_inception_5a/output_0_split_3
I0814 21:35:49.293185   773 net.cpp:409] inception_5b/pool -> inception_5b/pool
I0814 21:35:49.293228   773 net.cpp:144] Setting up inception_5b/pool
I0814 21:35:49.293234   773 net.cpp:151] Top shape: 32 832 7 7 (1304576)
I0814 21:35:49.293237   773 net.cpp:159] Memory required for data: 1786418952
I0814 21:35:49.293241   773 layer_factory.hpp:77] Creating layer inception_5b/pool_proj
I0814 21:35:49.293282   773 net.cpp:94] Creating Layer inception_5b/pool_proj
I0814 21:35:49.293287   773 net.cpp:435] inception_5b/pool_proj <- inception_5b/pool
I0814 21:35:49.293292   773 net.cpp:409] inception_5b/pool_proj -> inception_5b/pool_proj
I0814 21:35:49.294826   773 net.cpp:144] Setting up inception_5b/pool_proj
I0814 21:35:49.294842   773 net.cpp:151] Top shape: 32 128 7 7 (200704)
I0814 21:35:49.294844   773 net.cpp:159] Memory required for data: 1787221768
I0814 21:35:49.294852   773 layer_factory.hpp:77] Creating layer inception_5b/relu_pool_proj
I0814 21:35:49.294858   773 net.cpp:94] Creating Layer inception_5b/relu_pool_proj
I0814 21:35:49.294862   773 net.cpp:435] inception_5b/relu_pool_proj <- inception_5b/pool_proj
I0814 21:35:49.294870   773 net.cpp:396] inception_5b/relu_pool_proj -> inception_5b/pool_proj (in-place)
I0814 21:35:49.294878   773 net.cpp:144] Setting up inception_5b/relu_pool_proj
I0814 21:35:49.294883   773 net.cpp:151] Top shape: 32 128 7 7 (200704)
I0814 21:35:49.294886   773 net.cpp:159] Memory required for data: 1788024584
I0814 21:35:49.294889   773 layer_factory.hpp:77] Creating layer inception_5b/output
I0814 21:35:49.294895   773 net.cpp:94] Creating Layer inception_5b/output
I0814 21:35:49.294899   773 net.cpp:435] inception_5b/output <- inception_5b/1x1
I0814 21:35:49.294903   773 net.cpp:435] inception_5b/output <- inception_5b/3x3
I0814 21:35:49.294908   773 net.cpp:435] inception_5b/output <- inception_5b/5x5
I0814 21:35:49.294911   773 net.cpp:435] inception_5b/output <- inception_5b/pool_proj
I0814 21:35:49.294919   773 net.cpp:409] inception_5b/output -> inception_5b/output
I0814 21:35:49.294944   773 net.cpp:144] Setting up inception_5b/output
I0814 21:35:49.294950   773 net.cpp:151] Top shape: 32 1024 7 7 (1605632)
I0814 21:35:49.294952   773 net.cpp:159] Memory required for data: 1794447112
I0814 21:35:49.294970   773 layer_factory.hpp:77] Creating layer pool5/7x7_s1
I0814 21:35:49.294978   773 net.cpp:94] Creating Layer pool5/7x7_s1
I0814 21:35:49.294982   773 net.cpp:435] pool5/7x7_s1 <- inception_5b/output
I0814 21:35:49.294988   773 net.cpp:409] pool5/7x7_s1 -> pool5/7x7_s1
I0814 21:35:49.295015   773 net.cpp:144] Setting up pool5/7x7_s1
I0814 21:35:49.295022   773 net.cpp:151] Top shape: 32 1024 1 1 (32768)
I0814 21:35:49.295025   773 net.cpp:159] Memory required for data: 1794578184
I0814 21:35:49.295028   773 layer_factory.hpp:77] Creating layer pool5/drop_7x7_s1
I0814 21:35:49.295037   773 net.cpp:94] Creating Layer pool5/drop_7x7_s1
I0814 21:35:49.295040   773 net.cpp:435] pool5/drop_7x7_s1 <- pool5/7x7_s1
I0814 21:35:49.295045   773 net.cpp:396] pool5/drop_7x7_s1 -> pool5/7x7_s1 (in-place)
I0814 21:35:49.295068   773 net.cpp:144] Setting up pool5/drop_7x7_s1
I0814 21:35:49.295073   773 net.cpp:151] Top shape: 32 1024 1 1 (32768)
I0814 21:35:49.295075   773 net.cpp:159] Memory required for data: 1794709256
I0814 21:35:49.295078   773 layer_factory.hpp:77] Creating layer loss3/classifier
I0814 21:35:49.295089   773 net.cpp:94] Creating Layer loss3/classifier
I0814 21:35:49.295092   773 net.cpp:435] loss3/classifier <- pool5/7x7_s1
I0814 21:35:49.295099   773 net.cpp:409] loss3/classifier -> loss3/classifier
I0814 21:35:49.295231   773 net.cpp:144] Setting up loss3/classifier
I0814 21:35:49.295238   773 net.cpp:151] Top shape: 32 5 (160)
I0814 21:35:49.295241   773 net.cpp:159] Memory required for data: 1794709896
I0814 21:35:49.295248   773 layer_factory.hpp:77] Creating layer loss3/loss
I0814 21:35:49.295253   773 net.cpp:94] Creating Layer loss3/loss
I0814 21:35:49.295258   773 net.cpp:435] loss3/loss <- loss3/classifier
I0814 21:35:49.295262   773 net.cpp:435] loss3/loss <- label_train-data_1_split_2
I0814 21:35:49.295267   773 net.cpp:409] loss3/loss -> loss
…
I0814 21:35:49.298161   773 solver.cpp:181] Creating test net (#0) specified by net file: train_val.prototxt
I0814 21:35:49.298316   773 net.cpp:323] The NetState phase (1) differed from the phase (0) specified by a rule in layer train-data
I0814 21:35:49.299068   773 net.cpp:52] Initializing net from parameters:
state {
phase: TEST
}
layer {
name: "val-data"
type: "Data"
top: "data"
top: "label"
include {
phase: TEST
}
transform_param {
mirror: false
crop_size: 224
mean_file: "/opt/DIGITS/digits/jobs/20190814-204945-55ec/mean.binaryproto"
}
data_param {
source: "/opt/DIGITS/digits/jobs/20190814-204945-55ec/val_db"
batch_size: 16
backend: LMDB
}
}
layer {
name: "conv1/7x7_s2"
type: "Convolution"
bottom: "data"
top: "conv1/7x7_s2"
param {
lr_mult: 1
decay_mult: 1
}
param {
lr_mult: 2
decay_mult: 0
}
convolution_param {
num_output: 64
pad: 3
kernel_size: 7
stride: 2
weight_filler {
type: "xavier"
std: 0.1
}
bias_filler {
type: "constant"
value: 0.2
}
}
}
layer {
name: "conv1/relu_7x7"
type: "ReLU"
bottom: "conv1/7x7_s2"
top: "conv1/7x7_s2"
}
layer {
name: "pool1/3x3_s2"
type: "Pooling"
bottom: "conv1/7x7_s2"
top: "pool1/3x3_s2"
pooling_param {
pool: MAX
kernel_size: 3
stride: 2
}
}
layer {
name: "pool1/norm1"
type: "LRN"
bottom: "pool1/3x3_s2"
top: "pool1/norm1"
lrn_param {
local_size: 5
alpha: 0.0001
beta: 0.75
}
}
layer {
name: "conv2/3x3_reduce"
type: "Convolution"
bottom: "pool1/norm1"
top: "conv2/3x3_reduce"
param {
lr_mult: 1
decay_mult: 1
}
param {
lr_mult: 2
decay_mult: 0
}
convolution_param {
num_output: 64
kernel_size: 1
weight_filler {
type: "xavier"
std: 0.1
}
bias_filler {
type: "constant"
value: 0.2
}
}
}
layer {
name: "conv2/relu_3x3_reduce"
type: "ReLU"
bottom: "conv2/3x3_reduce"
top: "conv2/3x3_reduce"
}
layer {
name: "conv2/3x3"
type: "Convolution"
bottom: "conv2/3x3_reduce"
top: "conv2/3x3"
param {
lr_mult: 1
decay_mult: 1
}
param {
lr_mult: 2
decay_mult: 0
}
convolution_param {
num_output: 192
pad: 1
kernel_size: 3
weight_filler {
type: "xavier"
std: 0.03
}
bias_filler {
type: "constant"
value: 0.2
}
}
}
layer {
name: "conv2/relu_3x3"
type: "ReLU"
bottom: "conv2/3x3"
top: "conv2/3x3"
}
layer {
name: "conv2/norm2"
type: "LRN"
bottom: "conv2/3x3"
top: "conv2/norm2"
lrn_param {
local_size: 5
alpha: 0.0001
beta: 0.75
}
}
layer {
name: "pool2/3x3_s2"
type: "Pooling"
bottom: "conv2/norm2"
top: "pool2/3x3_s2"
pooling_param {
pool: MAX
kernel_size: 3
stride: 2
}
}
layer {
name: "inception_3a/1x1"
type: "Convolution"
bottom: "pool2/3x3_s2"
top: "inception_3a/1x1"
param {
lr_mult: 1
decay_mult: 1
}
param {
lr_mult: 2
decay_mult: 0
}
convolution_param {
num_output: 64
kernel_size: 1
weight_filler {
type: "xavier"
std: 0.03
}
bias_filler {
type: "constant"
value: 0.2
}
}
}
layer {
name: "inception_3a/relu_1x1"
type: "ReLU"
bottom: "inception_3a/1x1"
top: "inception_3a/1x1"
}
layer {
name: "inception_3a/3x3_reduce"
type: "Convolution"
bottom: "pool2/3x3_s2"
top: "inception_3a/3x3_reduce"
param {
lr_mult: 1
decay_mult: 1
}
param {
lr_mult: 2
decay_mult: 0
}
convolution_param {
num_output: 96
kernel_size: 1
weight_filler {
type: "xavier"
std: 0.09
}
bias_filler {
type: "constant"
value: 0.2
}
}
}
layer {
name: "inception_3a/relu_3x3_reduce"
type: "ReLU"
bottom: "inception_3a/3x3_reduce"
top: "inception_3a/3x3_reduce"
}
layer {
name: "inception_3a/3x3"
type: "Convolution"
bottom: "inception_3a/3x3_reduce"
top: "inception_3a/3x3"
param {
lr_mult: 1
decay_mult: 1
}
param {
lr_mult: 2
decay_mult: 0
}
convolution_param {
num_output: 128
pad: 1
kernel_size: 3
weight_filler {
type: "xavier"
std: 0.03
}
bias_filler {
type: "constant"
value: 0.2
}
}
}
layer {
name: "inception_3a/relu_3x3"
type: "ReLU"
bottom: "inception_3a/3x3"
top: "inception_3a/3x3"
}
layer {
name: "inception_3a/5x5_reduce"
type: "Convolution"
bottom: "pool2/3x3_s2"
top: "inception_3a/5x5_reduce"
param {
lr_mult: 1
decay_mult: 1
}
param {
lr_mult: 2
decay_mult: 0
}
convolution_param {
num_output: 16
kernel_size: 1
weight_filler {
type: "xavier"
std: 0.2
}
bias_filler {
type: "constant"
value: 0.2
}
}
}
layer {
name: "inception_3a/relu_5x5_reduce"
type: "ReLU"
bottom: "inception_3a/5x5_reduce"
top: "inception_3a/5x5_reduce"
}
layer {
name: "inception_3a/5x5"
type: "Convolution"
bottom: "inception_3a/5x5_reduce"
top: "inception_3a/5x5"
param {
lr_mult: 1
decay_mult: 1
}
param {
lr_mult: 2
decay_mult: 0
}
convolution_param {
num_output: 32
pad: 2
kernel_size: 5
weight_filler {
type: "xavier"
std: 0.03
}
bias_filler {
type: "constant"
value: 0.2
}
}
}
layer {
name: "inception_3a/relu_5x5"
type: "ReLU"
bottom: "inception_3a/5x5"
top: "inception_3a/5x5"
}
layer {
name: "inception_3a/pool"
type: "Pooling"
bottom: "pool2/3x3_s2"
top: "inception_3a/pool"
pooling_param {
pool: MAX
kernel_size: 3
stride: 1
pad: 1
}
}
layer {
name: "inception_3a/pool_proj"
type: "Convolution"
bottom: "inception_3a/pool"
top: "inception_3a/pool_proj"
param {
lr_mult: 1
decay_mult: 1
}
param {
lr_mult: 2
decay_mult: 0
}
convolution_param {
num_output: 32
kernel_size: 1
weight_filler {
type: "xavier"
std: 0.1
}
bias_filler {
type: "constant"
value: 0.2
}
}
}
layer {
name: "inception_3a/relu_pool_proj"
type: "ReLU"
bottom: "inception_3a/pool_proj"
top: "inception_3a/pool_proj"
}
layer {
name: "inception_3a/output"
type: "Concat"
bottom: "inception_3a/1x1"
bottom: "inception_3a/3x3"
bottom: "inception_3a/5x5"
bottom: "inception_3a/pool_proj"
top: "inception_3a/output"
}
layer {
name: "inception_3b/1x1"
type: "Convolution"
bottom: "inception_3a/output"
top: "inception_3b/1x1"
param {
lr_mult: 1
decay_mult: 1
}
param {
lr_mult: 2
decay_mult: 0
}
convolution_param {
num_output: 128
kernel_size: 1
weight_filler {
type: "xavier"
std: 0.03
}
bias_filler {
type: "constant"
value: 0.2
}
}
}
layer {
name: "inception_3b/relu_1x1"
type: "ReLU"
bottom: "inception_3b/1x1"
top: "inception_3b/1x1"
}
layer {
name: "inception_3b/3x3_reduce"
type: "Convolution"
bottom: "inception_3a/output"
top: "inception_3b/3x3_reduce"
param {
lr_mult: 1
decay_mult: 1
}
param {
lr_mult: 2
decay_mult: 0
}
convolution_param {
num_output: 128
kernel_size: 1
weight_filler {
type: "xavier"
std: 0.09
}
bias_filler {
type: "constant"
value: 0.2
}
}
}
layer {
name: "inception_3b/relu_3x3_reduce"
type: "ReLU"
bottom: "inception_3b/3x3_reduce"
top: "inception_3b/3x3_reduce"
}
layer {
name: "inception_3b/3x3"
type: "Convolution"
bottom: "inception_3b/3x3_reduce"
top: "inception_3b/3x3"
param {
lr_mult: 1
decay_mult: 1
}
param {
lr_mult: 2
decay_mult: 0
}
convolution_param {
num_output: 192
pad: 1
kernel_size: 3
weight_filler {
type: "xavier"
std: 0.03
}
bias_filler {
type: "constant"
value: 0.2
}
}
}
layer {
name: "inception_3b/relu_3x3"
type: "ReLU"
bottom: "inception_3b/3x3"
top: "inception_3b/3x3"
}
layer {
name: "inception_3b/5x5_reduce"
type: "Convolution"
bottom: "inception_3a/output"
top: "inception_3b/5x5_reduce"
param {
lr_mult: 1
decay_mult: 1
}
param {
lr_mult: 2
decay_mult: 0
}
convolution_param {
num_output: 32
kernel_size: 1
weight_filler {
type: "xavier"
std: 0.2
}
bias_filler {
type: "constant"
value: 0.2
}
}
}
layer {
name: "inception_3b/relu_5x5_reduce"
type: "ReLU"
bottom: "inception_3b/5x5_reduce"
top: "inception_3b/5x5_reduce"
}
layer {
name: "inception_3b/5x5"
type: "Convolution"
bottom: "inception_3b/5x5_reduce"
top: "inception_3b/5x5"
param {
lr_mult: 1
decay_mult: 1
}
param {
lr_mult: 2
decay_mult: 0
}
convolution_param {
num_output: 96
pad: 2
kernel_size: 5
weight_filler {
type: "xavier"
std: 0.03
}
bias_filler {
type: "constant"
value: 0.2
}
}
}
layer {
name: "inception_3b/relu_5x5"
type: "ReLU"
bottom: "inception_3b/5x5"
top: "inception_3b/5x5"
}
layer {
name: "inception_3b/pool"
type: "Pooling"
bottom: "inception_3a/output"
top: "inception_3b/pool"
pooling_param {
pool: MAX
kernel_size: 3
stride: 1
pad: 1
}
}
layer {
name: "inception_3b/pool_proj"
type: "Convolution"
bottom: "inception_3b/pool"
top: "inception_3b/pool_proj"
param {
lr_mult: 1
decay_mult: 1
}
param {
lr_mult: 2
decay_mult: 0
}
convolution_param {
num_output: 64
kernel_size: 1
weight_filler {
type: "xavier"
std: 0.1
}
bias_filler {
type: "constant"
value: 0.2
}
}
}
layer {
name: "inception_3b/relu_pool_proj"
type: "ReLU"
bottom: "inception_3b/pool_proj"
top: "inception_3b/pool_proj"
}
layer {
name: "inception_3b/output"
type: "Concat"
bottom: "inception_3b/1x1"
bottom: "inception_3b/3x3"
bottom: "inception_3b/5x5"
bottom: "inception_3b/pool_proj"
top: "inception_3b/output"
}
layer {
name: "pool3/3x3_s2"
type: "Pooling"
bottom: "inception_3b/output"
top: "pool3/3x3_s2"
pooling_param {
pool: MAX
kernel_size: 3
stride: 2
}
}
layer {
name: "inception_4a/1x1"
type: "Convolution"
bottom: "pool3/3x3_s2"
top: "inception_4a/1x1"
param {
lr_mult: 1
decay_mult: 1
}
param {
lr_mult: 2
decay_mult: 0
}
convolution_param {
num_output: 192
kernel_size: 1
weight_filler {
type: "xavier"
std: 0.03
}
bias_filler {
type: "constant"
value: 0.2
}
}
}
layer {
name: "inception_4a/relu_1x1"
type: "ReLU"
bottom: "inception_4a/1x1"
top: "inception_4a/1x1"
}
layer {
name: "inception_4a/3x3_reduce"
type: "Convolution"
bottom: "pool3/3x3_s2"
top: "inception_4a/3x3_reduce"
param {
lr_mult: 1
decay_mult: 1
}
param {
lr_mult: 2
decay_mult: 0
}
convolution_param {
num_output: 96
kernel_size: 1
weight_filler {
type: "xavier"
std: 0.09
}
bias_filler {
type: "constant"
value: 0.2
}
}
}
layer {
name: "inception_4a/relu_3x3_reduce"
type: "ReLU"
bottom: "inception_4a/3x3_reduce"
top: "inception_4a/3x3_reduce"
}
layer {
name: "inception_4a/3x3"
type: "Convolution"
bottom: "inception_4a/3x3_reduce"
top: "inception_4a/3x3"
param {
lr_mult: 1
decay_mult: 1
}
param {
lr_mult: 2
decay_mult: 0
}
convolution_param {
num_output: 208
pad: 1
kernel_size: 3
weight_filler {
type: "xavier"
std: 0.03
}
bias_filler {
type: "constant"
value: 0.2
}
}
}
layer {
name: "inception_4a/relu_3x3"
type: "ReLU"
bottom: "inception_4a/3x3"
top: "inception_4a/3x3"
}
layer {
name: "inception_4a/5x5_reduce"
type: "Convolution"
bottom: "pool3/3x3_s2"
top: "inception_4a/5x5_reduce"
param {
lr_mult: 1
decay_mult: 1
}
param {
lr_mult: 2
decay_mult: 0
}
convolution_param {
num_output: 16
kernel_size: 1
weight_filler {
type: "xavier"
std: 0.2
}
bias_filler {
type: "constant"
value: 0.2
}
}
}
layer {
name: "inception_4a/relu_5x5_reduce"
type: "ReLU"
bottom: "inception_4a/5x5_reduce"
top: "inception_4a/5x5_reduce"
}
layer {
name: "inception_4a/5x5"
type: "Convolution"
bottom: "inception_4a/5x5_reduce"
top: "inception_4a/5x5"
param {
lr_mult: 1
decay_mult: 1
}
param {
lr_mult: 2
decay_mult: 0
}
convolution_param {
num_output: 48
pad: 2
kernel_size: 5
weight_filler {
type: "xavier"
std: 0.03
}
bias_filler {
type: "constant"
value: 0.2
}
}
}
layer {
name: "inception_4a/relu_5x5"
type: "ReLU"
bottom: "inception_4a/5x5"
top: "inception_4a/5x5"
}
layer {
name: "inception_4a/pool"
type: "Pooling"
bottom: "pool3/3x3_s2"
top: "inception_4a/pool"
pooling_param {
pool: MAX
kernel_size: 3
stride: 1
pad: 1
}
}
layer {
name: "inception_4a/pool_proj"
type: "Convolution"
bottom: "inception_4a/pool"
top: "inception_4a/pool_proj"
param {
lr_mult: 1
decay_mult: 1
}
param {
lr_mult: 2
decay_mult: 0
}
convolution_param {
num_output: 64
kernel_size: 1
weight_filler {
type: "xavier"
std: 0.1
}
bias_filler {
type: "constant"
value: 0.2
}
}
}
layer {
name: "inception_4a/relu_pool_proj"
type: "ReLU"
bottom: "inception_4a/pool_proj"
top: "inception_4a/pool_proj"
}
layer {
name: "inception_4a/output"
type: "Concat"
bottom: "inception_4a/1x1"
bottom: "inception_4a/3x3"
bottom: "inception_4a/5x5"
bottom: "inception_4a/pool_proj"
top: "inception_4a/output"
}
layer {
name: "loss1/ave_pool"
type: "Pooling"
bottom: "inception_4a/output"
top: "loss1/ave_pool"
pooling_param {
pool: AVE
kernel_size: 5
stride: 3
}
}
layer {
name: "loss1/conv"
type: "Convolution"
bottom: "loss1/ave_pool"
top: "loss1/conv"
param {
lr_mult: 1
decay_mult: 1
}
param {
lr_mult: 2
decay_mult: 0
}
convolution_param {
num_output: 128
kernel_size: 1
weight_filler {
type: "xavier"
std: 0.08
}
bias_filler {
type: "constant"
value: 0.2
}
}
}
layer {
name: "loss1/relu_conv"
type: "ReLU"
bottom: "loss1/conv"
top: "loss1/conv"
}
layer {
name: "loss1/fc"
type: "InnerProduct"
bottom: "loss1/conv"
top: "loss1/fc"
param {
lr_mult: 1
decay_mult: 1
}
param {
lr_mult: 2
decay_mult: 0
}
inner_product_param {
num_output: 1024
weight_filler {
type: "xavier"
std: 0.02
}
bias_filler {
type: "constant"
value: 0.2
}
}
}
layer {
name: "loss1/relu_fc"
type: "ReLU"
bottom: "loss1/fc"
top: "loss1/fc"
}
layer {
name: "loss1/drop_fc"
type: "Dropout"
bottom: "loss1/fc"
top: "loss1/fc"
dropout_param {
dropout_ratio: 0.7
}
}
layer {
name: "loss1/classifier"
type: "InnerProduct"
bottom: "loss1/fc"
top: "loss1/classifier"
param {
lr_mult: 1
decay_mult: 1
}
param {
lr_mult: 2
decay_mult: 0
}
inner_product_param {
num_output: 5
weight_filler {
type: "xavier"
std: 0.0009765625
}
bias_filler {
type: "constant"
value: 0
}
}
}
layer {
name: "loss1/loss"
type: "SoftmaxWithLoss"
bottom: "loss1/classifier"
bottom: "label"
top: "loss1/loss"
loss_weight: 0.3
}
layer {
name: "loss1/top-1"
type: "Accuracy"
bottom: "loss1/classifier"
bottom: "label"
top: "loss1/accuracy"
include {
phase: TEST
}
}
layer {
name: "loss1/top-5"
type: "Accuracy"
bottom: "loss1/classifier"
bottom: "label"
top: "loss1/accuracy-top5"
include {
phase: TEST
}
accuracy_param {
top_k: 5
}
}
layer {
name: "inception_4b/1x1"
type: "Convolution"
bottom: "inception_4a/output"
top: "inception_4b/1x1"
param {
lr_mult: 1
decay_mult: 1
}
param {
lr_mult: 2
decay_mult: 0
}
convolution_param {
num_output: 160
kernel_size: 1
weight_filler {
type: "xavier"
std: 0.03
}
bias_filler {
type: "constant"
value: 0.2
}
}
}
layer {
name: "inception_4b/relu_1x1"
type: "ReLU"
bottom: "inception_4b/1x1"
top: "inception_4b/1x1"
}
layer {
name: "inception_4b/3x3_reduce"
type: "Convolution"
bottom: "inception_4a/output"
top: "inception_4b/3x3_reduce"
param {
lr_mult: 1
decay_mult: 1
}
param {
lr_mult: 2
decay_mult: 0
}
convolution_param {
num_output: 112
kernel_size: 1
weight_filler {
type: "xavier"
std: 0.09
}
bias_filler {
type: "constant"
value: 0.2
}
}
}
layer {
name: "inception_4b/relu_3x3_reduce"
type: "ReLU"
bottom: "inception_4b/3x3_reduce"
top: "inception_4b/3x3_reduce"
}
layer {
name: "inception_4b/3x3"
type: "Convolution"
bottom: "inception_4b/3x3_reduce"
top: "inception_4b/3x3"
param {
lr_mult: 1
decay_mult: 1
}
param {
lr_mult: 2
decay_mult: 0
}
convolution_param {
num_output: 224
pad: 1
kernel_size: 3
weight_filler {
type: "xavier"
std: 0.03
}
bias_filler {
type: "constant"
value: 0.2
}
}
}
layer {
name: "inception_4b/relu_3x3"
type: "ReLU"
bottom: "inception_4b/3x3"
top: "inception_4b/3x3"
}
layer {
name: "inception_4b/5x5_reduce"
type: "Convolution"
bottom: "inception_4a/output"
top: "inception_4b/5x5_reduce"
param {
lr_mult: 1
decay_mult: 1
}
param {
lr_mult: 2
decay_mult: 0
}
convolution_param {
num_output: 24
kernel_size: 1
weight_filler {
type: "xavier"
std: 0.2
}
bias_filler {
type: "constant"
value: 0.2
}
}
}
layer {
name: "inception_4b/relu_5x5_reduce"
type: "ReLU"
bottom: "inception_4b/5x5_reduce"
top: "inception_4b/5x5_reduce"
}
layer {
name: "inception_4b/5x5"
type: "Convolution"
bottom: "inception_4b/5x5_reduce"
top: "inception_4b/5x5"
param {
lr_mult: 1
decay_mult: 1
}
param {
lr_mult: 2
decay_mult: 0
}
convolution_param {
num_output: 64
pad: 2
kernel_size: 5
weight_filler {
type: "xavier"
std: 0.03
}
bias_filler {
type: "constant"
value: 0.2
}
}
}
layer {
name: "inception_4b/relu_5x5"
type: "ReLU"
bottom: "inception_4b/5x5"
top: "inception_4b/5x5"
}
layer {
name: "inception_4b/pool"
type: "Pooling"
bottom: "inception_4a/output"
top: "inception_4b/pool"
pooling_param {
pool: MAX
kernel_size: 3
stride: 1
pad: 1
}
}
layer {
name: "inception_4b/pool_proj"
type: "Convolution"
bottom: "inception_4b/pool"
top: "inception_4b/pool_proj"
param {
lr_mult: 1
decay_mult: 1
}
param {
lr_mult: 2
decay_mult: 0
}
convolution_param {
num_output: 64
kernel_size: 1
weight_filler {
type: "xavier"
std: 0.1
}
bias_filler {
type: "constant"
value: 0.2
}
}
}
layer {
name: "inception_4b/relu_pool_proj"
type: "ReLU"
bottom: "inception_4b/pool_proj"
top: "inception_4b/pool_proj"
}
layer {
name: "inception_4b/output"
type: "Concat"
bottom: "inception_4b/1x1"
bottom: "inception_4b/3x3"
bottom: "inception_4b/5x5"
bottom: "inception_4b/pool_proj"
top: "inception_4b/output"
}
layer {
name: "inception_4c/1x1"
type: "Convolution"
bottom: "inception_4b/output"
top: "inception_4c/1x1"
param {
lr_mult: 1
decay_mult: 1
}
param {
lr_mult: 2
decay_mult: 0
}
convolution_param {
num_output: 128
kernel_size: 1
weight_filler {
type: "xavier"
std: 0.03
}
bias_filler {
type: "constant"
value: 0.2
}
}
}
layer {
name: "inception_4c/relu_1x1"
type: "ReLU"
bottom: "inception_4c/1x1"
top: "inception_4c/1x1"
}
layer {
name: "inception_4c/3x3_reduce"
type: "Convolution"
bottom: "inception_4b/output"
top: "inception_4c/3x3_reduce"
param {
lr_mult: 1
decay_mult: 1
}
param {
lr_mult: 2
decay_mult: 0
}
convolution_param {
num_output: 128
kernel_size: 1
weight_filler {
type: "xavier"
std: 0.09
}
bias_filler {
type: "constant"
value: 0.2
}
}
}
layer {
name: "inception_4c/relu_3x3_reduce"
type: "ReLU"
bottom: "inception_4c/3x3_reduce"
top: "inception_4c/3x3_reduce"
}
layer {
name: "inception_4c/3x3"
type: "Convolution"
bottom: "inception_4c/3x3_reduce"
top: "inception_4c/3x3"
param {
lr_mult: 1
decay_mult: 1
}
param {
lr_mult: 2
decay_mult: 0
}
convolution_param {
num_output: 256
pad: 1
kernel_size: 3
weight_filler {
type: "xavier"
std: 0.03
}
bias_filler {
type: "constant"
value: 0.2
}
}
}
layer {
name: "inception_4c/relu_3x3"
type: "ReLU"
bottom: "inception_4c/3x3"
top: "inception_4c/3x3"
}
layer {
name: "inception_4c/5x5_reduce"
type: "Convolution"
bottom: "inception_4b/output"
top: "inception_4c/5x5_reduce"
param {
lr_mult: 1
decay_mult: 1
}
param {
lr_mult: 2
decay_mult: 0
}
convolution_param {
num_output: 24
kernel_size: 1
weight_filler {
type: "xavier"
std: 0.2
}
bias_filler {
type: "constant"
value: 0.2
}
}
}
layer {
name: "inception_4c/relu_5x5_reduce"
type: "ReLU"
bottom: "inception_4c/5x5_reduce"
top: "inception_4c/5x5_reduce"
}
layer {
name: "inception_4c/5x5"
type: "Convolution"
bottom: "inception_4c/5x5_reduce"
top: "inception_4c/5x5"
param {
lr_mult: 1
decay_mult: 1
}
param {
lr_mult: 2
decay_mult: 0
}
convolution_param {
num_output: 64
pad: 2
kernel_size: 5
weight_filler {
type: "xavier"
std: 0.03
}
bias_filler {
type: "constant"
value: 0.2
}
}
}
layer {
name: "inception_4c/relu_5x5"
type: "ReLU"
bottom: "inception_4c/5x5"
top: "inception_4c/5x5"
}
layer {
name: "inception_4c/pool"
type: "Pooling"
bottom: "inception_4b/output"
top: "inception_4c/pool"
pooling_param {
pool: MAX
kernel_size: 3
stride: 1
pad: 1
}
}
layer {
name: "inception_4c/pool_proj"
type: "Convolution"
bottom: "inception_4c/pool"
top: "inception_4c/pool_proj"
param {
lr_mult: 1
decay_mult: 1
}
param {
lr_mult: 2
decay_mult: 0
}
convolution_param {
num_output: 64
kernel_size: 1
weight_filler {
type: "xavier"
std: 0.1
}
bias_filler {
type: "constant"
value: 0.2
}
}
}
layer {
name: "inception_4c/relu_pool_proj"
type: "ReLU"
bottom: "inception_4c/pool_proj"
top: "inception_4c/pool_proj"
}
layer {
name: "inception_4c/output"
type: "Concat"
bottom: "inception_4c/1x1"
bottom: "inception_4c/3x3"
bottom: "inception_4c/5x5"
bottom: "inception_4c/pool_proj"
top: "inception_4c/output"
}
layer {
name: "inception_4d/1x1"
type: "Convolution"
bottom: "inception_4c/output"
top: "inception_4d/1x1"
param {
lr_mult: 1
decay_mult: 1
}
param {
lr_mult: 2
decay_mult: 0
}
convolution_param {
num_output: 112
kernel_size: 1
…
I0814 21:35:49.419315   773 net.cpp:396] inception_4c/relu_5x5 -> inception_4c/5x5 (in-place)
I0814 21:35:49.419322   773 net.cpp:144] Setting up inception_4c/relu_5x5
I0814 21:35:49.419327   773 net.cpp:151] Top shape: 16 64 14 14 (200704)
I0814 21:35:49.419330   773 net.cpp:159] Memory required for data: 700639116
I0814 21:35:49.419333   773 layer_factory.hpp:77] Creating layer inception_4c/pool
I0814 21:35:49.419358   773 net.cpp:94] Creating Layer inception_4c/pool
I0814 21:35:49.419363   773 net.cpp:435] inception_4c/pool <- inception_4b/output_inception_4b/output_0_split_3
I0814 21:35:49.419368   773 net.cpp:409] inception_4c/pool -> inception_4c/pool
I0814 21:35:49.419407   773 net.cpp:144] Setting up inception_4c/pool
I0814 21:35:49.419414   773 net.cpp:151] Top shape: 16 512 14 14 (1605632)
I0814 21:35:49.419416   773 net.cpp:159] Memory required for data: 707061644
I0814 21:35:49.419420   773 layer_factory.hpp:77] Creating layer inception_4c/pool_proj
I0814 21:35:49.419428   773 net.cpp:94] Creating Layer inception_4c/pool_proj
I0814 21:35:49.419433   773 net.cpp:435] inception_4c/pool_proj <- inception_4c/pool
I0814 21:35:49.419440   773 net.cpp:409] inception_4c/pool_proj -> inception_4c/pool_proj
I0814 21:35:49.419847   773 net.cpp:144] Setting up inception_4c/pool_proj
I0814 21:35:49.419872   773 net.cpp:151] Top shape: 16 64 14 14 (200704)
I0814 21:35:49.419878   773 net.cpp:159] Memory required for data: 707864460
I0814 21:35:49.419883   773 layer_factory.hpp:77] Creating layer inception_4c/relu_pool_proj
I0814 21:35:49.419890   773 net.cpp:94] Creating Layer inception_4c/relu_pool_proj
I0814 21:35:49.419895   773 net.cpp:435] inception_4c/relu_pool_proj <- inception_4c/pool_proj
I0814 21:35:49.419901   773 net.cpp:396] inception_4c/relu_pool_proj -> inception_4c/pool_proj (in-place)
I0814 21:35:49.419909   773 net.cpp:144] Setting up inception_4c/relu_pool_proj
I0814 21:35:49.419912   773 net.cpp:151] Top shape: 16 64 14 14 (200704)
I0814 21:35:49.419915   773 net.cpp:159] Memory required for data: 708667276
I0814 21:35:49.419919   773 layer_factory.hpp:77] Creating layer inception_4c/output
I0814 21:35:49.419925   773 net.cpp:94] Creating Layer inception_4c/output
I0814 21:35:49.419929   773 net.cpp:435] inception_4c/output <- inception_4c/1x1
I0814 21:35:49.419946   773 net.cpp:435] inception_4c/output <- inception_4c/3x3
I0814 21:35:49.419951   773 net.cpp:435] inception_4c/output <- inception_4c/5x5
I0814 21:35:49.419955   773 net.cpp:435] inception_4c/output <- inception_4c/pool_proj
I0814 21:35:49.419961   773 net.cpp:409] inception_4c/output -> inception_4c/output
I0814 21:35:49.419989   773 net.cpp:144] Setting up inception_4c/output
I0814 21:35:49.419996   773 net.cpp:151] Top shape: 16 512 14 14 (1605632)
I0814 21:35:49.419998   773 net.cpp:159] Memory required for data: 715089804
I0814 21:35:49.420002   773 layer_factory.hpp:77] Creating layer inception_4c/output_inception_4c/output_0_split
I0814 21:35:49.420011   773 net.cpp:94] Creating Layer inception_4c/output_inception_4c/output_0_split
I0814 21:35:49.420014   773 net.cpp:435] inception_4c/output_inception_4c/output_0_split <- inception_4c/output
I0814 21:35:49.420020   773 net.cpp:409] inception_4c/output_inception_4c/output_0_split -> inception_4c/output_inception_4c/output_0_split_0
I0814 21:35:49.420028   773 net.cpp:409] inception_4c/output_inception_4c/output_0_split -> inception_4c/output_inception_4c/output_0_split_1
I0814 21:35:49.420037   773 net.cpp:409] inception_4c/output_inception_4c/output_0_split -> inception_4c/output_inception_4c/output_0_split_2
I0814 21:35:49.420044   773 net.cpp:409] inception_4c/output_inception_4c/output_0_split -> inception_4c/output_inception_4c/output_0_split_3
I0814 21:35:49.420099   773 net.cpp:144] Setting up inception_4c/output_inception_4c/output_0_split
I0814 21:35:49.420104   773 net.cpp:151] Top shape: 16 512 14 14 (1605632)
I0814 21:35:49.420109   773 net.cpp:151] Top shape: 16 512 14 14 (1605632)
I0814 21:35:49.420112   773 net.cpp:151] Top shape: 16 512 14 14 (1605632)
I0814 21:35:49.420116   773 net.cpp:151] Top shape: 16 512 14 14 (1605632)
I0814 21:35:49.420120   773 net.cpp:159] Memory required for data: 740779916
I0814 21:35:49.420122   773 layer_factory.hpp:77] Creating layer inception_4d/1x1
I0814 21:35:49.420140   773 net.cpp:94] Creating Layer inception_4d/1x1
I0814 21:35:49.420143   773 net.cpp:435] inception_4d/1x1 <- inception_4c/output_inception_4c/output_0_split_0
I0814 21:35:49.420150   773 net.cpp:409] inception_4d/1x1 -> inception_4d/1x1
I0814 21:35:49.422253   773 net.cpp:144] Setting up inception_4d/1x1
I0814 21:35:49.422269   773 net.cpp:151] Top shape: 16 112 14 14 (351232)
I0814 21:35:49.422273   773 net.cpp:159] Memory required for data: 742184844
I0814 21:35:49.422299   773 layer_factory.hpp:77] Creating layer inception_4d/relu_1x1
I0814 21:35:49.422307   773 net.cpp:94] Creating Layer inception_4d/relu_1x1
I0814 21:35:49.422312   773 net.cpp:435] inception_4d/relu_1x1 <- inception_4d/1x1
I0814 21:35:49.422318   773 net.cpp:396] inception_4d/relu_1x1 -> inception_4d/1x1 (in-place)
I0814 21:35:49.422327   773 net.cpp:144] Setting up inception_4d/relu_1x1
I0814 21:35:49.422333   773 net.cpp:151] Top shape: 16 112 14 14 (351232)
I0814 21:35:49.422335   773 net.cpp:159] Memory required for data: 743589772
I0814 21:35:49.422339   773 layer_factory.hpp:77] Creating layer inception_4d/3x3_reduce
I0814 21:35:49.422351   773 net.cpp:94] Creating Layer inception_4d/3x3_reduce
I0814 21:35:49.422355   773 net.cpp:435] inception_4d/3x3_reduce <- inception_4c/output_inception_4c/output_0_split_1
I0814 21:35:49.422364   773 net.cpp:409] inception_4d/3x3_reduce -> inception_4d/3x3_reduce
I0814 21:35:49.423118   773 net.cpp:144] Setting up inception_4d/3x3_reduce
I0814 21:35:49.423128   773 net.cpp:151] Top shape: 16 144 14 14 (451584)
I0814 21:35:49.423132   773 net.cpp:159] Memory required for data: 745396108
I0814 21:35:49.423138   773 layer_factory.hpp:77] Creating layer inception_4d/relu_3x3_reduce
I0814 21:35:49.423146   773 net.cpp:94] Creating Layer inception_4d/relu_3x3_reduce
I0814 21:35:49.423149   773 net.cpp:435] inception_4d/relu_3x3_reduce <- inception_4d/3x3_reduce
I0814 21:35:49.423156   773 net.cpp:396] inception_4d/relu_3x3_reduce -> inception_4d/3x3_reduce (in-place)
I0814 21:35:49.423179   773 net.cpp:144] Setting up inception_4d/relu_3x3_reduce
I0814 21:35:49.423185   773 net.cpp:151] Top shape: 16 144 14 14 (451584)
I0814 21:35:49.423188   773 net.cpp:159] Memory required for data: 747202444
I0814 21:35:49.423192   773 layer_factory.hpp:77] Creating layer inception_4d/3x3
I0814 21:35:49.423202   773 net.cpp:94] Creating Layer inception_4d/3x3
I0814 21:35:49.423207   773 net.cpp:435] inception_4d/3x3 <- inception_4d/3x3_reduce
I0814 21:35:49.423214   773 net.cpp:409] inception_4d/3x3 -> inception_4d/3x3
I0814 21:35:49.426728   773 net.cpp:144] Setting up inception_4d/3x3
I0814 21:35:49.426743   773 net.cpp:151] Top shape: 16 288 14 14 (903168)
I0814 21:35:49.426748   773 net.cpp:159] Memory required for data: 750815116
I0814 21:35:49.426754   773 layer_factory.hpp:77] Creating layer inception_4d/relu_3x3
I0814 21:35:49.426761   773 net.cpp:94] Creating Layer inception_4d/relu_3x3
I0814 21:35:49.426766   773 net.cpp:435] inception_4d/relu_3x3 <- inception_4d/3x3
I0814 21:35:49.426772   773 net.cpp:396] inception_4d/relu_3x3 -> inception_4d/3x3 (in-place)
I0814 21:35:49.426781   773 net.cpp:144] Setting up inception_4d/relu_3x3
I0814 21:35:49.426786   773 net.cpp:151] Top shape: 16 288 14 14 (903168)
I0814 21:35:49.426789   773 net.cpp:159] Memory required for data: 754427788
I0814 21:35:49.426792   773 layer_factory.hpp:77] Creating layer inception_4d/5x5_reduce
I0814 21:35:49.426802   773 net.cpp:94] Creating Layer inception_4d/5x5_reduce
I0814 21:35:49.426806   773 net.cpp:435] inception_4d/5x5_reduce <- inception_4c/output_inception_4c/output_0_split_2
I0814 21:35:49.426813   773 net.cpp:409] inception_4d/5x5_reduce -> inception_4d/5x5_reduce
I0814 21:35:49.427203   773 net.cpp:144] Setting up inception_4d/5x5_reduce
I0814 21:35:49.427212   773 net.cpp:151] Top shape: 16 32 14 14 (100352)
I0814 21:35:49.427222   773 net.cpp:159] Memory required for data: 754829196
I0814 21:35:49.427228   773 layer_factory.hpp:77] Creating layer inception_4d/relu_5x5_reduce
I0814 21:35:49.427234   773 net.cpp:94] Creating Layer inception_4d/relu_5x5_reduce
I0814 21:35:49.427238   773 net.cpp:435] inception_4d/relu_5x5_reduce <- inception_4d/5x5_reduce
I0814 21:35:49.427258   773 net.cpp:396] inception_4d/relu_5x5_reduce -> inception_4d/5x5_reduce (in-place)
I0814 21:35:49.427263   773 net.cpp:144] Setting up inception_4d/relu_5x5_reduce
I0814 21:35:49.427268   773 net.cpp:151] Top shape: 16 32 14 14 (100352)
I0814 21:35:49.427271   773 net.cpp:159] Memory required for data: 755230604
I0814 21:35:49.427274   773 layer_factory.hpp:77] Creating layer inception_4d/5x5
I0814 21:35:49.427284   773 net.cpp:94] Creating Layer inception_4d/5x5
I0814 21:35:49.427287   773 net.cpp:435] inception_4d/5x5 <- inception_4d/5x5_reduce
I0814 21:35:49.427294   773 net.cpp:409] inception_4d/5x5 -> inception_4d/5x5
I0814 21:35:49.427824   773 net.cpp:144] Setting up inception_4d/5x5
I0814 21:35:49.427831   773 net.cpp:151] Top shape: 16 64 14 14 (200704)
I0814 21:35:49.427834   773 net.cpp:159] Memory required for data: 756033420
I0814 21:35:49.427840   773 layer_factory.hpp:77] Creating layer inception_4d/relu_5x5
I0814 21:35:49.427855   773 net.cpp:94] Creating Layer inception_4d/relu_5x5
I0814 21:35:49.427860   773 net.cpp:435] inception_4d/relu_5x5 <- inception_4d/5x5
I0814 21:35:49.427865   773 net.cpp:396] inception_4d/relu_5x5 -> inception_4d/5x5 (in-place)
I0814 21:35:49.427872   773 net.cpp:144] Setting up inception_4d/relu_5x5
I0814 21:35:49.427877   773 net.cpp:151] Top shape: 16 64 14 14 (200704)
I0814 21:35:49.427881   773 net.cpp:159] Memory required for data: 756836236
I0814 21:35:49.427883   773 layer_factory.hpp:77] Creating layer inception_4d/pool
I0814 21:35:49.427891   773 net.cpp:94] Creating Layer inception_4d/pool
I0814 21:35:49.427894   773 net.cpp:435] inception_4d/pool <- inception_4c/output_inception_4c/output_0_split_3
I0814 21:35:49.427911   773 net.cpp:409] inception_4d/pool -> inception_4d/pool
I0814 21:35:49.427948   773 net.cpp:144] Setting up inception_4d/pool
I0814 21:35:49.427954   773 net.cpp:151] Top shape: 16 512 14 14 (1605632)
I0814 21:35:49.427973   773 net.cpp:159] Memory required for data: 763258764
I0814 21:35:49.427976   773 layer_factory.hpp:77] Creating layer inception_4d/pool_proj
I0814 21:35:49.427986   773 net.cpp:94] Creating Layer inception_4d/pool_proj
I0814 21:35:49.427990   773 net.cpp:435] inception_4d/pool_proj <- inception_4d/pool
I0814 21:35:49.427999   773 net.cpp:409] inception_4d/pool_proj -> inception_4d/pool_proj
I0814 21:35:49.428407   773 net.cpp:144] Setting up inception_4d/pool_proj
I0814 21:35:49.428416   773 net.cpp:151] Top shape: 16 64 14 14 (200704)
I0814 21:35:49.428419   773 net.cpp:159] Memory required for data: 764061580
I0814 21:35:49.428424   773 layer_factory.hpp:77] Creating layer inception_4d/relu_pool_proj
I0814 21:35:49.428431   773 net.cpp:94] Creating Layer inception_4d/relu_pool_proj
I0814 21:35:49.428436   773 net.cpp:435] inception_4d/relu_pool_proj <- inception_4d/pool_proj
I0814 21:35:49.428442   773 net.cpp:396] inception_4d/relu_pool_proj -> inception_4d/pool_proj (in-place)
I0814 21:35:49.428450   773 net.cpp:144] Setting up inception_4d/relu_pool_proj
I0814 21:35:49.428455   773 net.cpp:151] Top shape: 16 64 14 14 (200704)
I0814 21:35:49.428458   773 net.cpp:159] Memory required for data: 764864396
I0814 21:35:49.428462   773 layer_factory.hpp:77] Creating layer inception_4d/output
I0814 21:35:49.428468   773 net.cpp:94] Creating Layer inception_4d/output
I0814 21:35:49.428472   773 net.cpp:435] inception_4d/output <- inception_4d/1x1
I0814 21:35:49.428476   773 net.cpp:435] inception_4d/output <- inception_4d/3x3
I0814 21:35:49.428480   773 net.cpp:435] inception_4d/output <- inception_4d/5x5
I0814 21:35:49.428484   773 net.cpp:435] inception_4d/output <- inception_4d/pool_proj
I0814 21:35:49.428503   773 net.cpp:409] inception_4d/output -> inception_4d/output
I0814 21:35:49.428527   773 net.cpp:144] Setting up inception_4d/output
I0814 21:35:49.428534   773 net.cpp:151] Top shape: 16 528 14 14 (1655808)
I0814 21:35:49.428536   773 net.cpp:159] Memory required for data: 771487628
I0814 21:35:49.428539   773 layer_factory.hpp:77] Creating layer inception_4d/output_inception_4d/output_0_split
I0814 21:35:49.428556   773 net.cpp:94] Creating Layer inception_4d/output_inception_4d/output_0_split
I0814 21:35:49.428560   773 net.cpp:435] inception_4d/output_inception_4d/output_0_split <- inception_4d/output
I0814 21:35:49.428567   773 net.cpp:409] inception_4d/output_inception_4d/output_0_split -> inception_4d/output_inception_4d/output_0_split_0
I0814 21:35:49.428575   773 net.cpp:409] inception_4d/output_inception_4d/output_0_split -> inception_4d/output_inception_4d/output_0_split_1
I0814 21:35:49.428582   773 net.cpp:409] inception_4d/output_inception_4d/output_0_split -> inception_4d/output_inception_4d/output_0_split_2
I0814 21:35:49.428589   773 net.cpp:409] inception_4d/output_inception_4d/output_0_split -> inception_4d/output_inception_4d/output_0_split_3
I0814 21:35:49.428596   773 net.cpp:409] inception_4d/output_inception_4d/output_0_split -> inception_4d/output_inception_4d/output_0_split_4
I0814 21:35:49.428673   773 net.cpp:144] Setting up inception_4d/output_inception_4d/output_0_split
I0814 21:35:49.428678   773 net.cpp:151] Top shape: 16 528 14 14 (1655808)
I0814 21:35:49.428683   773 net.cpp:151] Top shape: 16 528 14 14 (1655808)
I0814 21:35:49.428686   773 net.cpp:151] Top shape: 16 528 14 14 (1655808)
I0814 21:35:49.428689   773 net.cpp:151] Top shape: 16 528 14 14 (1655808)
I0814 21:35:49.428694   773 net.cpp:151] Top shape: 16 528 14 14 (1655808)
I0814 21:35:49.428696   773 net.cpp:159] Memory required for data: 804603788
I0814 21:35:49.428700   773 layer_factory.hpp:77] Creating layer loss2/ave_pool
I0814 21:35:49.428706   773 net.cpp:94] Creating Layer loss2/ave_pool
I0814 21:35:49.428710   773 net.cpp:435] loss2/ave_pool <- inception_4d/output_inception_4d/output_0_split_0
I0814 21:35:49.428717   773 net.cpp:409] loss2/ave_pool -> loss2/ave_pool
I0814 21:35:49.428740   773 net.cpp:144] Setting up loss2/ave_pool
I0814 21:35:49.428756   773 net.cpp:151] Top shape: 16 528 4 4 (135168)
I0814 21:35:49.428759   773 net.cpp:159] Memory required for data: 805144460
I0814 21:35:49.428763   773 layer_factory.hpp:77] Creating layer loss2/conv
I0814 21:35:49.428773   773 net.cpp:94] Creating Layer loss2/conv
I0814 21:35:49.428777   773 net.cpp:435] loss2/conv <- loss2/ave_pool
I0814 21:35:49.428797   773 net.cpp:409] loss2/conv -> loss2/conv
I0814 21:35:49.433101   773 net.cpp:144] Setting up loss2/conv
I0814 21:35:49.433118   773 net.cpp:151] Top shape: 16 128 4 4 (32768)
I0814 21:35:49.433137   773 net.cpp:159] Memory required for data: 805275532
I0814 21:35:49.433143   773 layer_factory.hpp:77] Creating layer loss2/relu_conv
I0814 21:35:49.433151   773 net.cpp:94] Creating Layer loss2/relu_conv
I0814 21:35:49.433156   773 net.cpp:435] loss2/relu_conv <- loss2/conv
I0814 21:35:49.433162   773 net.cpp:396] loss2/relu_conv -> loss2/conv (in-place)
I0814 21:35:49.433171   773 net.cpp:144] Setting up loss2/relu_conv
I0814 21:35:49.433187   773 net.cpp:151] Top shape: 16 128 4 4 (32768)
I0814 21:35:49.433189   773 net.cpp:159] Memory required for data: 805406604
I0814 21:35:49.433192   773 layer_factory.hpp:77] Creating layer loss2/fc
I0814 21:35:49.433200   773 net.cpp:94] Creating Layer loss2/fc
I0814 21:35:49.433203   773 net.cpp:435] loss2/fc <- loss2/conv
I0814 21:35:49.433210   773 net.cpp:409] loss2/fc -> loss2/fc
I0814 21:35:49.466714   773 net.cpp:144] Setting up loss2/fc
I0814 21:35:49.466738   773 net.cpp:151] Top shape: 16 1024 (16384)
I0814 21:35:49.466758   773 net.cpp:159] Memory required for data: 805472140
I0814 21:35:49.466768   773 layer_factory.hpp:77] Creating layer loss2/relu_fc
I0814 21:35:49.466784   773 net.cpp:94] Creating Layer loss2/relu_fc
I0814 21:35:49.466789   773 net.cpp:435] loss2/relu_fc <- loss2/fc
I0814 21:35:49.466799   773 net.cpp:396] loss2/relu_fc -> loss2/fc (in-place)
I0814 21:35:49.466811   773 net.cpp:144] Setting up loss2/relu_fc
I0814 21:35:49.466815   773 net.cpp:151] Top shape: 16 1024 (16384)
I0814 21:35:49.466819   773 net.cpp:159] Memory required for data: 805537676
I0814 21:35:49.466821   773 layer_factory.hpp:77] Creating layer loss2/drop_fc
I0814 21:35:49.466828   773 net.cpp:94] Creating Layer loss2/drop_fc
I0814 21:35:49.466832   773 net.cpp:435] loss2/drop_fc <- loss2/fc
I0814 21:35:49.466837   773 net.cpp:396] loss2/drop_fc -> loss2/fc (in-place)
I0814 21:35:49.466868   773 net.cpp:144] Setting up loss2/drop_fc
I0814 21:35:49.466873   773 net.cpp:151] Top shape: 16 1024 (16384)
I0814 21:35:49.466876   773 net.cpp:159] Memory required for data: 805603212
I0814 21:35:49.466879   773 layer_factory.hpp:77] Creating layer loss2/classifier
I0814 21:35:49.466890   773 net.cpp:94] Creating Layer loss2/classifier
I0814 21:35:49.466894   773 net.cpp:435] loss2/classifier <- loss2/fc
I0814 21:35:49.466900   773 net.cpp:409] loss2/classifier -> loss2/classifier
I0814 21:35:49.467031   773 net.cpp:144] Setting up loss2/classifier
I0814 21:35:49.467037   773 net.cpp:151] Top shape: 16 5 (80)
I0814 21:35:49.467041   773 net.cpp:159] Memory required for data: 805603532
I0814 21:35:49.467046   773 layer_factory.hpp:77] Creating layer loss2/classifier_loss2/classifier_0_split
I0814 21:35:49.467053   773 net.cpp:94] Creating Layer loss2/classifier_loss2/classifier_0_split
I0814 21:35:49.467057   773 net.cpp:435] loss2/classifier_loss2/classifier_0_split <- loss2/classifier
I0814 21:35:49.467063   773 net.cpp:409] loss2/classifier_loss2/classifier_0_split -> loss2/classifier_loss2/classifier_0_split_0
I0814 21:35:49.467072   773 net.cpp:409] loss2/classifier_loss2/classifier_0_split -> loss2/classifier_loss2/classifier_0_split_1
I0814 21:35:49.467094   773 net.cpp:409] loss2/classifier_loss2/classifier_0_split -> loss2/classifier_loss2/classifier_0_split_2
I0814 21:35:49.467141   773 net.cpp:144] Setting up loss2/classifier_loss2/classifier_0_split
I0814 21:35:49.467146   773 net.cpp:151] Top shape: 16 5 (80)
I0814 21:35:49.467150   773 net.cpp:151] Top shape: 16 5 (80)
I0814 21:35:49.467154   773 net.cpp:151] Top shape: 16 5 (80)
I0814 21:35:49.467175   773 net.cpp:159] Memory required for data: 805604492
I0814 21:35:49.467180   773 layer_factory.hpp:77] Creating layer loss2/loss
I0814 21:35:49.467186   773 net.cpp:94] Creating Layer loss2/loss
I0814 21:35:49.467190   773 net.cpp:435] loss2/loss <- loss2/classifier_loss2/classifier_0_split_0
I0814 21:35:49.467196   773 net.cpp:435] loss2/loss <- label_val-data_1_split_3
…
I0814 21:35:49.467424   773 net.cpp:144] Setting up loss2/top-5
I0814 21:35:49.467428   773 net.cpp:151] Top shape: (1)
I0814 21:35:49.467432   773 net.cpp:159] Memory required for data: 805604504
I0814 21:35:49.467434   773 layer_factory.hpp:77] Creating layer inception_4e/1x1
I0814 21:35:49.467445   773 net.cpp:94] Creating Layer inception_4e/1x1
I0814 21:35:49.467449   773 net.cpp:435] inception_4e/1x1 <- inception_4d/output_inception_4d/output_0_split_1
I0814 21:35:49.467455   773 net.cpp:409] inception_4e/1x1 -> inception_4e/1x1
I0814 21:35:49.468576   773 net.cpp:144] Setting up inception_4e/1x1
I0814 21:35:49.468602   773 net.cpp:151] Top shape: 16 256 14 14 (802816)
I0814 21:35:49.468605   773 net.cpp:159] Memory required for data: 808815768
I0814 21:35:49.468611   773 layer_factory.hpp:77] Creating layer inception_4e/relu_1x1
I0814 21:35:49.468617   773 net.cpp:94] Creating Layer inception_4e/relu_1x1
I0814 21:35:49.468621   773 net.cpp:435] inception_4e/relu_1x1 <- inception_4e/1x1
I0814 21:35:49.468626   773 net.cpp:396] inception_4e/relu_1x1 -> inception_4e/1x1 (in-place)
I0814 21:35:49.468636   773 net.cpp:144] Setting up inception_4e/relu_1x1
I0814 21:35:49.468641   773 net.cpp:151] Top shape: 16 256 14 14 (802816)
I0814 21:35:49.468643   773 net.cpp:159] Memory required for data: 812027032
I0814 21:35:49.468647   773 layer_factory.hpp:77] Creating layer inception_4e/3x3_reduce
I0814 21:35:49.468688   773 net.cpp:94] Creating Layer inception_4e/3x3_reduce
I0814 21:35:49.468693   773 net.cpp:435] inception_4e/3x3_reduce <- inception_4d/output_inception_4d/output_0_split_2
I0814 21:35:49.468698   773 net.cpp:409] inception_4e/3x3_reduce -> inception_4e/3x3_reduce
I0814 21:35:49.470249   773 net.cpp:144] Setting up inception_4e/3x3_reduce
I0814 21:35:49.470264   773 net.cpp:151] Top shape: 16 160 14 14 (501760)
I0814 21:35:49.470268   773 net.cpp:159] Memory required for data: 814034072
I0814 21:35:49.470276   773 layer_factory.hpp:77] Creating layer inception_4e/relu_3x3_reduce
I0814 21:35:49.470284   773 net.cpp:94] Creating Layer inception_4e/relu_3x3_reduce
I0814 21:35:49.470289   773 net.cpp:435] inception_4e/relu_3x3_reduce <- inception_4e/3x3_reduce
I0814 21:35:49.470297   773 net.cpp:396] inception_4e/relu_3x3_reduce -> inception_4e/3x3_reduce (in-place)
I0814 21:35:49.470320   773 net.cpp:144] Setting up inception_4e/relu_3x3_reduce
I0814 21:35:49.470325   773 net.cpp:151] Top shape: 16 160 14 14 (501760)
I0814 21:35:49.470329   773 net.cpp:159] Memory required for data: 816041112
I0814 21:35:49.470332   773 layer_factory.hpp:77] Creating layer inception_4e/3x3
I0814 21:35:49.470341   773 net.cpp:94] Creating Layer inception_4e/3x3
I0814 21:35:49.470345   773 net.cpp:435] inception_4e/3x3 <- inception_4e/3x3_reduce
I0814 21:35:49.470350   773 net.cpp:409] inception_4e/3x3 -> inception_4e/3x3
I0814 21:35:49.474408   773 net.cpp:144] Setting up inception_4e/3x3
I0814 21:35:49.474439   773 net.cpp:151] Top shape: 16 320 14 14 (1003520)
I0814 21:35:49.474444   773 net.cpp:159] Memory required for data: 820055192
I0814 21:35:49.474450   773 layer_factory.hpp:77] Creating layer inception_4e/relu_3x3
I0814 21:35:49.474459   773 net.cpp:94] Creating Layer inception_4e/relu_3x3
I0814 21:35:49.474463   773 net.cpp:435] inception_4e/relu_3x3 <- inception_4e/3x3
I0814 21:35:49.474469   773 net.cpp:396] inception_4e/relu_3x3 -> inception_4e/3x3 (in-place)
I0814 21:35:49.474478   773 net.cpp:144] Setting up inception_4e/relu_3x3
I0814 21:35:49.474483   773 net.cpp:151] Top shape: 16 320 14 14 (1003520)
I0814 21:35:49.474500   773 net.cpp:159] Memory required for data: 824069272
I0814 21:35:49.474503   773 layer_factory.hpp:77] Creating layer inception_4e/5x5_reduce
I0814 21:35:49.474529   773 net.cpp:94] Creating Layer inception_4e/5x5_reduce
I0814 21:35:49.474534   773 net.cpp:435] inception_4e/5x5_reduce <- inception_4d/output_inception_4d/output_0_split_3
I0814 21:35:49.474541   773 net.cpp:409] inception_4e/5x5_reduce -> inception_4e/5x5_reduce
I0814 21:35:49.474880   773 net.cpp:144] Setting up inception_4e/5x5_reduce
I0814 21:35:49.474889   773 net.cpp:151] Top shape: 16 32 14 14 (100352)
I0814 21:35:49.474892   773 net.cpp:159] Memory required for data: 824470680
I0814 21:35:49.474898   773 layer_factory.hpp:77] Creating layer inception_4e/relu_5x5_reduce
I0814 21:35:49.474920   773 net.cpp:94] Creating Layer inception_4e/relu_5x5_reduce
I0814 21:35:49.474925   773 net.cpp:435] inception_4e/relu_5x5_reduce <- inception_4e/5x5_reduce
I0814 21:35:49.474932   773 net.cpp:396] inception_4e/relu_5x5_reduce -> inception_4e/5x5_reduce (in-place)
I0814 21:35:49.474964   773 net.cpp:144] Setting up inception_4e/relu_5x5_reduce
I0814 21:35:49.474969   773 net.cpp:151] Top shape: 16 32 14 14 (100352)
I0814 21:35:49.474972   773 net.cpp:159] Memory required for data: 824872088
I0814 21:35:49.474975   773 layer_factory.hpp:77] Creating layer inception_4e/5x5
I0814 21:35:49.474984   773 net.cpp:94] Creating Layer inception_4e/5x5
I0814 21:35:49.474987   773 net.cpp:435] inception_4e/5x5 <- inception_4e/5x5_reduce
I0814 21:35:49.474993   773 net.cpp:409] inception_4e/5x5 -> inception_4e/5x5
I0814 21:35:49.475832   773 net.cpp:144] Setting up inception_4e/5x5
I0814 21:35:49.475841   773 net.cpp:151] Top shape: 16 128 14 14 (401408)
I0814 21:35:49.475844   773 net.cpp:159] Memory required for data: 826477720
I0814 21:35:49.475850   773 layer_factory.hpp:77] Creating layer inception_4e/relu_5x5
I0814 21:35:49.475857   773 net.cpp:94] Creating Layer inception_4e/relu_5x5
I0814 21:35:49.475859   773 net.cpp:435] inception_4e/relu_5x5 <- inception_4e/5x5
I0814 21:35:49.475867   773 net.cpp:396] inception_4e/relu_5x5 -> inception_4e/5x5 (in-place)
I0814 21:35:49.475874   773 net.cpp:144] Setting up inception_4e/relu_5x5
I0814 21:35:49.475878   773 net.cpp:151] Top shape: 16 128 14 14 (401408)
I0814 21:35:49.475881   773 net.cpp:159] Memory required for data: 828083352
I0814 21:35:49.475884   773 layer_factory.hpp:77] Creating layer inception_4e/pool
I0814 21:35:49.475891   773 net.cpp:94] Creating Layer inception_4e/pool
I0814 21:35:49.475895   773 net.cpp:435] inception_4e/pool <- inception_4d/output_inception_4d/output_0_split_4
I0814 21:35:49.475900   773 net.cpp:409] inception_4e/pool -> inception_4e/pool
I0814 21:35:49.475944   773 net.cpp:144] Setting up inception_4e/pool
I0814 21:35:49.475965   773 net.cpp:151] Top shape: 16 528 14 14 (1655808)
I0814 21:35:49.475968   773 net.cpp:159] Memory required for data: 834706584
I0814 21:35:49.475971   773 layer_factory.hpp:77] Creating layer inception_4e/pool_proj
I0814 21:35:49.475983   773 net.cpp:94] Creating Layer inception_4e/pool_proj
I0814 21:35:49.475987   773 net.cpp:435] inception_4e/pool_proj <- inception_4e/pool
I0814 21:35:49.475996   773 net.cpp:409] inception_4e/pool_proj -> inception_4e/pool_proj
I0814 21:35:49.476614   773 net.cpp:144] Setting up inception_4e/pool_proj
I0814 21:35:49.476624   773 net.cpp:151] Top shape: 16 128 14 14 (401408)
I0814 21:35:49.476626   773 net.cpp:159] Memory required for data: 836312216
I0814 21:35:49.476632   773 layer_factory.hpp:77] Creating layer inception_4e/relu_pool_proj
I0814 21:35:49.476655   773 net.cpp:94] Creating Layer inception_4e/relu_pool_proj
I0814 21:35:49.476658   773 net.cpp:435] inception_4e/relu_pool_proj <- inception_4e/pool_proj
I0814 21:35:49.476663   773 net.cpp:396] inception_4e/relu_pool_proj -> inception_4e/pool_proj (in-place)
I0814 21:35:49.476670   773 net.cpp:144] Setting up inception_4e/relu_pool_proj
I0814 21:35:49.476673   773 net.cpp:151] Top shape: 16 128 14 14 (401408)
I0814 21:35:49.476676   773 net.cpp:159] Memory required for data: 837917848
I0814 21:35:49.476680   773 layer_factory.hpp:77] Creating layer inception_4e/output
I0814 21:35:49.476688   773 net.cpp:94] Creating Layer inception_4e/output
I0814 21:35:49.476692   773 net.cpp:435] inception_4e/output <- inception_4e/1x1
I0814 21:35:49.476696   773 net.cpp:435] inception_4e/output <- inception_4e/3x3
I0814 21:35:49.476701   773 net.cpp:435] inception_4e/output <- inception_4e/5x5
I0814 21:35:49.476704   773 net.cpp:435] inception_4e/output <- inception_4e/pool_proj
I0814 21:35:49.476709   773 net.cpp:409] inception_4e/output -> inception_4e/output
I0814 21:35:49.476735   773 net.cpp:144] Setting up inception_4e/output
I0814 21:35:49.476740   773 net.cpp:151] Top shape: 16 832 14 14 (2609152)
I0814 21:35:49.476743   773 net.cpp:159] Memory required for data: 848354456
I0814 21:35:49.476747   773 layer_factory.hpp:77] Creating layer pool4/3x3_s2
I0814 21:35:49.476752   773 net.cpp:94] Creating Layer pool4/3x3_s2
I0814 21:35:49.476756   773 net.cpp:435] pool4/3x3_s2 <- inception_4e/output
I0814 21:35:49.476763   773 net.cpp:409] pool4/3x3_s2 -> pool4/3x3_s2
I0814 21:35:49.476807   773 net.cpp:144] Setting up pool4/3x3_s2
I0814 21:35:49.476815   773 net.cpp:151] Top shape: 16 832 7 7 (652288)
I0814 21:35:49.476819   773 net.cpp:159] Memory required for data: 850963608
I0814 21:35:49.476822   773 layer_factory.hpp:77] Creating layer pool4/3x3_s2_pool4/3x3_s2_0_split
I0814 21:35:49.476828   773 net.cpp:94] Creating Layer pool4/3x3_s2_pool4/3x3_s2_0_split
I0814 21:35:49.476831   773 net.cpp:435] pool4/3x3_s2_pool4/3x3_s2_0_split <- pool4/3x3_s2
I0814 21:35:49.476840   773 net.cpp:409] pool4/3x3_s2_pool4/3x3_s2_0_split -> pool4/3x3_s2_pool4/3x3_s2_0_split_0
I0814 21:35:49.476846   773 net.cpp:409] pool4/3x3_s2_pool4/3x3_s2_0_split -> pool4/3x3_s2_pool4/3x3_s2_0_split_1
I0814 21:35:49.476852   773 net.cpp:409] pool4/3x3_s2_pool4/3x3_s2_0_split -> pool4/3x3_s2_pool4/3x3_s2_0_split_2
I0814 21:35:49.476887   773 net.cpp:409] pool4/3x3_s2_pool4/3x3_s2_0_split -> pool4/3x3_s2_pool4/3x3_s2_0_split_3
I0814 21:35:49.476938   773 net.cpp:144] Setting up pool4/3x3_s2_pool4/3x3_s2_0_split
I0814 21:35:49.476943   773 net.cpp:151] Top shape: 16 832 7 7 (652288)
I0814 21:35:49.476948   773 net.cpp:151] Top shape: 16 832 7 7 (652288)
I0814 21:35:49.476953   773 net.cpp:151] Top shape: 16 832 7 7 (652288)
I0814 21:35:49.476958   773 net.cpp:151] Top shape: 16 832 7 7 (652288)
I0814 21:35:49.476960   773 net.cpp:159] Memory required for data: 861400216
I0814 21:35:49.476964   773 layer_factory.hpp:77] Creating layer inception_5a/1x1
I0814 21:35:49.476971   773 net.cpp:94] Creating Layer inception_5a/1x1
I0814 21:35:49.476975   773 net.cpp:435] inception_5a/1x1 <- pool4/3x3_s2_pool4/3x3_s2_0_split_0
I0814 21:35:49.476992   773 net.cpp:409] inception_5a/1x1 -> inception_5a/1x1
I0814 21:35:49.479123   773 net.cpp:144] Setting up inception_5a/1x1
I0814 21:35:49.479137   773 net.cpp:151] Top shape: 16 256 7 7 (200704)
I0814 21:35:49.479140   773 net.cpp:159] Memory required for data: 862203032
I0814 21:35:49.479147   773 layer_factory.hpp:77] Creating layer inception_5a/relu_1x1
I0814 21:35:49.479153   773 net.cpp:94] Creating Layer inception_5a/relu_1x1
I0814 21:35:49.479157   773 net.cpp:435] inception_5a/relu_1x1 <- inception_5a/1x1
I0814 21:35:49.479162   773 net.cpp:396] inception_5a/relu_1x1 -> inception_5a/1x1 (in-place)
I0814 21:35:49.479171   773 net.cpp:144] Setting up inception_5a/relu_1x1
I0814 21:35:49.479174   773 net.cpp:151] Top shape: 16 256 7 7 (200704)
I0814 21:35:49.479177   773 net.cpp:159] Memory required for data: 863005848
I0814 21:35:49.479180   773 layer_factory.hpp:77] Creating layer inception_5a/3x3_reduce
I0814 21:35:49.479192   773 net.cpp:94] Creating Layer inception_5a/3x3_reduce
I0814 21:35:49.479197   773 net.cpp:435] inception_5a/3x3_reduce <- pool4/3x3_s2_pool4/3x3_s2_0_split_1
I0814 21:35:49.479203   773 net.cpp:409] inception_5a/3x3_reduce -> inception_5a/3x3_reduce
I0814 21:35:49.480993   773 net.cpp:144] Setting up inception_5a/3x3_reduce
I0814 21:35:49.481007   773 net.cpp:151] Top shape: 16 160 7 7 (125440)
I0814 21:35:49.481011   773 net.cpp:159] Memory required for data: 863507608
I0814 21:35:49.481019   773 layer_factory.hpp:77] Creating layer inception_5a/relu_3x3_reduce
I0814 21:35:49.481024   773 net.cpp:94] Creating Layer inception_5a/relu_3x3_reduce
I0814 21:35:49.481029   773 net.cpp:435] inception_5a/relu_3x3_reduce <- inception_5a/3x3_reduce
I0814 21:35:49.481036   773 net.cpp:396] inception_5a/relu_3x3_reduce -> inception_5a/3x3_reduce (in-place)
I0814 21:35:49.481045   773 net.cpp:144] Setting up inception_5a/relu_3x3_reduce
I0814 21:35:49.481050   773 net.cpp:151] Top shape: 16 160 7 7 (125440)
I0814 21:35:49.481052   773 net.cpp:159] Memory required for data: 864009368
I0814 21:35:49.481055   773 layer_factory.hpp:77] Creating layer inception_5a/3x3
I0814 21:35:49.481065   773 net.cpp:94] Creating Layer inception_5a/3x3
I0814 21:35:49.481070   773 net.cpp:435] inception_5a/3x3 <- inception_5a/3x3_reduce
I0814 21:35:49.481076   773 net.cpp:409] inception_5a/3x3 -> inception_5a/3x3
I0814 21:35:49.485222   773 net.cpp:144] Setting up inception_5a/3x3
I0814 21:35:49.485236   773 net.cpp:151] Top shape: 16 320 7 7 (250880)
I0814 21:35:49.485240   773 net.cpp:159] Memory required for data: 865012888
I0814 21:35:49.485247   773 layer_factory.hpp:77] Creating layer inception_5a/relu_3x3
I0814 21:35:49.485255   773 net.cpp:94] Creating Layer inception_5a/relu_3x3
I0814 21:35:49.485260   773 net.cpp:435] inception_5a/relu_3x3 <- inception_5a/3x3
I0814 21:35:49.485265   773 net.cpp:396] inception_5a/relu_3x3 -> inception_5a/3x3 (in-place)
I0814 21:35:49.485273   773 net.cpp:144] Setting up inception_5a/relu_3x3
I0814 21:35:49.485280   773 net.cpp:151] Top shape: 16 320 7 7 (250880)
I0814 21:35:49.485285   773 net.cpp:159] Memory required for data: 866016408
I0814 21:35:49.485289   773 layer_factory.hpp:77] Creating layer inception_5a/5x5_reduce
I0814 21:35:49.485314   773 net.cpp:94] Creating Layer inception_5a/5x5_reduce
I0814 21:35:49.485319   773 net.cpp:435] inception_5a/5x5_reduce <- pool4/3x3_s2_pool4/3x3_s2_0_split_2
I0814 21:35:49.485327   773 net.cpp:409] inception_5a/5x5_reduce -> inception_5a/5x5_reduce
I0814 21:35:49.485754   773 net.cpp:144] Setting up inception_5a/5x5_reduce
I0814 21:35:49.485761   773 net.cpp:151] Top shape: 16 32 7 7 (25088)
I0814 21:35:49.485765   773 net.cpp:159] Memory required for data: 866116760
I0814 21:35:49.485770   773 layer_factory.hpp:77] Creating layer inception_5a/relu_5x5_reduce
I0814 21:35:49.485792   773 net.cpp:94] Creating Layer inception_5a/relu_5x5_reduce
I0814 21:35:49.485796   773 net.cpp:435] inception_5a/relu_5x5_reduce <- inception_5a/5x5_reduce
I0814 21:35:49.485806   773 net.cpp:396] inception_5a/relu_5x5_reduce -> inception_5a/5x5_reduce (in-place)
I0814 21:35:49.485828   773 net.cpp:144] Setting up inception_5a/relu_5x5_reduce
I0814 21:35:49.485868   773 net.cpp:151] Top shape: 16 32 7 7 (25088)
I0814 21:35:49.485872   773 net.cpp:159] Memory required for data: 866217112
I0814 21:35:49.485890   773 layer_factory.hpp:77] Creating layer inception_5a/5x5
I0814 21:35:49.485903   773 net.cpp:94] Creating Layer inception_5a/5x5
I0814 21:35:49.485906   773 net.cpp:435] inception_5a/5x5 <- inception_5a/5x5_reduce
I0814 21:35:49.485914   773 net.cpp:409] inception_5a/5x5 -> inception_5a/5x5
I0814 21:35:49.486760   773 net.cpp:144] Setting up inception_5a/5x5
I0814 21:35:49.486768   773 net.cpp:151] Top shape: 16 128 7 7 (100352)
I0814 21:35:49.486771   773 net.cpp:159] Memory required for data: 866618520
I0814 21:35:49.486784   773 layer_factory.hpp:77] Creating layer inception_5a/relu_5x5
I0814 21:35:49.486790   773 net.cpp:94] Creating Layer inception_5a/relu_5x5
I0814 21:35:49.486794   773 net.cpp:435] inception_5a/relu_5x5 <- inception_5a/5x5
I0814 21:35:49.486799   773 net.cpp:396] inception_5a/relu_5x5 -> inception_5a/5x5 (in-place)
I0814 21:35:49.486805   773 net.cpp:144] Setting up inception_5a/relu_5x5
I0814 21:35:49.486809   773 net.cpp:151] Top shape: 16 128 7 7 (100352)
I0814 21:35:49.486812   773 net.cpp:159] Memory required for data: 867019928
I0814 21:35:49.486816   773 layer_factory.hpp:77] Creating layer inception_5a/pool
I0814 21:35:49.486822   773 net.cpp:94] Creating Layer inception_5a/pool
I0814 21:35:49.486826   773 net.cpp:435] inception_5a/pool <- pool4/3x3_s2_pool4/3x3_s2_0_split_3
I0814 21:35:49.486835   773 net.cpp:409] inception_5a/pool -> inception_5a/pool
I0814 21:35:49.486876   773 net.cpp:144] Setting up inception_5a/pool
I0814 21:35:49.486881   773 net.cpp:151] Top shape: 16 832 7 7 (652288)
I0814 21:35:49.486884   773 net.cpp:159] Memory required for data: 869629080
I0814 21:35:49.486887   773 layer_factory.hpp:77] Creating layer inception_5a/pool_proj
I0814 21:35:49.486896   773 net.cpp:94] Creating Layer inception_5a/pool_proj
I0814 21:35:49.486901   773 net.cpp:435] inception_5a/pool_proj <- inception_5a/pool
I0814 21:35:49.486907   773 net.cpp:409] inception_5a/pool_proj -> inception_5a/pool_proj
I0814 21:35:49.488394   773 net.cpp:144] Setting up inception_5a/pool_proj
I0814 21:35:49.488407   773 net.cpp:151] Top shape: 16 128 7 7 (100352)
I0814 21:35:49.488411   773 net.cpp:159] Memory required for data: 870030488
I0814 21:35:49.488417   773 layer_factory.hpp:77] Creating layer inception_5a/relu_pool_proj
I0814 21:35:49.488426   773 net.cpp:94] Creating Layer inception_5a/relu_pool_proj
I0814 21:35:49.488431   773 net.cpp:435] inception_5a/relu_pool_proj <- inception_5a/pool_proj
I0814 21:35:49.488436   773 net.cpp:396] inception_5a/relu_pool_proj -> inception_5a/pool_proj (in-place)
I0814 21:35:49.488445   773 net.cpp:144] Setting up inception_5a/relu_pool_proj
I0814 21:35:49.488448   773 net.cpp:151] Top shape: 16 128 7 7 (100352)
I0814 21:35:49.488451   773 net.cpp:159] Memory required for data: 870431896
I0814 21:35:49.488454   773 layer_factory.hpp:77] Creating layer inception_5a/output
I0814 21:35:49.488462   773 net.cpp:94] Creating Layer inception_5a/output
I0814 21:35:49.488466   773 net.cpp:435] inception_5a/output <- inception_5a/1x1
I0814 21:35:49.488471   773 net.cpp:435] inception_5a/output <- inception_5a/3x3
I0814 21:35:49.488474   773 net.cpp:435] inception_5a/output <- inception_5a/5x5
I0814 21:35:49.488478   773 net.cpp:435] inception_5a/output <- inception_5a/pool_proj
I0814 21:35:49.488483   773 net.cpp:409] inception_5a/output -> inception_5a/output
I0814 21:35:49.488509   773 net.cpp:144] Setting up inception_5a/output
I0814 21:35:49.488515   773 net.cpp:151] Top shape: 16 832 7 7 (652288)
I0814 21:35:49.488518   773 net.cpp:159] Memory required for data: 873041048
I0814 21:35:49.488521   773 layer_factory.hpp:77] Creating layer inception_5a/output_inception_5a/output_0_split
I0814 21:35:49.488528   773 net.cpp:94] Creating Layer inception_5a/output_inception_5a/output_0_split
I0814 21:35:49.488544   773 net.cpp:435] inception_5a/output_inception_5a/output_0_split <- inception_5a/output
I0814 21:35:49.488554   773 net.cpp:409] inception_5a/output_inception_5a/output_0_split -> inception_5a/output_inception_5a/output_0_split_0
I0814 21:35:49.488561   773 net.cpp:409] inception_5a/output_inception_5a/output_0_split -> inception_5a/output_inception_5a/output_0_split_1
I0814 21:35:49.488567   773 net.cpp:409] inception_5a/output_inception_5a/output_0_split -> inception_5a/output_inception_5a/output_0_split_2
I0814 21:35:49.488575   773 net.cpp:409] inception_5a/output_inception_5a/output_0_split -> inception_5a/output_inception_5a/output_0_split_3
I0814 21:35:49.488633   773 net.cpp:144] Setting up inception_5a/output_inception_5a/output_0_split
I0814 21:35:49.488639   773 net.cpp:151] Top shape: 16 832 7 7 (652288)
I0814 21:35:49.488643   773 net.cpp:151] Top shape: 16 832 7 7 (652288)
I0814 21:35:49.488647   773 net.cpp:151] Top shape: 16 832 7 7 (652288)
I0814 21:35:49.488651   773 net.cpp:151] Top shape: 16 832 7 7 (652288)
I0814 21:35:49.488653   773 net.cpp:159] Memory required for data: 883477656
I0814 21:35:49.488656   773 layer_factory.hpp:77] Creating layer inception_5b/1x1
I0814 21:35:49.488670   773 net.cpp:94] Creating Layer inception_5b/1x1
I0814 21:35:49.488675   773 net.cpp:435] inception_5b/1x1 <- inception_5a/output_inception_5a/output_0_split_0
I0814 21:35:49.488684   773 net.cpp:409] inception_5b/1x1 -> inception_5b/1x1
I0814 21:35:49.491511   773 net.cpp:144] Setting up inception_5b/1x1
I0814 21:35:49.491525   773 net.cpp:151] Top shape: 16 384 7 7 (301056)
I0814 21:35:49.491528   773 net.cpp:159] Memory required for data: 884681880
I0814 21:35:49.491534   773 layer_factory.hpp:77] Creating layer inception_5b/relu_1x1
I0814 21:35:49.491557   773 net.cpp:94] Creating Layer inception_5b/relu_1x1
I0814 21:35:49.491561   773 net.cpp:435] inception_5b/relu_1x1 <- inception_5b/1x1
I0814 21:35:49.491567   773 net.cpp:396] inception_5b/relu_1x1 -> inception_5b/1x1 (in-place)
I0814 21:35:49.491575   773 net.cpp:144] Setting up inception_5b/relu_1x1
I0814 21:35:49.491580   773 net.cpp:151] Top shape: 16 384 7 7 (301056)
I0814 21:35:49.491582   773 net.cpp:159] Memory required for data: 885886104
I0814 21:35:49.491585   773 layer_factory.hpp:77] Creating layer inception_5b/3x3_reduce
I0814 21:35:49.491596   773 net.cpp:94] Creating Layer inception_5b/3x3_reduce
I0814 21:35:49.491601   773 net.cpp:435] inception_5b/3x3_reduce <- inception_5a/output_inception_5a/output_0_split_1
I0814 21:35:49.491607   773 net.cpp:409] inception_5b/3x3_reduce -> inception_5b/3x3_reduce
I0814 21:35:49.493463   773 net.cpp:144] Setting up inception_5b/3x3_reduce
I0814 21:35:49.493477   773 net.cpp:151] Top shape: 16 192 7 7 (150528)
I0814 21:35:49.493480   773 net.cpp:159] Memory required for data: 886488216
I0814 21:35:49.493486   773 layer_factory.hpp:77] Creating layer inception_5b/relu_3x3_reduce
I0814 21:35:49.493494   773 net.cpp:94] Creating Layer inception_5b/relu_3x3_reduce
I0814 21:35:49.493499   773 net.cpp:435] inception_5b/relu_3x3_reduce <- inception_5b/3x3_reduce
I0814 21:35:49.493505   773 net.cpp:396] inception_5b/relu_3x3_reduce -> inception_5b/3x3_reduce (in-place)
I0814 21:35:49.493513   773 net.cpp:144] Setting up inception_5b/relu_3x3_reduce
I0814 21:35:49.493518   773 net.cpp:151] Top shape: 16 192 7 7 (150528)
I0814 21:35:49.493521   773 net.cpp:159] Memory required for data: 887090328
I0814 21:35:49.493525   773 layer_factory.hpp:77] Creating layer inception_5b/3x3
I0814 21:35:49.493533   773 net.cpp:94] Creating Layer inception_5b/3x3
I0814 21:35:49.493537   773 net.cpp:435] inception_5b/3x3 <- inception_5b/3x3_reduce
I0814 21:35:49.493544   773 net.cpp:409] inception_5b/3x3 -> inception_5b/3x3
I0814 21:35:49.499095   773 net.cpp:144] Setting up inception_5b/3x3
I0814 21:35:49.499110   773 net.cpp:151] Top shape: 16 384 7 7 (301056)
I0814 21:35:49.499114   773 net.cpp:159] Memory required for data: 888294552
I0814 21:35:49.499121   773 layer_factory.hpp:77] Creating layer inception_5b/relu_3x3
I0814 21:35:49.499141   773 net.cpp:94] Creating Layer inception_5b/relu_3x3
I0814 21:35:49.499146   773 net.cpp:435] inception_5b/relu_3x3 <- inception_5b/3x3
I0814 21:35:49.499155   773 net.cpp:396] inception_5b/relu_3x3 -> inception_5b/3x3 (in-place)
I0814 21:35:49.499162   773 net.cpp:144] Setting up inception_5b/relu_3x3
I0814 21:35:49.499167   773 net.cpp:151] Top shape: 16 384 7 7 (301056)
I0814 21:35:49.499171   773 net.cpp:159] Memory required for data: 889498776
I0814 21:35:49.499173   773 layer_factory.hpp:77] Creating layer inception_5b/5x5_reduce
I0814 21:35:49.499183   773 net.cpp:94] Creating Layer inception_5b/5x5_reduce
I0814 21:35:49.499187   773 net.cpp:435] inception_5b/5x5_reduce <- inception_5a/output_inception_5a/output_0_split_2
I0814 21:35:49.499195   773 net.cpp:409] inception_5b/5x5_reduce -> inception_5b/5x5_reduce
I0814 21:35:49.499657   773 net.cpp:144] Setting up inception_5b/5x5_reduce
I0814 21:35:49.499666   773 net.cpp:151] Top shape: 16 48 7 7 (37632)
I0814 21:35:49.499670   773 net.cpp:159] Memory required for data: 889649304
I0814 21:35:49.499675   773 layer_factory.hpp:77] Creating layer inception_5b/relu_5x5_reduce
I0814 21:35:49.499680   773 net.cpp:94] Creating Layer inception_5b/relu_5x5_reduce
I0814 21:35:49.499686   773 net.cpp:435] inception_5b/relu_5x5_reduce <- inception_5b/5x5_reduce
I0814 21:35:49.499691   773 net.cpp:396] inception_5b/relu_5x5_reduce -> inception_5b/5x5_reduce (in-place)
I0814 21:35:49.499697   773 net.cpp:144] Setting up inception_5b/relu_5x5_reduce
I0814 21:35:49.499701   773 net.cpp:151] Top shape: 16 48 7 7 (37632)
I0814 21:35:49.499704   773 net.cpp:159] Memory required for data: 889799832
I0814 21:35:49.499707   773 layer_factory.hpp:77] Creating layer inception_5b/5x5
I0814 21:35:49.499717   773 net.cpp:94] Creating Layer inception_5b/5x5
I0814 21:35:49.499720   773 net.cpp:435] inception_5b/5x5 <- inception_5b/5x5_reduce
I0814 21:35:49.499728   773 net.cpp:409] inception_5b/5x5 -> inception_5b/5x5
I0814 21:35:49.500897   773 net.cpp:144] Setting up inception_5b/5x5
I0814 21:35:49.500922   773 net.cpp:151] Top shape: 16 128 7 7 (100352)
I0814 21:35:49.500926   773 net.cpp:159] Memory required for data: 890201240
I0814 21:35:49.500931   773 layer_factory.hpp:77] Creating layer inception_5b/relu_5x5
I0814 21:35:49.500939   773 net.cpp:94] Creating Layer inception_5b/relu_5x5
I0814 21:35:49.500943   773 net.cpp:435] inception_5b/relu_5x5 <- inception_5b/5x5
I0814 21:35:49.500948   773 net.cpp:396] inception_5b/relu_5x5 -> inception_5b/5x5 (in-place)
I0814 21:35:49.500955   773 net.cpp:144] Setting up inception_5b/relu_5x5
I0814 21:35:49.500959   773 net.cpp:151] Top shape: 16 128 7 7 (100352)
I0814 21:35:49.500962   773 net.cpp:159] Memory required for data: 890602648
I0814 21:35:49.500965   773 layer_factory.hpp:77] Creating layer inception_5b/pool
I0814 21:35:49.500973   773 net.cpp:94] Creating Layer inception_5b/pool
I0814 21:35:49.500977   773 net.cpp:435] inception_5b/pool <- inception_5a/output_inception_5a/output_0_split_3
I0814 21:35:49.500998   773 net.cpp:409] inception_5b/pool -> inception_5b/pool
I0814 21:35:49.501056   773 net.cpp:144] Setting up inception_5b/pool
I0814 21:35:49.501063   773 net.cpp:151] Top shape: 16 832 7 7 (652288)
I0814 21:35:49.501066   773 net.cpp:159] Memory required for data: 893211800
I0814 21:35:49.501070   773 layer_factory.hpp:77] Creating layer inception_5b/pool_proj
I0814 21:35:49.501093   773 net.cpp:94] Creating Layer inception_5b/pool_proj
I0814 21:35:49.501097   773 net.cpp:435] inception_5b/pool_proj <- inception_5b/pool
I0814 21:35:49.501106   773 net.cpp:409] inception_5b/pool_proj -> inception_5b/pool_proj
I0814 21:35:49.502616   773 net.cpp:144] Setting up inception_5b/pool_proj
I0814 21:35:49.502630   773 net.cpp:151] Top shape: 16 128 7 7 (100352)
I0814 21:35:49.502635   773 net.cpp:159] Memory required for data: 893613208
I0814 21:35:49.502640   773 layer_factory.hpp:77] Creating layer inception_5b/relu_pool_proj
I0814 21:35:49.502650   773 net.cpp:94] Creating Layer inception_5b/relu_pool_proj
I0814 21:35:49.502669   773 net.cpp:435] inception_5b/relu_pool_proj <- inception_5b/pool_proj
I0814 21:35:49.502676   773 net.cpp:396] inception_5b/relu_pool_proj -> inception_5b/pool_proj (in-place)
I0814 21:35:49.502684   773 net.cpp:144] Setting up inception_5b/relu_pool_proj
I0814 21:35:49.502689   773 net.cpp:151] Top shape: 16 128 7 7 (100352)
I0814 21:35:49.502691   773 net.cpp:159] Memory required for data: 894014616
I0814 21:35:49.502696   773 layer_factory.hpp:77] Creating layer inception_5b/output
I0814 21:35:49.502701   773 net.cpp:94] Creating Layer inception_5b/output
I0814 21:35:49.502704   773 net.cpp:435] inception_5b/output <- inception_5b/1x1
I0814 21:35:49.502708   773 net.cpp:435] inception_5b/output <- inception_5b/3x3
I0814 21:35:49.502713   773 net.cpp:435] inception_5b/output <- inception_5b/5x5
I0814 21:35:49.502717   773 net.cpp:435] inception_5b/output <- inception_5b/pool_proj
I0814 21:35:49.502724   773 net.cpp:409] inception_5b/output -> inception_5b/output
I0814 21:35:49.502768   773 net.cpp:144] Setting up inception_5b/output
I0814 21:35:49.502784   773 net.cpp:151] Top shape: 16 1024 7 7 (802816)
I0814 21:35:49.502786   773 net.cpp:159] Memory required for data: 897225880
I0814 21:35:49.502790   773 layer_factory.hpp:77] Creating layer pool5/7x7_s1
I0814 21:35:49.502796   773 net.cpp:94] Creating Layer pool5/7x7_s1
I0814 21:35:49.502800   773 net.cpp:435] pool5/7x7_s1 <- inception_5b/output
I0814 21:35:49.502809   773 net.cpp:409] pool5/7x7_s1 -> pool5/7x7_s1
I0814 21:35:49.502836   773 net.cpp:144] Setting up pool5/7x7_s1
I0814 21:35:49.502842   773 net.cpp:151] Top shape: 16 1024 1 1 (16384)
I0814 21:35:49.502846   773 net.cpp:159] Memory required for data: 897291416
I0814 21:35:49.502848   773 layer_factory.hpp:77] Creating layer pool5/drop_7x7_s1
I0814 21:35:49.502854   773 net.cpp:94] Creating Layer pool5/drop_7x7_s1
I0814 21:35:49.502857   773 net.cpp:435] pool5/drop_7x7_s1 <- pool5/7x7_s1
I0814 21:35:49.502862   773 net.cpp:396] pool5/drop_7x7_s1 -> pool5/7x7_s1 (in-place)
I0814 21:35:49.502884   773 net.cpp:144] Setting up pool5/drop_7x7_s1
I0814 21:35:49.502899   773 net.cpp:151] Top shape: 16 1024 1 1 (16384)
I0814 21:35:49.502902   773 net.cpp:159] Memory required for data: 897356952
I0814 21:35:49.502905   773 layer_factory.hpp:77] Creating layer loss3/classifier
I0814 21:35:49.502914   773 net.cpp:94] Creating Layer loss3/classifier
I0814 21:35:49.502918   773 net.cpp:435] loss3/classifier <- pool5/7x7_s1
I0814 21:35:49.502928   773 net.cpp:409] loss3/classifier -> loss3/classifier
I0814 21:35:49.503059   773 net.cpp:144] Setting up loss3/classifier
I0814 21:35:49.503065   773 net.cpp:151] Top shape: 16 5 (80)
I0814 21:35:49.503068   773 net.cpp:159] Memory required for data: 897357272
I0814 21:35:49.503074   773 layer_factory.hpp:77] Creating layer loss3/classifier_loss3/classifier_0_split
I0814 21:35:49.503080   773 net.cpp:94] Creating Layer loss3/classifier_loss3/classifier_0_split
I0814 21:35:49.503084   773 net.cpp:435] loss3/classifier_loss3/classifier_0_split <- loss3/classifier
I0814 21:35:49.503093   773 net.cpp:409] loss3/classifier_loss3/classifier_0_split -> loss3/classifier_loss3/classifier_0_split_0
I0814 21:35:49.503099   773 net.cpp:409] loss3/classifier_loss3/classifier_0_split -> loss3/classifier_loss3/classifier_0_split_1
I0814 21:35:49.503105   773 net.cpp:409] loss3/classifier_loss3/classifier_0_split -> loss3/classifier_loss3/classifier_0_split_2
I0814 21:35:49.503149   773 net.cpp:144] Setting up loss3/classifier_loss3/classifier_0_split
I0814 21:35:49.503154   773 net.cpp:151] Top shape: 16 5 (80)
I0814 21:35:49.503156   773 net.cpp:151] Top shape: 16 5 (80)
I0814 21:35:49.503160   773 net.cpp:151] Top shape: 16 5 (80)
I0814 21:35:49.503163   773 net.cpp:159] Memory required for data: 897358232
I0814 21:35:49.503166   773 layer_factory.hpp:77] Creating layer loss3/loss
I0814 21:35:49.503172   773 net.cpp:94] Creating Layer loss3/loss
I0814 21:35:49.503175   773 net.cpp:435] loss3/loss <- loss3/classifier_loss3/classifier_0_split_0
I0814 21:35:49.503191   773 net.cpp:435] loss3/loss <- label_val-data_1_split_6
…
