…
I0811 00:58:16.186133   174 net.cpp:323] The NetState phase (0) differed from the phase (1) specified by a rule in layer loss3/top-1
I0811 00:58:16.186890   174 net.cpp:52] Initializing net from parameters:
state {
phase: TRAIN
}
layer {
name: "train-data"
type: "Data"
top: "data"
top: "label"
include {
phase: TRAIN
}
transform_param {
mirror: true
crop_size: 224
mean_file: "/opt/DIGITS/digits/jobs/20190811-005252-9dba/mean.binaryproto"
}
data_param {
source: "/opt/DIGITS/digits/jobs/20190811-005252-9dba/train_db"
batch_size: 32
backend: LMDB
}
}
layer {
name: "conv1/7x7_s2"
type: "Convolution"
bottom: "data"
top: "conv1/7x7_s2"
param {
lr_mult: 1
decay_mult: 1
}
param {
lr_mult: 2
decay_mult: 0
}
convolution_param {
num_output: 64
pad: 3
kernel_size: 7
stride: 2
weight_filler {
type: "xavier"
std: 0.1
}
bias_filler {
type: "constant"
value: 0.2
}
}
}
layer {
name: "conv1/relu_7x7"
type: "ReLU"
bottom: "conv1/7x7_s2"
top: "conv1/7x7_s2"
}
layer {
name: "pool1/3x3_s2"
type: "Pooling"
bottom: "conv1/7x7_s2"
top: "pool1/3x3_s2"
pooling_param {
pool: MAX
kernel_size: 3
stride: 2
}
}
layer {
name: "pool1/norm1"
type: "LRN"
bottom: "pool1/3x3_s2"
top: "pool1/norm1"
lrn_param {
local_size: 5
alpha: 0.0001
beta: 0.75
}
}
layer {
name: "conv2/3x3_reduce"
type: "Convolution"
bottom: "pool1/norm1"
top: "conv2/3x3_reduce"
param {
lr_mult: 1
decay_mult: 1
}
param {
lr_mult: 2
decay_mult: 0
}
convolution_param {
num_output: 64
kernel_size: 1
weight_filler {
type: "xavier"
std: 0.1
}
bias_filler {
type: "constant"
value: 0.2
}
}
}
layer {
name: "conv2/relu_3x3_reduce"
type: "ReLU"
bottom: "conv2/3x3_reduce"
top: "conv2/3x3_reduce"
}
layer {
name: "conv2/3x3"
type: "Convolution"
bottom: "conv2/3x3_reduce"
top: "conv2/3x3"
param {
lr_mult: 1
decay_mult: 1
}
param {
lr_mult: 2
decay_mult: 0
}
convolution_param {
num_output: 192
pad: 1
kernel_size: 3
weight_filler {
type: "xavier"
std: 0.03
}
bias_filler {
type: "constant"
value: 0.2
}
}
}
layer {
name: "conv2/relu_3x3"
type: "ReLU"
bottom: "conv2/3x3"
top: "conv2/3x3"
}
layer {
name: "conv2/norm2"
type: "LRN"
bottom: "conv2/3x3"
top: "conv2/norm2"
lrn_param {
local_size: 5
alpha: 0.0001
beta: 0.75
}
}
layer {
name: "pool2/3x3_s2"
type: "Pooling"
bottom: "conv2/norm2"
top: "pool2/3x3_s2"
pooling_param {
pool: MAX
kernel_size: 3
stride: 2
}
}
layer {
name: "inception_3a/1x1"
type: "Convolution"
bottom: "pool2/3x3_s2"
top: "inception_3a/1x1"
param {
lr_mult: 1
decay_mult: 1
}
param {
lr_mult: 2
decay_mult: 0
}
convolution_param {
num_output: 64
kernel_size: 1
weight_filler {
type: "xavier"
std: 0.03
}
bias_filler {
type: "constant"
value: 0.2
}
}
}
layer {
name: "inception_3a/relu_1x1"
type: "ReLU"
bottom: "inception_3a/1x1"
top: "inception_3a/1x1"
}
layer {
name: "inception_3a/3x3_reduce"
type: "Convolution"
bottom: "pool2/3x3_s2"
top: "inception_3a/3x3_reduce"
param {
lr_mult: 1
decay_mult: 1
}
param {
lr_mult: 2
decay_mult: 0
}
convolution_param {
num_output: 96
kernel_size: 1
weight_filler {
type: "xavier"
std: 0.09
}
bias_filler {
type: "constant"
value: 0.2
}
}
}
layer {
name: "inception_3a/relu_3x3_reduce"
type: "ReLU"
bottom: "inception_3a/3x3_reduce"
top: "inception_3a/3x3_reduce"
}
layer {
name: "inception_3a/3x3"
type: "Convolution"
bottom: "inception_3a/3x3_reduce"
top: "inception_3a/3x3"
param {
lr_mult: 1
decay_mult: 1
}
param {
lr_mult: 2
decay_mult: 0
}
convolution_param {
num_output: 128
pad: 1
kernel_size: 3
weight_filler {
type: "xavier"
std: 0.03
}
bias_filler {
type: "constant"
value: 0.2
}
}
}
layer {
name: "inception_3a/relu_3x3"
type: "ReLU"
bottom: "inception_3a/3x3"
top: "inception_3a/3x3"
}
layer {
name: "inception_3a/5x5_reduce"
type: "Convolution"
bottom: "pool2/3x3_s2"
top: "inception_3a/5x5_reduce"
param {
lr_mult: 1
decay_mult: 1
}
param {
lr_mult: 2
decay_mult: 0
}
convolution_param {
num_output: 16
kernel_size: 1
weight_filler {
type: "xavier"
std: 0.2
}
bias_filler {
type: "constant"
value: 0.2
}
}
}
layer {
name: "inception_3a/relu_5x5_reduce"
type: "ReLU"
bottom: "inception_3a/5x5_reduce"
top: "inception_3a/5x5_reduce"
}
layer {
name: "inception_3a/5x5"
type: "Convolution"
bottom: "inception_3a/5x5_reduce"
top: "inception_3a/5x5"
param {
lr_mult: 1
decay_mult: 1
}
param {
lr_mult: 2
decay_mult: 0
}
convolution_param {
num_output: 32
pad: 2
kernel_size: 5
weight_filler {
type: "xavier"
std: 0.03
}
bias_filler {
type: "constant"
value: 0.2
}
}
}
layer {
name: "inception_3a/relu_5x5"
type: "ReLU"
bottom: "inception_3a/5x5"
top: "inception_3a/5x5"
}
layer {
name: "inception_3a/pool"
type: "Pooling"
bottom: "pool2/3x3_s2"
top: "inception_3a/pool"
pooling_param {
pool: MAX
kernel_size: 3
stride: 1
pad: 1
}
}
layer {
name: "inception_3a/pool_proj"
type: "Convolution"
bottom: "inception_3a/pool"
top: "inception_3a/pool_proj"
param {
lr_mult: 1
decay_mult: 1
}
param {
lr_mult: 2
decay_mult: 0
}
convolution_param {
num_output: 32
kernel_size: 1
weight_filler {
type: "xavier"
std: 0.1
}
bias_filler {
type: "constant"
value: 0.2
}
}
}
layer {
name: "inception_3a/relu_pool_proj"
type: "ReLU"
bottom: "inception_3a/pool_proj"
top: "inception_3a/pool_proj"
}
layer {
name: "inception_3a/output"
type: "Concat"
bottom: "inception_3a/1x1"
bottom: "inception_3a/3x3"
bottom: "inception_3a/5x5"
bottom: "inception_3a/pool_proj"
top: "inception_3a/output"
}
layer {
name: "inception_3b/1x1"
type: "Convolution"
bottom: "inception_3a/output"
top: "inception_3b/1x1"
param {
lr_mult: 1
decay_mult: 1
}
param {
lr_mult: 2
decay_mult: 0
}
convolution_param {
num_output: 128
kernel_size: 1
weight_filler {
type: "xavier"
std: 0.03
}
bias_filler {
type: "constant"
value: 0.2
}
}
}
layer {
name: "inception_3b/relu_1x1"
type: "ReLU"
bottom: "inception_3b/1x1"
top: "inception_3b/1x1"
}
layer {
name: "inception_3b/3x3_reduce"
type: "Convolution"
bottom: "inception_3a/output"
top: "inception_3b/3x3_reduce"
param {
lr_mult: 1
decay_mult: 1
}
param {
lr_mult: 2
decay_mult: 0
}
convolution_param {
num_output: 128
kernel_size: 1
weight_filler {
type: "xavier"
std: 0.09
}
bias_filler {
type: "constant"
value: 0.2
}
}
}
layer {
name: "inception_3b/relu_3x3_reduce"
type: "ReLU"
bottom: "inception_3b/3x3_reduce"
top: "inception_3b/3x3_reduce"
}
layer {
name: "inception_3b/3x3"
type: "Convolution"
bottom: "inception_3b/3x3_reduce"
top: "inception_3b/3x3"
param {
lr_mult: 1
decay_mult: 1
}
param {
lr_mult: 2
decay_mult: 0
}
convolution_param {
num_output: 192
pad: 1
kernel_size: 3
weight_filler {
type: "xavier"
std: 0.03
}
bias_filler {
type: "constant"
value: 0.2
}
}
}
layer {
name: "inception_3b/relu_3x3"
type: "ReLU"
bottom: "inception_3b/3x3"
top: "inception_3b/3x3"
}
layer {
name: "inception_3b/5x5_reduce"
type: "Convolution"
bottom: "inception_3a/output"
top: "inception_3b/5x5_reduce"
param {
lr_mult: 1
decay_mult: 1
}
param {
lr_mult: 2
decay_mult: 0
}
convolution_param {
num_output: 32
kernel_size: 1
weight_filler {
type: "xavier"
std: 0.2
}
bias_filler {
type: "constant"
value: 0.2
}
}
}
layer {
name: "inception_3b/relu_5x5_reduce"
type: "ReLU"
bottom: "inception_3b/5x5_reduce"
top: "inception_3b/5x5_reduce"
}
layer {
name: "inception_3b/5x5"
type: "Convolution"
bottom: "inception_3b/5x5_reduce"
top: "inception_3b/5x5"
param {
lr_mult: 1
decay_mult: 1
}
param {
lr_mult: 2
decay_mult: 0
}
convolution_param {
num_output: 96
pad: 2
kernel_size: 5
weight_filler {
type: "xavier"
std: 0.03
}
bias_filler {
type: "constant"
value: 0.2
}
}
}
layer {
name: "inception_3b/relu_5x5"
type: "ReLU"
bottom: "inception_3b/5x5"
top: "inception_3b/5x5"
}
layer {
name: "inception_3b/pool"
type: "Pooling"
bottom: "inception_3a/output"
top: "inception_3b/pool"
pooling_param {
pool: MAX
kernel_size: 3
stride: 1
pad: 1
}
}
layer {
name: "inception_3b/pool_proj"
type: "Convolution"
bottom: "inception_3b/pool"
top: "inception_3b/pool_proj"
param {
lr_mult: 1
decay_mult: 1
}
param {
lr_mult: 2
decay_mult: 0
}
convolution_param {
num_output: 64
kernel_size: 1
weight_filler {
type: "xavier"
std: 0.1
}
bias_filler {
type: "constant"
value: 0.2
}
}
}
layer {
name: "inception_3b/relu_pool_proj"
type: "ReLU"
bottom: "inception_3b/pool_proj"
top: "inception_3b/pool_proj"
}
layer {
name: "inception_3b/output"
type: "Concat"
bottom: "inception_3b/1x1"
bottom: "inception_3b/3x3"
bottom: "inception_3b/5x5"
bottom: "inception_3b/pool_proj"
top: "inception_3b/output"
}
layer {
name: "pool3/3x3_s2"
type: "Pooling"
bottom: "inception_3b/output"
top: "pool3/3x3_s2"
pooling_param {
pool: MAX
kernel_size: 3
stride: 2
}
}
layer {
name: "inception_4a/1x1"
type: "Convolution"
bottom: "pool3/3x3_s2"
top: "inception_4a/1x1"
param {
lr_mult: 1
decay_mult: 1
}
param {
lr_mult: 2
decay_mult: 0
}
convolution_param {
num_output: 192
kernel_size: 1
weight_filler {
type: "xavier"
std: 0.03
}
bias_filler {
type: "constant"
value: 0.2
}
}
}
layer {
name: "inception_4a/relu_1x1"
type: "ReLU"
bottom: "inception_4a/1x1"
top: "inception_4a/1x1"
}
layer {
name: "inception_4a/3x3_reduce"
type: "Convolution"
bottom: "pool3/3x3_s2"
top: "inception_4a/3x3_reduce"
param {
lr_mult: 1
decay_mult: 1
}
param {
lr_mult: 2
decay_mult: 0
}
convolution_param {
num_output: 96
kernel_size: 1
weight_filler {
type: "xavier"
std: 0.09
}
bias_filler {
type: "constant"
value: 0.2
}
}
}
layer {
name: "inception_4a/relu_3x3_reduce"
type: "ReLU"
bottom: "inception_4a/3x3_reduce"
top: "inception_4a/3x3_reduce"
}
layer {
name: "inception_4a/3x3"
type: "Convolution"
bottom: "inception_4a/3x3_reduce"
top: "inception_4a/3x3"
param {
lr_mult: 1
decay_mult: 1
}
param {
lr_mult: 2
decay_mult: 0
}
convolution_param {
num_output: 208
pad: 1
kernel_size: 3
weight_filler {
type: "xavier"
std: 0.03
}
bias_filler {
type: "constant"
value: 0.2
}
}
}
layer {
name: "inception_4a/relu_3x3"
type: "ReLU"
bottom: "inception_4a/3x3"
top: "inception_4a/3x3"
}
layer {
name: "inception_4a/5x5_reduce"
type: "Convolution"
bottom: "pool3/3x3_s2"
top: "inception_4a/5x5_reduce"
param {
lr_mult: 1
decay_mult: 1
}
param {
lr_mult: 2
decay_mult: 0
}
convolution_param {
num_output: 16
kernel_size: 1
weight_filler {
type: "xavier"
std: 0.2
}
bias_filler {
type: "constant"
value: 0.2
}
}
}
layer {
name: "inception_4a/relu_5x5_reduce"
type: "ReLU"
bottom: "inception_4a/5x5_reduce"
top: "inception_4a/5x5_reduce"
}
layer {
name: "inception_4a/5x5"
type: "Convolution"
bottom: "inception_4a/5x5_reduce"
top: "inception_4a/5x5"
param {
lr_mult: 1
decay_mult: 1
}
param {
lr_mult: 2
decay_mult: 0
}
convolution_param {
num_output: 48
pad: 2
kernel_size: 5
weight_filler {
type: "xavier"
std: 0.03
}
bias_filler {
type: "constant"
value: 0.2
}
}
}
layer {
name: "inception_4a/relu_5x5"
type: "ReLU"
bottom: "inception_4a/5x5"
top: "inception_4a/5x5"
}
layer {
name: "inception_4a/pool"
type: "Pooling"
bottom: "pool3/3x3_s2"
top: "inception_4a/pool"
pooling_param {
pool: MAX
kernel_size: 3
stride: 1
pad: 1
}
}
layer {
name: "inception_4a/pool_proj"
type: "Convolution"
bottom: "inception_4a/pool"
top: "inception_4a/pool_proj"
param {
lr_mult: 1
decay_mult: 1
}
param {
lr_mult: 2
decay_mult: 0
}
convolution_param {
num_output: 64
kernel_size: 1
weight_filler {
type: "xavier"
std: 0.1
}
bias_filler {
type: "constant"
value: 0.2
}
}
}
layer {
name: "inception_4a/relu_pool_proj"
type: "ReLU"
bottom: "inception_4a/pool_proj"
top: "inception_4a/pool_proj"
}
layer {
name: "inception_4a/output"
type: "Concat"
bottom: "inception_4a/1x1"
bottom: "inception_4a/3x3"
bottom: "inception_4a/5x5"
bottom: "inception_4a/pool_proj"
top: "inception_4a/output"
}
layer {
name: "loss1/ave_pool"
type: "Pooling"
bottom: "inception_4a/output"
top: "loss1/ave_pool"
pooling_param {
pool: AVE
kernel_size: 5
stride: 3
}
}
layer {
name: "loss1/conv"
type: "Convolution"
bottom: "loss1/ave_pool"
top: "loss1/conv"
param {
lr_mult: 1
decay_mult: 1
}
param {
lr_mult: 2
decay_mult: 0
}
convolution_param {
num_output: 128
kernel_size: 1
weight_filler {
type: "xavier"
std: 0.08
}
bias_filler {
type: "constant"
value: 0.2
}
}
}
layer {
name: "loss1/relu_conv"
type: "ReLU"
bottom: "loss1/conv"
top: "loss1/conv"
}
layer {
name: "loss1/fc"
type: "InnerProduct"
bottom: "loss1/conv"
top: "loss1/fc"
param {
lr_mult: 1
decay_mult: 1
}
param {
lr_mult: 2
decay_mult: 0
}
inner_product_param {
num_output: 1024
weight_filler {
type: "xavier"
std: 0.02
}
bias_filler {
type: "constant"
value: 0.2
}
}
}
layer {
name: "loss1/relu_fc"
type: "ReLU"
bottom: "loss1/fc"
top: "loss1/fc"
}
layer {
name: "loss1/drop_fc"
type: "Dropout"
bottom: "loss1/fc"
top: "loss1/fc"
dropout_param {
dropout_ratio: 0.7
}
}
layer {
name: "loss1/classifier"
type: "InnerProduct"
bottom: "loss1/fc"
top: "loss1/classifier"
param {
lr_mult: 1
decay_mult: 1
}
param {
lr_mult: 2
decay_mult: 0
}
inner_product_param {
num_output: 3
weight_filler {
type: "xavier"
std: 0.0009765625
}
bias_filler {
type: "constant"
value: 0
}
}
}
layer {
name: "loss1/loss"
type: "SoftmaxWithLoss"
bottom: "loss1/classifier"
bottom: "label"
top: "loss1/loss"
loss_weight: 0.3
}
layer {
name: "inception_4b/1x1"
type: "Convolution"
bottom: "inception_4a/output"
top: "inception_4b/1x1"
param {
lr_mult: 1
decay_mult: 1
}
param {
lr_mult: 2
decay_mult: 0
}
convolution_param {
num_output: 160
kernel_size: 1
weight_filler {
type: "xavier"
std: 0.03
}
bias_filler {
type: "constant"
value: 0.2
}
}
}
layer {
name: "inception_4b/relu_1x1"
type: "ReLU"
bottom: "inception_4b/1x1"
top: "inception_4b/1x1"
}
layer {
name: "inception_4b/3x3_reduce"
type: "Convolution"
bottom: "inception_4a/output"
top: "inception_4b/3x3_reduce"
param {
lr_mult: 1
decay_mult: 1
}
param {
lr_mult: 2
decay_mult: 0
}
convolution_param {
num_output: 112
kernel_size: 1
weight_filler {
type: "xavier"
std: 0.09
}
bias_filler {
type: "constant"
value: 0.2
}
}
}
layer {
name: "inception_4b/relu_3x3_reduce"
type: "ReLU"
bottom: "inception_4b/3x3_reduce"
top: "inception_4b/3x3_reduce"
}
layer {
name: "inception_4b/3x3"
type: "Convolution"
bottom: "inception_4b/3x3_reduce"
top: "inception_4b/3x3"
param {
lr_mult: 1
decay_mult: 1
}
param {
lr_mult: 2
decay_mult: 0
}
convolution_param {
num_output: 224
pad: 1
kernel_size: 3
weight_filler {
type: "xavier"
std: 0.03
}
bias_filler {
type: "constant"
value: 0.2
}
}
}
layer {
name: "inception_4b/relu_3x3"
type: "ReLU"
bottom: "inception_4b/3x3"
top: "inception_4b/3x3"
}
layer {
name: "inception_4b/5x5_reduce"
type: "Convolution"
bottom: "inception_4a/output"
top: "inception_4b/5x5_reduce"
param {
lr_mult: 1
decay_mult: 1
}
param {
lr_mult: 2
decay_mult: 0
}
convolution_param {
num_output: 24
kernel_size: 1
weight_filler {
type: "xavier"
std: 0.2
}
bias_filler {
type: "constant"
value: 0.2
}
}
}
layer {
name: "inception_4b/relu_5x5_reduce"
type: "ReLU"
bottom: "inception_4b/5x5_reduce"
top: "inception_4b/5x5_reduce"
}
layer {
name: "inception_4b/5x5"
type: "Convolution"
bottom: "inception_4b/5x5_reduce"
top: "inception_4b/5x5"
param {
lr_mult: 1
decay_mult: 1
}
param {
lr_mult: 2
decay_mult: 0
}
convolution_param {
num_output: 64
pad: 2
kernel_size: 5
weight_filler {
type: "xavier"
std: 0.03
}
bias_filler {
type: "constant"
value: 0.2
}
}
}
layer {
name: "inception_4b/relu_5x5"
type: "ReLU"
bottom: "inception_4b/5x5"
top: "inception_4b/5x5"
}
layer {
name: "inception_4b/pool"
type: "Pooling"
bottom: "inception_4a/output"
top: "inception_4b/pool"
pooling_param {
pool: MAX
kernel_size: 3
stride: 1
pad: 1
}
}
layer {
name: "inception_4b/pool_proj"
type: "Convolution"
bottom: "inception_4b/pool"
top: "inception_4b/pool_proj"
param {
lr_mult: 1
decay_mult: 1
}
param {
lr_mult: 2
decay_mult: 0
}
convolution_param {
num_output: 64
kernel_size: 1
weight_filler {
type: "xavier"
std: 0.1
}
bias_filler {
type: "constant"
value: 0.2
}
}
}
layer {
name: "inception_4b/relu_pool_proj"
type: "ReLU"
bottom: "inception_4b/pool_proj"
top: "inception_4b/pool_proj"
}
layer {
name: "inception_4b/output"
type: "Concat"
bottom: "inception_4b/1x1"
bottom: "inception_4b/3x3"
bottom: "inception_4b/5x5"
bottom: "inception_4b/pool_proj"
top: "inception_4b/output"
}
layer {
name: "inception_4c/1x1"
type: "Convolution"
bottom: "inception_4b/output"
top: "inception_4c/1x1"
param {
lr_mult: 1
decay_mult: 1
}
param {
lr_mult: 2
decay_mult: 0
}
convolution_param {
num_output: 128
kernel_size: 1
weight_filler {
type: "xavier"
std: 0.03
}
bias_filler {
type: "constant"
value: 0.2
}
}
}
layer {
name: "inception_4c/relu_1x1"
type: "ReLU"
bottom: "inception_4c/1x1"
top: "inception_4c/1x1"
}
layer {
name: "inception_4c/3x3_reduce"
type: "Convolution"
bottom: "inception_4b/output"
top: "inception_4c/3x3_reduce"
param {
lr_mult: 1
decay_mult: 1
}
param {
lr_mult: 2
decay_mult: 0
}
convolution_param {
num_output: 128
kernel_size: 1
weight_filler {
type: "xavier"
std: 0.09
}
bias_filler {
type: "constant"
value: 0.2
}
}
}
layer {
name: "inception_4c/relu_3x3_reduce"
type: "ReLU"
bottom: "inception_4c/3x3_reduce"
top: "inception_4c/3x3_reduce"
}
layer {
name: "inception_4c/3x3"
type: "Convolution"
bottom: "inception_4c/3x3_reduce"
top: "inception_4c/3x3"
param {
lr_mult: 1
decay_mult: 1
}
param {
lr_mult: 2
decay_mult: 0
}
convolution_param {
num_output: 256
pad: 1
kernel_size: 3
weight_filler {
type: "xavier"
std: 0.03
}
bias_filler {
type: "constant"
value: 0.2
}
}
}
layer {
name: "inception_4c/relu_3x3"
type: "ReLU"
bottom: "inception_4c/3x3"
top: "inception_4c/3x3"
}
layer {
name: "inception_4c/5x5_reduce"
type: "Convolution"
bottom: "inception_4b/output"
top: "inception_4c/5x5_reduce"
param {
lr_mult: 1
decay_mult: 1
}
param {
lr_mult: 2
decay_mult: 0
}
convolution_param {
num_output: 24
kernel_size: 1
weight_filler {
type: "xavier"
std: 0.2
}
bias_filler {
type: "constant"
value: 0.2
}
}
}
layer {
name: "inception_4c/relu_5x5_reduce"
type: "ReLU"
bottom: "inception_4c/5x5_reduce"
top: "inception_4c/5x5_reduce"
}
layer {
name: "inception_4c/5x5"
type: "Convolution"
bottom: "inception_4c/5x5_reduce"
top: "inception_4c/5x5"
param {
lr_mult: 1
decay_mult: 1
}
param {
lr_mult: 2
decay_mult: 0
}
convolution_param {
num_output: 64
pad: 2
kernel_size: 5
weight_filler {
type: "xavier"
std: 0.03
}
bias_filler {
type: "constant"
value: 0.2
}
}
}
layer {
name: "inception_4c/relu_5x5"
type: "ReLU"
bottom: "inception_4c/5x5"
top: "inception_4c/5x5"
}
layer {
name: "inception_4c/pool"
type: "Pooling"
bottom: "inception_4b/output"
top: "inception_4c/pool"
pooling_param {
pool: MAX
kernel_size: 3
stride: 1
pad: 1
}
}
layer {
name: "inception_4c/pool_proj"
type: "Convolution"
bottom: "inception_4c/pool"
top: "inception_4c/pool_proj"
param {
lr_mult: 1
decay_mult: 1
}
param {
lr_mult: 2
decay_mult: 0
}
convolution_param {
num_output: 64
kernel_size: 1
weight_filler {
type: "xavier"
std: 0.1
}
bias_filler {
type: "constant"
value: 0.2
}
}
}
layer {
name: "inception_4c/relu_pool_proj"
type: "ReLU"
bottom: "inception_4c/pool_proj"
top: "inception_4c/pool_proj"
}
layer {
name: "inception_4c/output"
type: "Concat"
bottom: "inception_4c/1x1"
bottom: "inception_4c/3x3"
bottom: "inception_4c/5x5"
bottom: "inception_4c/pool_proj"
top: "inception_4c/output"
}
layer {
name: "inception_4d/1x1"
type: "Convolution"
bottom: "inception_4c/output"
top: "inception_4d/1x1"
param {
lr_mult: 1
decay_mult: 1
}
param {
lr_mult: 2
decay_mult: 0
}
convolution_param {
num_output: 112
kernel_size: 1
weight_filler {
type: "xavier"
std: 0.03
}
bias_filler {
type: "constant"
value: 0.2
}
}
}
layer {
name: "inception_4d/relu_1x1"
type: "ReLU"
bottom: "inception_4d/1x1"
top: "inception_4d/1x1"
}
layer {
name: "inception_4d/3x3_reduce"
type: "Convolution"
bottom: "inception_4c/output"
top: "inception_4d/3x3_reduce"
param {
lr_mult: 1
decay_mult: 1
}
param {
lr_mult: 2
decay_mult: 0
}
convolution_param {
num_output: 144
kernel_size: 1
weight_filler {
type: "xavier"
std: 0.09
}
bias_filler {
type: "constant"
value: 0.2
}
}
}
layer {
name: "inception_4d/relu_3x3_reduce"
type: "ReLU"
bottom: "inception_4d/3x3_reduce"
top: "inception_4d/3x3_reduce"
}
layer {
name: "inception_4d/3x3"
type: "Convolution"
bottom: "inception_4d/3x3_reduce"
top: "inception_4d/3x3"
param {
lr_mult: 1
decay_mult: 1
}
param {
lr_mult: 2
decay_mult: 0
}
convolution_param {
num_output: 288
pad: 1
kernel_size: 3
weight_filler {
type: "xavier"
std: 0.03
}
bias_filler {
type: "constant"
value: 0.2
}
}
}
layer {
name: "inception_4d/relu_3x3"
type: "ReLU"
bottom: "inception_4d/3x3"
top: "inception_4d/3x3"
}
layer {
name: "inception_4d/5x5_reduce"
type: "Convolution"
bottom: "inception_4c/output"
top: "inception_4d/5x5_reduce"
param {
lr_mult: 1
decay_mult: 1
}
param {
lr_mult: 2
decay_mult: 0
}
convolution_param {
num_output: 32
kernel_size: 1
weight_filler {
type: "xavier"
std: 0.2
}
bias_filler {
type: "constant"
value: 0.2
}
}
}
layer {
name: "inception_4d/relu_5x5_reduce"
type: "ReLU"
bottom: "inception_4d/5x5_reduce"
top: "inception_4d/5x5_reduce"
}
layer {
name: "inception_4d/5x5"
type: "Convolution"
bottom: "inception_4d/5x5_reduce"
top: "inception_4d/5x5"
param {
lr_mult: 1
decay_mult: 1
}
param {
lr_mult: 2
decay_mult: 0
}
convolution_param {
num_output: 64
pad: 2
kernel_size: 5
weight_filler {
type: "xavier"
std: 0.03
}
bias_filler {
type: "constant"
value: 0.2
}
}
}
layer {
name: "inception_4d/relu_5x5"
type: "ReLU"
bottom: "inception_4d/5x5"
top: "inception_4d/5x5"
}
layer {
name: "inception_4d/pool"
type: "Pooling"
bottom: "inception_4c/output"
top: "inception_4d/pool"
pooling_param {
pool: MAX
kernel_size: 3
stride: 1
pad: 1
}
}
layer {
name: "inception_4d/pool_proj"
type: "Convolution"
bottom: "inception_4d/pool"
top: "inception_4d/pool_proj"
param {
lr_mult: 1
decay_mult: 1
}
param {
lr_mult: 2
decay_mult: 0
}
convolution_param {
num_output: 64
kernel_size: 1
weight_filler {
type: "xavier"
std: 0.1
}
bias_filler {
type: "constant"
value: 0.2
}
}
}
layer {
name: "inception_4d/relu_pool_proj"
type: "ReLU"
bottom: "inception_4d/pool_proj"
top: "inception_4d/pool_proj"
}
layer {
name: "inception_4d/output"
type: "Concat"
bottom: "inception_4d/1x1"
bottom: "inception_4d/3x3"
bottom: "inception_4d/5x5"
bottom: "inception_4d/pool_proj"
top: "inception_4d/output"
}
layer {
name: "loss2/ave_pool"
type: "Pooling"
bottom: "inception_4d/output"
top: "loss2/ave_pool"
pooling_param {
pool: AVE
kernel_size: 5
stride: 3
}
}
layer {
name: "loss2/conv"
type: "Convolution"
bottom: "loss2/ave_pool"
top: "loss2/conv"
param {
lr_mult: 1
decay_mult: 1
}
param {
lr_mult: 2
decay_mult: 0
}
convolution_param {
num_output: 128
kernel_size: 1
weight_filler {
type: "xavier"
std: 0.08
}
bias_filler {
type: "constant"
value: 0.2
}
}
}
layer {
name: "loss2/relu_conv"
type: "ReLU"
bottom: "loss2/conv"
top: "loss2/conv"
}
layer {
name: "loss2/fc"
type: "InnerProduct"
bottom: "loss2/conv"
top: "loss2/fc"
param {
lr_mult: 1
decay_mult: 1
}
param {
lr_mult: 2
decay_mult: 0
}
inner_product_param {
num_output: 1024
weight_filler {
type: "xavier"
std: 0.02
}
bias_filler {
type: "constant"
value: 0.2
}
}
}
layer {
name: "loss2/relu_fc"
type: "ReLU"
bottom: "loss2/fc"
top: "loss2/fc"
}
layer {
name: "loss2/drop_fc"
type: "Dropout"
bottom: "loss2/fc"
top: "loss2/fc"
dropout_param {
dropout_ratio: 0.7
}
}
layer {
name: "loss2/classifier"
type: "InnerProduct"
bottom: "loss2/fc"
top: "loss2/classifier"
param {
lr_mult: 1
decay_mult: 1
}
param {
lr_mult: 2
decay_mult: 0
}
inner_product_param {
num_output: 3
weight_filler {
type: "xavier"
std: 0.0009765625
}
bias_filler {
type: "constant"
value: 0
}
}
}
layer {
name: "loss2/loss"
type: "SoftmaxWithLoss"
bottom: "loss2/classifier"
bottom: "label"
top: "loss2/loss"
loss_weight: 0.3
}
layer {
name: "inception_4e/1x1"
type: "Convolution"
bottom: "inception_4d/output"
top: "inception_4e/1x1"
param {
lr_mult: 1
decay_mult: 1
}
param {
lr_mult: 2
decay_mult: 0
}
convolution_param {
num_output: 256
kernel_size: 1
weight_filler {
type: "xavier"
std: 0.03
}
bias_filler {
type: "constant"
value: 0.2
}
}
}
layer {
name: "inception_4e/relu_1x1"
type: "ReLU"
bottom: "inception_4e/1x1"
top: "inception_4e/1x1"
}
layer {
name: "inception_4e/3x3_reduce"
type: "Convolution"
bottom: "inception_4d/output"
top: "inception_4e/3x3_reduce"
param {
lr_mult: 1
decay_mult: 1
}
param {
lr_mult: 2
decay_mult: 0
}
convolution_param {
num_output: 160
kernel_size: 1
weight_filler {
type: "xavier"
std: 0.09
}
bias_filler {
type: "constant"
value: 0.2
}
}
}
layer {
name: "inception_4e/relu_3x3_reduce"
type: "ReLU"
bottom: "inception_4e/3x3_reduce"
top: "inception_4e/3x3_reduce"
}
layer {
name: "inception_4e/3x3"
type: "Convolution"
bottom: "inception_4e/3x3_reduce"
top: "inception_4e/3x3"
param {
lr_mult: 1
decay_mult: 1
}
param {
lr_mult: 2
decay_mult: 0
}
convolution_param {
num_output: 320
pad: 1
kernel_size: 3
weight_filler {
type: "xavier"
std: 0.03
}
bias_filler {
type: "constant"
value: 0.2
}
}
}
layer {
name: "inception_4e/relu_3x3"
type: "ReLU"
bottom: "inception_4e/3x3"
top: "inception_4e/3x3"
}
layer {
name: "inception_4e/5x5_reduce"
type: "Convolution"
bottom: "inception_4d/output"
top: "inception_4e/5x5_reduce"
param {
lr_mult: 1
decay_mult: 1
}
param {
lr_mult: 2
decay_mult: 0
}
convolution_param {
num_output: 32
kernel_size: 1
weight_filler {
type: "xavier"
std: 0.2
}
bias_filler {
type: "constant"
value: 0.2
}
}
}
layer {
name: "inceptio
I0811 00:58:16.187814   174 layer_factory.hpp:77] Creating layer train-data
I0811 00:58:16.188836   174 net.cpp:94] Creating Layer train-data
I0811 00:58:16.188905   174 net.cpp:409] train-data -> data
I0811 00:58:16.188941   174 net.cpp:409] train-data -> label
I0811 00:58:16.189599   183 db_lmdb.cpp:35] Opened lmdb /opt/DIGITS/digits/jobs/20190811-005252-9dba/train_db
I0811 00:58:16.189771   174 data_transformer.cpp:25] Loading mean file from: /opt/DIGITS/digits/jobs/20190811-005252-9dba/mean.binaryproto
I0811 00:58:16.205811   174 data_layer.cpp:78] ReshapePrefetch 32, 3, 224, 224
I0811 00:58:16.205868   174 data_layer.cpp:83] output data size: 32,3,224,224
I0811 00:58:16.244567   174 net.cpp:144] Setting up train-data
I0811 00:58:16.244596   174 net.cpp:151] Top shape: 32 3 224 224 (4816896)
I0811 00:58:16.244601   174 net.cpp:151] Top shape: 32 (32)
I0811 00:58:16.244606   174 net.cpp:159] Memory required for data: 19267712
I0811 00:58:16.244618   174 layer_factory.hpp:77] Creating layer label_train-data_1_split
I0811 00:58:16.244760   174 net.cpp:94] Creating Layer label_train-data_1_split
I0811 00:58:16.244782   174 net.cpp:435] label_train-data_1_split <- label
I0811 00:58:16.244807   174 net.cpp:409] label_train-data_1_split -> label_train-data_1_split_0
I0811 00:58:16.244819   174 net.cpp:409] label_train-data_1_split -> label_train-data_1_split_1
I0811 00:58:16.244859   174 net.cpp:409] label_train-data_1_split -> label_train-data_1_split_2
I0811 00:58:16.245115   174 net.cpp:144] Setting up label_train-data_1_split
I0811 00:58:16.245141   174 net.cpp:151] Top shape: 32 (32)
I0811 00:58:16.245146   174 net.cpp:151] Top shape: 32 (32)
I0811 00:58:16.245151   174 net.cpp:151] Top shape: 32 (32)
I0811 00:58:16.245153   174 net.cpp:159] Memory required for data: 19268096
I0811 00:58:16.245158   174 layer_factory.hpp:77] Creating layer conv1/7x7_s2
I0811 00:58:16.245182   174 net.cpp:94] Creating Layer conv1/7x7_s2
I0811 00:58:16.245187   174 net.cpp:435] conv1/7x7_s2 <- data
I0811 00:58:16.245196   174 net.cpp:409] conv1/7x7_s2 -> conv1/7x7_s2
I0811 00:58:16.245678   174 net.cpp:144] Setting up conv1/7x7_s2
I0811 00:58:16.245692   174 net.cpp:151] Top shape: 32 64 112 112 (25690112)
I0811 00:58:16.245694   174 net.cpp:159] Memory required for data: 122028544
I0811 00:58:16.245712   174 layer_factory.hpp:77] Creating layer conv1/relu_7x7
I0811 00:58:16.245718   174 net.cpp:94] Creating Layer conv1/relu_7x7
I0811 00:58:16.245721   174 net.cpp:435] conv1/relu_7x7 <- conv1/7x7_s2
I0811 00:58:16.245728   174 net.cpp:396] conv1/relu_7x7 -> conv1/7x7_s2 (in-place)
I0811 00:58:16.245746   174 net.cpp:144] Setting up conv1/relu_7x7
I0811 00:58:16.245751   174 net.cpp:151] Top shape: 32 64 112 112 (25690112)
I0811 00:58:16.245754   174 net.cpp:159] Memory required for data: 224788992
I0811 00:58:16.245757   174 layer_factory.hpp:77] Creating layer pool1/3x3_s2
I0811 00:58:16.245766   174 net.cpp:94] Creating Layer pool1/3x3_s2
I0811 00:58:16.245770   174 net.cpp:435] pool1/3x3_s2 <- conv1/7x7_s2
I0811 00:58:16.245776   174 net.cpp:409] pool1/3x3_s2 -> pool1/3x3_s2
I0811 00:58:16.245821   174 net.cpp:144] Setting up pool1/3x3_s2
I0811 00:58:16.245829   174 net.cpp:151] Top shape: 32 64 56 56 (6422528)
I0811 00:58:16.245832   174 net.cpp:159] Memory required for data: 250479104
I0811 00:58:16.245836   174 layer_factory.hpp:77] Creating layer pool1/norm1
I0811 00:58:16.245846   174 net.cpp:94] Creating Layer pool1/norm1
I0811 00:58:16.245864   174 net.cpp:435] pool1/norm1 <- pool1/3x3_s2
I0811 00:58:16.245872   174 net.cpp:409] pool1/norm1 -> pool1/norm1
I0811 00:58:16.246359   174 net.cpp:144] Setting up pool1/norm1
I0811 00:58:16.246385   174 net.cpp:151] Top shape: 32 64 56 56 (6422528)
I0811 00:58:16.246390   174 net.cpp:159] Memory required for data: 276169216
I0811 00:58:16.246394   174 layer_factory.hpp:77] Creating layer conv2/3x3_reduce
I0811 00:58:16.246407   174 net.cpp:94] Creating Layer conv2/3x3_reduce
I0811 00:58:16.246412   174 net.cpp:435] conv2/3x3_reduce <- pool1/norm1
I0811 00:58:16.246420   174 net.cpp:409] conv2/3x3_reduce -> conv2/3x3_reduce
I0811 00:58:16.246704   174 net.cpp:144] Setting up conv2/3x3_reduce
I0811 00:58:16.246712   174 net.cpp:151] Top shape: 32 64 56 56 (6422528)
I0811 00:58:16.246716   174 net.cpp:159] Memory required for data: 301859328
I0811 00:58:16.246724   174 layer_factory.hpp:77] Creating layer conv2/relu_3x3_reduce
I0811 00:58:16.246729   174 net.cpp:94] Creating Layer conv2/relu_3x3_reduce
I0811 00:58:16.246733   174 net.cpp:435] conv2/relu_3x3_reduce <- conv2/3x3_reduce
I0811 00:58:16.246739   174 net.cpp:396] conv2/relu_3x3_reduce -> conv2/3x3_reduce (in-place)
I0811 00:58:16.246745   174 net.cpp:144] Setting up conv2/relu_3x3_reduce
I0811 00:58:16.246750   174 net.cpp:151] Top shape: 32 64 56 56 (6422528)
I0811 00:58:16.246753   174 net.cpp:159] Memory required for data: 327549440
I0811 00:58:16.246757   174 layer_factory.hpp:77] Creating layer conv2/3x3
I0811 00:58:16.246767   174 net.cpp:94] Creating Layer conv2/3x3
I0811 00:58:16.246770   174 net.cpp:435] conv2/3x3 <- conv2/3x3_reduce
I0811 00:58:16.246775   174 net.cpp:409] conv2/3x3 -> conv2/3x3
I0811 00:58:16.248453   174 net.cpp:144] Setting up conv2/3x3
I0811 00:58:16.248471   174 net.cpp:151] Top shape: 32 192 56 56 (19267584)
I0811 00:58:16.248474   174 net.cpp:159] Memory required for data: 404619776
I0811 00:58:16.248483   174 layer_factory.hpp:77] Creating layer conv2/relu_3x3
I0811 00:58:16.248522   174 net.cpp:94] Creating Layer conv2/relu_3x3
I0811 00:58:16.248526   174 net.cpp:435] conv2/relu_3x3 <- conv2/3x3
I0811 00:58:16.248548   174 net.cpp:396] conv2/relu_3x3 -> conv2/3x3 (in-place)
I0811 00:58:16.248554   174 net.cpp:144] Setting up conv2/relu_3x3
I0811 00:58:16.248559   174 net.cpp:151] Top shape: 32 192 56 56 (19267584)
I0811 00:58:16.248562   174 net.cpp:159] Memory required for data: 481690112
I0811 00:58:16.248565   174 layer_factory.hpp:77] Creating layer conv2/norm2
I0811 00:58:16.248571   174 net.cpp:94] Creating Layer conv2/norm2
I0811 00:58:16.248574   174 net.cpp:435] conv2/norm2 <- conv2/3x3
I0811 00:58:16.248579   174 net.cpp:409] conv2/norm2 -> conv2/norm2
I0811 00:58:16.248613   174 net.cpp:144] Setting up conv2/norm2
I0811 00:58:16.248618   174 net.cpp:151] Top shape: 32 192 56 56 (19267584)
I0811 00:58:16.248621   174 net.cpp:159] Memory required for data: 558760448
I0811 00:58:16.248625   174 layer_factory.hpp:77] Creating layer pool2/3x3_s2
I0811 00:58:16.248631   174 net.cpp:94] Creating Layer pool2/3x3_s2
I0811 00:58:16.248633   174 net.cpp:435] pool2/3x3_s2 <- conv2/norm2
I0811 00:58:16.248639   174 net.cpp:409] pool2/3x3_s2 -> pool2/3x3_s2
I0811 00:58:16.248666   174 net.cpp:144] Setting up pool2/3x3_s2
I0811 00:58:16.248670   174 net.cpp:151] Top shape: 32 192 28 28 (4816896)
I0811 00:58:16.248673   174 net.cpp:159] Memory required for data: 578028032
I0811 00:58:16.248677   174 layer_factory.hpp:77] Creating layer pool2/3x3_s2_pool2/3x3_s2_0_split
I0811 00:58:16.248682   174 net.cpp:94] Creating Layer pool2/3x3_s2_pool2/3x3_s2_0_split
I0811 00:58:16.248687   174 net.cpp:435] pool2/3x3_s2_pool2/3x3_s2_0_split <- pool2/3x3_s2
I0811 00:58:16.248692   174 net.cpp:409] pool2/3x3_s2_pool2/3x3_s2_0_split -> pool2/3x3_s2_pool2/3x3_s2_0_split_0
I0811 00:58:16.248697   174 net.cpp:409] pool2/3x3_s2_pool2/3x3_s2_0_split -> pool2/3x3_s2_pool2/3x3_s2_0_split_1
I0811 00:58:16.248703   174 net.cpp:409] pool2/3x3_s2_pool2/3x3_s2_0_split -> pool2/3x3_s2_pool2/3x3_s2_0_split_2
I0811 00:58:16.248709   174 net.cpp:409] pool2/3x3_s2_pool2/3x3_s2_0_split -> pool2/3x3_s2_pool2/3x3_s2_0_split_3
I0811 00:58:16.248749   174 net.cpp:144] Setting up pool2/3x3_s2_pool2/3x3_s2_0_split
I0811 00:58:16.248754   174 net.cpp:151] Top shape: 32 192 28 28 (4816896)
I0811 00:58:16.248759   174 net.cpp:151] Top shape: 32 192 28 28 (4816896)
I0811 00:58:16.248762   174 net.cpp:151] Top shape: 32 192 28 28 (4816896)
I0811 00:58:16.248765   174 net.cpp:151] Top shape: 32 192 28 28 (4816896)
I0811 00:58:16.248769   174 net.cpp:159] Memory required for data: 655098368
I0811 00:58:16.248771   174 layer_factory.hpp:77] Creating layer inception_3a/1x1
I0811 00:58:16.248781   174 net.cpp:94] Creating Layer inception_3a/1x1
I0811 00:58:16.248785   174 net.cpp:435] inception_3a/1x1 <- pool2/3x3_s2_pool2/3x3_s2_0_split_0
I0811 00:58:16.248792   174 net.cpp:409] inception_3a/1x1 -> inception_3a/1x1
I0811 00:58:16.249058   174 net.cpp:144] Setting up inception_3a/1x1
I0811 00:58:16.249068   174 net.cpp:151] Top shape: 32 64 28 28 (1605632)
I0811 00:58:16.249070   174 net.cpp:159] Memory required for data: 661520896
I0811 00:58:16.249075   174 layer_factory.hpp:77] Creating layer inception_3a/relu_1x1
I0811 00:58:16.249081   174 net.cpp:94] Creating Layer inception_3a/relu_1x1
I0811 00:58:16.249085   174 net.cpp:435] inception_3a/relu_1x1 <- inception_3a/1x1
I0811 00:58:16.249090   174 net.cpp:396] inception_3a/relu_1x1 -> inception_3a/1x1 (in-place)
I0811 00:58:16.249097   174 net.cpp:144] Setting up inception_3a/relu_1x1
I0811 00:58:16.249101   174 net.cpp:151] Top shape: 32 64 28 28 (1605632)
I0811 00:58:16.249104   174 net.cpp:159] Memory required for data: 667943424
I0811 00:58:16.249107   174 layer_factory.hpp:77] Creating layer inception_3a/3x3_reduce
I0811 00:58:16.249114   174 net.cpp:94] Creating Layer inception_3a/3x3_reduce
I0811 00:58:16.249119   174 net.cpp:435] inception_3a/3x3_reduce <- pool2/3x3_s2_pool2/3x3_s2_0_split_1
I0811 00:58:16.249125   174 net.cpp:409] inception_3a/3x3_reduce -> inception_3a/3x3_reduce
I0811 00:58:16.252355   174 net.cpp:144] Setting up inception_3a/3x3_reduce
I0811 00:58:16.252405   174 net.cpp:151] Top shape: 32 96 28 28 (2408448)
I0811 00:58:16.252411   174 net.cpp:159] Memory required for data: 677577216
I0811 00:58:16.252425   174 layer_factory.hpp:77] Creating layer inception_3a/relu_3x3_reduce
I0811 00:58:16.252439   174 net.cpp:94] Creating Layer inception_3a/relu_3x3_reduce
I0811 00:58:16.252446   174 net.cpp:435] inception_3a/relu_3x3_reduce <- inception_3a/3x3_reduce
I0811 00:58:16.252455   174 net.cpp:396] inception_3a/relu_3x3_reduce -> inception_3a/3x3_reduce (in-place)
I0811 00:58:16.252467   174 net.cpp:144] Setting up inception_3a/relu_3x3_reduce
I0811 00:58:16.252475   174 net.cpp:151] Top shape: 32 96 28 28 (2408448)
I0811 00:58:16.252480   174 net.cpp:159] Memory required for data: 687211008
I0811 00:58:16.252485   174 layer_factory.hpp:77] Creating layer inception_3a/3x3
I0811 00:58:16.252496   174 net.cpp:94] Creating Layer inception_3a/3x3
I0811 00:58:16.252503   174 net.cpp:435] inception_3a/3x3 <- inception_3a/3x3_reduce
I0811 00:58:16.252514   174 net.cpp:409] inception_3a/3x3 -> inception_3a/3x3
I0811 00:58:16.254015   174 net.cpp:144] Setting up inception_3a/3x3
I0811 00:58:16.254029   174 net.cpp:151] Top shape: 32 128 28 28 (3211264)
I0811 00:58:16.254034   174 net.cpp:159] Memory required for data: 700056064
I0811 00:58:16.254042   174 layer_factory.hpp:77] Creating layer inception_3a/relu_3x3
I0811 00:58:16.254051   174 net.cpp:94] Creating Layer inception_3a/relu_3x3
I0811 00:58:16.254056   174 net.cpp:435] inception_3a/relu_3x3 <- inception_3a/3x3
I0811 00:58:16.254065   174 net.cpp:396] inception_3a/relu_3x3 -> inception_3a/3x3 (in-place)
I0811 00:58:16.254076   174 net.cpp:144] Setting up inception_3a/relu_3x3
I0811 00:58:16.254083   174 net.cpp:151] Top shape: 32 128 28 28 (3211264)
I0811 00:58:16.254088   174 net.cpp:159] Memory required for data: 712901120
I0811 00:58:16.254093   174 layer_factory.hpp:77] Creating layer inception_3a/5x5_reduce
I0811 00:58:16.254106   174 net.cpp:94] Creating Layer inception_3a/5x5_reduce
I0811 00:58:16.254112   174 net.cpp:435] inception_3a/5x5_reduce <- pool2/3x3_s2_pool2/3x3_s2_0_split_2
I0811 00:58:16.254120   174 net.cpp:409] inception_3a/5x5_reduce -> inception_3a/5x5_reduce
I0811 00:58:16.254465   174 net.cpp:144] Setting up inception_3a/5x5_reduce
I0811 00:58:16.254478   174 net.cpp:151] Top shape: 32 16 28 28 (401408)
I0811 00:58:16.254484   174 net.cpp:159] Memory required for data: 714506752
I0811 00:58:16.254492   174 layer_factory.hpp:77] Creating layer inception_3a/relu_5x5_reduce
I0811 00:58:16.254501   174 net.cpp:94] Creating Layer inception_3a/relu_5x5_reduce
I0811 00:58:16.254508   174 net.cpp:435] inception_3a/relu_5x5_reduce <- inception_3a/5x5_reduce
I0811 00:58:16.254516   174 net.cpp:396] inception_3a/relu_5x5_reduce -> inception_3a/5x5_reduce (in-place)
I0811 00:58:16.254526   174 net.cpp:144] Setting up inception_3a/relu_5x5_reduce
I0811 00:58:16.254534   174 net.cpp:151] Top shape: 32 16 28 28 (401408)
I0811 00:58:16.254539   174 net.cpp:159] Memory required for data: 716112384
I0811 00:58:16.254544   174 layer_factory.hpp:77] Creating layer inception_3a/5x5
I0811 00:58:16.254570   174 net.cpp:94] Creating Layer inception_3a/5x5
I0811 00:58:16.254576   174 net.cpp:435] inception_3a/5x5 <- inception_3a/5x5_reduce
I0811 00:58:16.254585   174 net.cpp:409] inception_3a/5x5 -> inception_3a/5x5
I0811 00:58:16.255061   174 net.cpp:144] Setting up inception_3a/5x5
I0811 00:58:16.255089   174 net.cpp:151] Top shape: 32 32 28 28 (802816)
I0811 00:58:16.255095   174 net.cpp:159] Memory required for data: 719323648
I0811 00:58:16.255103   174 layer_factory.hpp:77] Creating layer inception_3a/relu_5x5
I0811 00:58:16.255111   174 net.cpp:94] Creating Layer inception_3a/relu_5x5
I0811 00:58:16.255117   174 net.cpp:435] inception_3a/relu_5x5 <- inception_3a/5x5
I0811 00:58:16.255126   174 net.cpp:396] inception_3a/relu_5x5 -> inception_3a/5x5 (in-place)
I0811 00:58:16.255136   174 net.cpp:144] Setting up inception_3a/relu_5x5
I0811 00:58:16.255163   174 net.cpp:151] Top shape: 32 32 28 28 (802816)
I0811 00:58:16.255169   174 net.cpp:159] Memory required for data: 722534912
I0811 00:58:16.255174   174 layer_factory.hpp:77] Creating layer inception_3a/pool
I0811 00:58:16.255183   174 net.cpp:94] Creating Layer inception_3a/pool
I0811 00:58:16.255189   174 net.cpp:435] inception_3a/pool <- pool2/3x3_s2_pool2/3x3_s2_0_split_3
I0811 00:58:16.255198   174 net.cpp:409] inception_3a/pool -> inception_3a/pool
I0811 00:58:16.255247   174 net.cpp:144] Setting up inception_3a/pool
I0811 00:58:16.255256   174 net.cpp:151] Top shape: 32 192 28 28 (4816896)
I0811 00:58:16.255261   174 net.cpp:159] Memory required for data: 741802496
I0811 00:58:16.255266   174 layer_factory.hpp:77] Creating layer inception_3a/pool_proj
I0811 00:58:16.255280   174 net.cpp:94] Creating Layer inception_3a/pool_proj
I0811 00:58:16.255285   174 net.cpp:435] inception_3a/pool_proj <- inception_3a/pool
I0811 00:58:16.255295   174 net.cpp:409] inception_3a/pool_proj -> inception_3a/pool_proj
I0811 00:58:16.256551   174 net.cpp:144] Setting up inception_3a/pool_proj
I0811 00:58:16.256569   174 net.cpp:151] Top shape: 32 32 28 28 (802816)
I0811 00:58:16.256574   174 net.cpp:159] Memory required for data: 745013760
I0811 00:58:16.256588   174 layer_factory.hpp:77] Creating layer inception_3a/relu_pool_proj
I0811 00:58:16.256599   174 net.cpp:94] Creating Layer inception_3a/relu_pool_proj
I0811 00:58:16.256605   174 net.cpp:435] inception_3a/relu_pool_proj <- inception_3a/pool_proj
I0811 00:58:16.256614   174 net.cpp:396] inception_3a/relu_pool_proj -> inception_3a/pool_proj (in-place)
I0811 00:58:16.256626   174 net.cpp:144] Setting up inception_3a/relu_pool_proj
I0811 00:58:16.256633   174 net.cpp:151] Top shape: 32 32 28 28 (802816)
I0811 00:58:16.256639   174 net.cpp:159] Memory required for data: 748225024
I0811 00:58:16.256644   174 layer_factory.hpp:77] Creating layer inception_3a/output
I0811 00:58:16.256652   174 net.cpp:94] Creating Layer inception_3a/output
I0811 00:58:16.256659   174 net.cpp:435] inception_3a/output <- inception_3a/1x1
I0811 00:58:16.256664   174 net.cpp:435] inception_3a/output <- inception_3a/3x3
I0811 00:58:16.256671   174 net.cpp:435] inception_3a/output <- inception_3a/5x5
I0811 00:58:16.256678   174 net.cpp:435] inception_3a/output <- inception_3a/pool_proj
I0811 00:58:16.256686   174 net.cpp:409] inception_3a/output -> inception_3a/output
I0811 00:58:16.256721   174 net.cpp:144] Setting up inception_3a/output
I0811 00:58:16.256729   174 net.cpp:151] Top shape: 32 256 28 28 (6422528)
I0811 00:58:16.256734   174 net.cpp:159] Memory required for data: 773915136
I0811 00:58:16.256739   174 layer_factory.hpp:77] Creating layer inception_3a/output_inception_3a/output_0_split
I0811 00:58:16.256764   174 net.cpp:94] Creating Layer inception_3a/output_inception_3a/output_0_split
I0811 00:58:16.256770   174 net.cpp:435] inception_3a/output_inception_3a/output_0_split <- inception_3a/output
I0811 00:58:16.256779   174 net.cpp:409] inception_3a/output_inception_3a/output_0_split -> inception_3a/output_inception_3a/output_0_split_0
I0811 00:58:16.256789   174 net.cpp:409] inception_3a/output_inception_3a/output_0_split -> inception_3a/output_inception_3a/output_0_split_1
I0811 00:58:16.256798   174 net.cpp:409] inception_3a/output_inception_3a/output_0_split -> inception_3a/output_inception_3a/output_0_split_2
I0811 00:58:16.256808   174 net.cpp:409] inception_3a/output_inception_3a/output_0_split -> inception_3a/output_inception_3a/output_0_split_3
I0811 00:58:16.256889   174 net.cpp:144] Setting up inception_3a/output_inception_3a/output_0_split
I0811 00:58:16.256899   174 net.cpp:151] Top shape: 32 256 28 28 (6422528)
I0811 00:58:16.256906   174 net.cpp:151] Top shape: 32 256 28 28 (6422528)
I0811 00:58:16.256911   174 net.cpp:151] Top shape: 32 256 28 28 (6422528)
I0811 00:58:16.256917   174 net.cpp:151] Top shape: 32 256 28 28 (6422528)
I0811 00:58:16.256922   174 net.cpp:159] Memory required for data: 876675584
I0811 00:58:16.256927   174 layer_factory.hpp:77] Creating layer inception_3b/1x1
I0811 00:58:16.256958   174 net.cpp:94] Creating Layer inception_3b/1x1
I0811 00:58:16.256964   174 net.cpp:435] inception_3b/1x1 <- inception_3a/output_inception_3a/output_0_split_0
I0811 00:58:16.256973   174 net.cpp:409] inception_3b/1x1 -> inception_3b/1x1
I0811 00:58:16.257609   174 net.cpp:144] Setting up inception_3b/1x1
I0811 00:58:16.257624   174 net.cpp:151] Top shape: 32 128 28 28 (3211264)
I0811 00:58:16.257630   174 net.cpp:159] Memory required for data: 889520640
I0811 00:58:16.257639   174 layer_factory.hpp:77] Creating layer inception_3b/relu_1x1
I0811 00:58:16.257649   174 net.cpp:94] Creating Layer inception_3b/relu_1x1
I0811 00:58:16.257655   174 net.cpp:435] inception_3b/relu_1x1 <- inception_3b/1x1
I0811 00:58:16.257664   174 net.cpp:396] inception_3b/relu_1x1 -> inception_3b/1x1 (in-place)
I0811 00:58:16.257675   174 net.cpp:144] Setting up inception_3b/relu_1x1
I0811 00:58:16.257683   174 net.cpp:151] Top shape: 32 128 28 28 (3211264)
I0811 00:58:16.257688   174 net.cpp:159] Memory required for data: 902365696
I0811 00:58:16.257692   174 layer_factory.hpp:77] Creating layer inception_3b/3x3_reduce
I0811 00:58:16.257705   174 net.cpp:94] Creating Layer inception_3b/3x3_reduce
I0811 00:58:16.257711   174 net.cpp:435] inception_3b/3x3_reduce <- inception_3a/output_inception_3a/output_0_split_1
I0811 00:58:16.257721   174 net.cpp:409] inception_3b/3x3_reduce -> inception_3b/3x3_reduce
I0811 00:58:16.258381   174 net.cpp:144] Setting up inception_3b/3x3_reduce
I0811 00:58:16.258394   174 net.cpp:151] Top shape: 32 128 28 28 (3211264)
I0811 00:58:16.258399   174 net.cpp:159] Memory required for data: 915210752
I0811 00:58:16.258409   174 layer_factory.hpp:77] Creating layer inception_3b/relu_3x3_reduce
I0811 00:58:16.258417   174 net.cpp:94] Creating Layer inception_3b/relu_3x3_reduce
I0811 00:58:16.258424   174 net.cpp:435] inception_3b/relu_3x3_reduce <- inception_3b/3x3_reduce
I0811 00:58:16.258436   174 net.cpp:396] inception_3b/relu_3x3_reduce -> inception_3b/3x3_reduce (in-place)
I0811 00:58:16.258447   174 net.cpp:144] Setting up inception_3b/relu_3x3_reduce
I0811 00:58:16.258455   174 net.cpp:151] Top shape: 32 128 28 28 (3211264)
I0811 00:58:16.258460   174 net.cpp:159] Memory required for data: 928055808
I0811 00:58:16.258464   174 layer_factory.hpp:77] Creating layer inception_3b/3x3
I0811 00:58:16.258484   174 net.cpp:94] Creating Layer inception_3b/3x3
I0811 00:58:16.258491   174 net.cpp:435] inception_3b/3x3 <- inception_3b/3x3_reduce
I0811 00:58:16.258507   174 net.cpp:409] inception_3b/3x3 -> inception_3b/3x3
I0811 00:58:16.261981   174 net.cpp:144] Setting up inception_3b/3x3
I0811 00:58:16.262002   174 net.cpp:151] Top shape: 32 192 28 28 (4816896)
I0811 00:58:16.262007   174 net.cpp:159] Memory required for data: 947323392
I0811 00:58:16.262017   174 layer_factory.hpp:77] Creating layer inception_3b/relu_3x3
I0811 00:58:16.262027   174 net.cpp:94] Creating Layer inception_3b/relu_3x3
I0811 00:58:16.262033   174 net.cpp:435] inception_3b/relu_3x3 <- inception_3b/3x3
I0811 00:58:16.262043   174 net.cpp:396] inception_3b/relu_3x3 -> inception_3b/3x3 (in-place)
I0811 00:58:16.262055   174 net.cpp:144] Setting up inception_3b/relu_3x3
I0811 00:58:16.262063   174 net.cpp:151] Top shape: 32 192 28 28 (4816896)
I0811 00:58:16.262068   174 net.cpp:159] Memory required for data: 966590976
I0811 00:58:16.262073   174 layer_factory.hpp:77] Creating layer inception_3b/5x5_reduce
I0811 00:58:16.262086   174 net.cpp:94] Creating Layer inception_3b/5x5_reduce
I0811 00:58:16.262094   174 net.cpp:435] inception_3b/5x5_reduce <- inception_3a/output_inception_3a/output_0_split_2
I0811 00:58:16.262104   174 net.cpp:409] inception_3b/5x5_reduce -> inception_3b/5x5_reduce
I0811 00:58:16.262526   174 net.cpp:144] Setting up inception_3b/5x5_reduce
I0811 00:58:16.262540   174 net.cpp:151] Top shape: 32 32 28 28 (802816)
I0811 00:58:16.262545   174 net.cpp:159] Memory required for data: 969802240
I0811 00:58:16.262554   174 layer_factory.hpp:77] Creating layer inception_3b/relu_5x5_reduce
I0811 00:58:16.262583   174 net.cpp:94] Creating Layer inception_3b/relu_5x5_reduce
I0811 00:58:16.262589   174 net.cpp:435] inception_3b/relu_5x5_reduce <- inception_3b/5x5_reduce
I0811 00:58:16.262599   174 net.cpp:396] inception_3b/relu_5x5_reduce -> inception_3b/5x5_reduce (in-place)
I0811 00:58:16.262610   174 net.cpp:144] Setting up inception_3b/relu_5x5_reduce
I0811 00:58:16.262619   174 net.cpp:151] Top shape: 32 32 28 28 (802816)
I0811 00:58:16.262624   174 net.cpp:159] Memory required for data: 973013504
I0811 00:58:16.262629   174 layer_factory.hpp:77] Creating layer inception_3b/5x5
I0811 00:58:16.262641   174 net.cpp:94] Creating Layer inception_3b/5x5
I0811 00:58:16.262647   174 net.cpp:435] inception_3b/5x5 <- inception_3b/5x5_reduce
I0811 00:58:16.262657   174 net.cpp:409] inception_3b/5x5 -> inception_3b/5x5
I0811 00:58:16.263854   174 net.cpp:144] Setting up inception_3b/5x5
I0811 00:58:16.263867   174 net.cpp:151] Top shape: 32 96 28 28 (2408448)
I0811 00:58:16.263883   174 net.cpp:159] Memory required for data: 982647296
I0811 00:58:16.263892   174 layer_factory.hpp:77] Creating layer inception_3b/relu_5x5
I0811 00:58:16.263901   174 net.cpp:94] Creating Layer inception_3b/relu_5x5
I0811 00:58:16.263907   174 net.cpp:435] inception_3b/relu_5x5 <- inception_3b/5x5
I0811 00:58:16.263926   174 net.cpp:396] inception_3b/relu_5x5 -> inception_3b/5x5 (in-place)
I0811 00:58:16.263936   174 net.cpp:144] Setting up inception_3b/relu_5x5
I0811 00:58:16.263943   174 net.cpp:151] Top shape: 32 96 28 28 (2408448)
I0811 00:58:16.263967   174 net.cpp:159] Memory required for data: 992281088
I0811 00:58:16.263975   174 layer_factory.hpp:77] Creating layer inception_3b/pool
I0811 00:58:16.263985   174 net.cpp:94] Creating Layer inception_3b/pool
I0811 00:58:16.263991   174 net.cpp:435] inception_3b/pool <- inception_3a/output_inception_3a/output_0_split_3
I0811 00:58:16.264001   174 net.cpp:409] inception_3b/pool -> inception_3b/pool
I0811 00:58:16.264057   174 net.cpp:144] Setting up inception_3b/pool
I0811 00:58:16.264068   174 net.cpp:151] Top shape: 32 256 28 28 (6422528)
I0811 00:58:16.264073   174 net.cpp:159] Memory required for data: 1017971200
I0811 00:58:16.264078   174 layer_factory.hpp:77] Creating layer inception_3b/pool_proj
I0811 00:58:16.264091   174 net.cpp:94] Creating Layer inception_3b/pool_proj
I0811 00:58:16.264098   174 net.cpp:435] inception_3b/pool_proj <- inception_3b/pool
I0811 00:58:16.264111   174 net.cpp:409] inception_3b/pool_proj -> inception_3b/pool_proj
I0811 00:58:16.264626   174 net.cpp:144] Setting up inception_3b/pool_proj
I0811 00:58:16.264642   174 net.cpp:151] Top shape: 32 64 28 28 (1605632)
I0811 00:58:16.264648   174 net.cpp:159] Memory required for data: 1024393728
I0811 00:58:16.264657   174 layer_factory.hpp:77] Creating layer inception_3b/relu_pool_proj
I0811 00:58:16.264667   174 net.cpp:94] Creating Layer inception_3b/relu_pool_proj
I0811 00:58:16.264673   174 net.cpp:435] inception_3b/relu_pool_proj <- inception_3b/pool_proj
I0811 00:58:16.264683   174 net.cpp:396] inception_3b/relu_pool_proj -> inception_3b/pool_proj (in-place)
I0811 00:58:16.264694   174 net.cpp:144] Setting up inception_3b/relu_pool_proj
I0811 00:58:16.264703   174 net.cpp:151] Top shape: 32 64 28 28 (1605632)
I0811 00:58:16.264708   174 net.cpp:159] Memory required for data: 1030816256
I0811 00:58:16.264712   174 layer_factory.hpp:77] Creating layer inception_3b/output
I0811 00:58:16.264722   174 net.cpp:94] Creating Layer inception_3b/output
I0811 00:58:16.264727   174 net.cpp:435] inception_3b/output <- inception_3b/1x1
I0811 00:58:16.264734   174 net.cpp:435] inception_3b/output <- inception_3b/3x3
I0811 00:58:16.264741   174 net.cpp:435] inception_3b/output <- inception_3b/5x5
I0811 00:58:16.264747   174 net.cpp:435] inception_3b/output <- inception_3b/pool_proj
I0811 00:58:16.264755   174 net.cpp:409] inception_3b/output -> inception_3b/output
I0811 00:58:16.264789   174 net.cpp:144] Setting up inception_3b/output
I0811 00:58:16.264798   174 net.cpp:151] Top shape: 32 480 28 28 (12042240)
I0811 00:58:16.264822   174 net.cpp:159] Memory required for data: 1078985216
I0811 00:58:16.264828   174 layer_factory.hpp:77] Creating layer pool3/3x3_s2
I0811 00:58:16.264838   174 net.cpp:94] Creating Layer pool3/3x3_s2
I0811 00:58:16.264844   174 net.cpp:435] pool3/3x3_s2 <- inception_3b/output
I0811 00:58:16.264853   174 net.cpp:409] pool3/3x3_s2 -> pool3/3x3_s2
I0811 00:58:16.264905   174 net.cpp:144] Setting up pool3/3x3_s2
I0811 00:58:16.264916   174 net.cpp:151] Top shape: 32 480 14 14 (3010560)
I0811 00:58:16.264921   174 net.cpp:159] Memory required for data: 1091027456
I0811 00:58:16.264926   174 layer_factory.hpp:77] Creating layer pool3/3x3_s2_pool3/3x3_s2_0_split
I0811 00:58:16.264937   174 net.cpp:94] Creating Layer pool3/3x3_s2_pool3/3x3_s2_0_split
I0811 00:58:16.264942   174 net.cpp:435] pool3/3x3_s2_pool3/3x3_s2_0_split <- pool3/3x3_s2
I0811 00:58:16.264952   174 net.cpp:409] pool3/3x3_s2_pool3/3x3_s2_0_split -> pool3/3x3_s2_pool3/3x3_s2_0_split_0
I0811 00:58:16.264962   174 net.cpp:409] pool3/3x3_s2_pool3/3x3_s2_0_split -> pool3/3x3_s2_pool3/3x3_s2_0_split_1
I0811 00:58:16.264971   174 net.cpp:409] pool3/3x3_s2_pool3/3x3_s2_0_split -> pool3/3x3_s2_pool3/3x3_s2_0_split_2
I0811 00:58:16.264981   174 net.cpp:409] pool3/3x3_s2_pool3/3x3_s2_0_split -> pool3/3x3_s2_pool3/3x3_s2_0_split_3
I0811 00:58:16.265048   174 net.cpp:144] Setting up pool3/3x3_s2_pool3/3x3_s2_0_split
I0811 00:58:16.265058   174 net.cpp:151] Top shape: 32 480 14 14 (3010560)
I0811 00:58:16.265064   174 net.cpp:151] Top shape: 32 480 14 14 (3010560)
I0811 00:58:16.265071   174 net.cpp:151] Top shape: 32 480 14 14 (3010560)
I0811 00:58:16.265077   174 net.cpp:151] Top shape: 32 480 14 14 (3010560)
I0811 00:58:16.265082   174 net.cpp:159] Memory required for data: 1139196416
I0811 00:58:16.265089   174 layer_factory.hpp:77] Creating layer inception_4a/1x1
I0811 00:58:16.265100   174 net.cpp:94] Creating Layer inception_4a/1x1
I0811 00:58:16.265106   174 net.cpp:435] inception_4a/1x1 <- pool3/3x3_s2_pool3/3x3_s2_0_split_0
I0811 00:58:16.265117   174 net.cpp:409] inception_4a/1x1 -> inception_4a/1x1
I0811 00:58:16.266387   174 net.cpp:144] Setting up inception_4a/1x1
I0811 00:58:16.266402   174 net.cpp:151] Top shape: 32 192 14 14 (1204224)
I0811 00:58:16.266407   174 net.cpp:159] Memory required for data: 1144013312
I0811 00:58:16.266415   174 layer_factory.hpp:77] Creating layer inception_4a/relu_1x1
I0811 00:58:16.266424   174 net.cpp:94] Creating Layer inception_4a/relu_1x1
I0811 00:58:16.266433   174 net.cpp:435] inception_4a/relu_1x1 <- inception_4a/1x1
I0811 00:58:16.266441   174 net.cpp:396] inception_4a/relu_1x1 -> inception_4a/1x1 (in-place)
I0811 00:58:16.266453   174 net.cpp:144] Setting up inception_4a/relu_1x1
I0811 00:58:16.266460   174 net.cpp:151] Top shape: 32 192 14 14 (1204224)
I0811 00:58:16.266465   174 net.cpp:159] Memory required for data: 1148830208
I0811 00:58:16.266470   174 layer_factory.hpp:77] Creating layer inception_4a/3x3_reduce
I0811 00:58:16.266482   174 net.cpp:94] Creating Layer inception_4a/3x3_reduce
I0811 00:58:16.266489   174 net.cpp:435] inception_4a/3x3_reduce <- pool3/3x3_s2_pool3/3x3_s2_0_split_1
I0811 00:58:16.266499   174 net.cpp:409] inception_4a/3x3_reduce -> inception_4a/3x3_reduce
I0811 00:58:16.268169   174 net.cpp:144] Setting up inception_4a/3x3_reduce
I0811 00:58:16.268189   174 net.cpp:151] Top shape: 32 96 14 14 (602112)
I0811 00:58:16.268210   174 net.cpp:159] Memory required for data: 1151238656
I0811 00:58:16.268226   174 layer_factory.hpp:77] Creating layer inception_4a/relu_3x3_reduce
I0811 00:58:16.268236   174 net.cpp:94] Creating Layer inception_4a/relu_3x3_reduce
I0811 00:58:16.268242   174 net.cpp:435] inception_4a/relu_3x3_reduce <- inception_4a/3x3_reduce
I0811 00:58:16.268251   174 net.cpp:396] inception_4a/relu_3x3_reduce -> inception_4a/3x3_reduce (in-place)
I0811 00:58:16.268262   174 net.cpp:144] Setting up inception_4a/relu_3x3_reduce
I0811 00:58:16.268270   174 net.cpp:151] Top shape: 32 96 14 14 (602112)
I0811 00:58:16.268275   174 net.cpp:159] Memory required for data: 1153647104
I0811 00:58:16.268297   174 layer_factory.hpp:77] Creating layer inception_4a/3x3
I0811 00:58:16.268311   174 net.cpp:94] Creating Layer inception_4a/3x3
I0811 00:58:16.268317   174 net.cpp:435] inception_4a/3x3 <- inception_4a/3x3_reduce
I0811 00:58:16.268327   174 net.cpp:409] inception_4a/3x3 -> inception_4a/3x3
I0811 00:58:16.270648   174 net.cpp:144] Setting up inception_4a/3x3
I0811 00:58:16.270665   174 net.cpp:151] Top shape: 32 208 14 14 (1304576)
I0811 00:58:16.270671   174 net.cpp:159] Memory required for data: 1158865408
I0811 00:58:16.270679   174 layer_factory.hpp:77] Creating layer inception_4a/relu_3x3
I0811 00:58:16.270689   174 net.cpp:94] Creating Layer inception_4a/relu_3x3
I0811 00:58:16.270695   174 net.cpp:435] inception_4a/relu_3x3 <- inception_4a/3x3
I0811 00:58:16.270705   174 net.cpp:396] inception_4a/relu_3x3 -> inception_4a/3x3 (in-place)
I0811 00:58:16.270716   174 net.cpp:144] Setting up inception_4a/relu_3x3
I0811 00:58:16.270723   174 net.cpp:151] Top shape: 32 208 14 14 (1304576)
I0811 00:58:16.270728   174 net.cpp:159] Memory required for data: 1164083712
I0811 00:58:16.270733   174 layer_factory.hpp:77] Creating layer inception_4a/5x5_reduce
I0811 00:58:16.270746   174 net.cpp:94] Creating Layer inception_4a/5x5_reduce
I0811 00:58:16.270752   174 net.cpp:435] inception_4a/5x5_reduce <- pool3/3x3_s2_pool3/3x3_s2_0_split_2
I0811 00:58:16.270762   174 net.cpp:409] inception_4a/5x5_reduce -> inception_4a/5x5_reduce
I0811 00:58:16.271121   174 net.cpp:144] Setting up inception_4a/5x5_reduce
I0811 00:58:16.271133   174 net.cpp:151] Top shape: 32 16 14 14 (100352)
I0811 00:58:16.271138   174 net.cpp:159] Memory required for data: 1164485120
I0811 00:58:16.271148   174 layer_factory.hpp:77] Creating layer inception_4a/relu_5x5_reduce
I0811 00:58:16.271157   174 net.cpp:94] Creating Layer inception_4a/relu_5x5_reduce
I0811 00:58:16.271163   174 net.cpp:435] inception_4a/relu_5x5_reduce <- inception_4a/5x5_reduce
I0811 00:58:16.271173   174 net.cpp:396] inception_4a/relu_5x5_reduce -> inception_4a/5x5_reduce (in-place)
I0811 00:58:16.271183   174 net.cpp:144] Setting up inception_4a/relu_5x5_reduce
I0811 00:58:16.271190   174 net.cpp:151] Top shape: 32 16 14 14 (100352)
I0811 00:58:16.271195   174 net.cpp:159] Memory required for data: 1164886528
I0811 00:58:16.271200   174 layer_factory.hpp:77] Creating layer inception_4a/5x5
I0811 00:58:16.271212   174 net.cpp:94] Creating Layer inception_4a/5x5
I0811 00:58:16.271219   174 net.cpp:435] inception_4a/5x5 <- inception_4a/5x5_reduce
I0811 00:58:16.271229   174 net.cpp:409] inception_4a/5x5 -> inception_4a/5x5
I0811 00:58:16.271719   174 net.cpp:144] Setting up inception_4a/5x5
I0811 00:58:16.271733   174 net.cpp:151] Top shape: 32 48 14 14 (301056)
I0811 00:58:16.271737   174 net.cpp:159] Memory required for data: 1166090752
I0811 00:58:16.271746   174 layer_factory.hpp:77] Creating layer inception_4a/relu_5x5
I0811 00:58:16.271754   174 net.cpp:94] Creating Layer inception_4a/relu_5x5
I0811 00:58:16.271760   174 net.cpp:435] inception_4a/relu_5x5 <- inception_4a/5x5
I0811 00:58:16.271770   174 net.cpp:396] inception_4a/relu_5x5 -> inception_4a/5x5 (in-place)
I0811 00:58:16.271780   174 net.cpp:144] Setting up inception_4a/relu_5x5
I0811 00:58:16.271786   174 net.cpp:151] Top shape: 32 48 14 14 (301056)
I0811 00:58:16.271791   174 net.cpp:159] Memory required for data: 1167294976
I0811 00:58:16.271796   174 layer_factory.hpp:77] Creating layer inception_4a/pool
I0811 00:58:16.271806   174 net.cpp:94] Creating Layer inception_4a/pool
I0811 00:58:16.271811   174 net.cpp:435] inception_4a/pool <- pool3/3x3_s2_pool3/3x3_s2_0_split_3
I0811 00:58:16.271821   174 net.cpp:409] inception_4a/pool -> inception_4a/pool
I0811 00:58:16.271867   174 net.cpp:144] Setting up inception_4a/pool
I0811 00:58:16.271876   174 net.cpp:151] Top shape: 32 480 14 14 (3010560)
I0811 00:58:16.271881   174 net.cpp:159] Memory required for data: 1179337216
I0811 00:58:16.271886   174 layer_factory.hpp:77] Creating layer inception_4a/pool_proj
I0811 00:58:16.271917   174 net.cpp:94] Creating Layer inception_4a/pool_proj
I0811 00:58:16.271924   174 net.cpp:435] inception_4a/pool_proj <- inception_4a/pool
I0811 00:58:16.271935   174 net.cpp:409] inception_4a/pool_proj -> inception_4a/pool_proj
I0811 00:58:16.273496   174 net.cpp:144] Setting up inception_4a/pool_proj
I0811 00:58:16.273516   174 net.cpp:151] Top shape: 32 64 14 14 (401408)
I0811 00:58:16.273521   174 net.cpp:159] Memory required for data: 1180942848
I0811 00:58:16.273531   174 layer_factory.hpp:77] Creating layer inception_4a/relu_pool_proj
I0811 00:58:16.273541   174 net.cpp:94] Creating Layer inception_4a/relu_pool_proj
I0811 00:58:16.273548   174 net.cpp:435] inception_4a/relu_pool_proj <- inception_4a/pool_proj
I0811 00:58:16.273557   174 net.cpp:396] inception_4a/relu_pool_proj -> inception_4a/pool_proj (in-place)
I0811 00:58:16.273569   174 net.cpp:144] Setting up inception_4a/relu_pool_proj
I0811 00:58:16.273577   174 net.cpp:151] Top shape: 32 64 14 14 (401408)
I0811 00:58:16.273582   174 net.cpp:159] Memory required for data: 1182548480
I0811 00:58:16.273587   174 layer_factory.hpp:77] Creating layer inception_4a/output
I0811 00:58:16.273597   174 net.cpp:94] Creating Layer inception_4a/output
I0811 00:58:16.273602   174 net.cpp:435] inception_4a/output <- inception_4a/1x1
I0811 00:58:16.273608   174 net.cpp:435] inception_4a/output <- inception_4a/3x3
I0811 00:58:16.273615   174 net.cpp:435] inception_4a/output <- inception_4a/5x5
I0811 00:58:16.273622   174 net.cpp:435] inception_4a/output <- inception_4a/pool_proj
I0811 00:58:16.273629   174 net.cpp:409] inception_4a/output -> inception_4a/output
I0811 00:58:16.273664   174 net.cpp:144] Setting up inception_4a/output
I0811 00:58:16.273674   174 net.cpp:151] Top shape: 32 512 14 14 (3211264)
I0811 00:58:16.273677   174 net.cpp:159] Memory required for data: 1195393536
I0811 00:58:16.273684   174 layer_factory.hpp:77] Creating layer inception_4a/output_inception_4a/output_0_split
I0811 00:58:16.273694   174 net.cpp:94] Creating Layer inception_4a/output_inception_4a/output_0_split
I0811 00:58:16.273699   174 net.cpp:435] inception_4a/output_inception_4a/output_0_split <- inception_4a/output
I0811 00:58:16.273708   174 net.cpp:409] inception_4a/output_inception_4a/output_0_split -> inception_4a/output_inception_4a/output_0_split_0
I0811 00:58:16.273720   174 net.cpp:409] inception_4a/output_inception_4a/output_0_split -> inception_4a/output_inception_4a/output_0_split_1
I0811 00:58:16.273732   174 net.cpp:409] inception_4a/output_inception_4a/output_0_split -> inception_4a/output_inception_4a/output_0_split_2
I0811 00:58:16.273743   174 net.cpp:409] inception_4a/output_inception_4a/output_0_split -> inception_4a/output_inception_4a/output_0_split_3
I0811 00:58:16.273753   174 net.cpp:409] inception_4a/output_inception_4a/output_0_split -> inception_4a/output_inception_4a/output_0_split_4
I0811 00:58:16.273840   174 net.cpp:144] Setting up inception_4a/output_inception_4a/output_0_split
I0811 00:58:16.273849   174 net.cpp:151] Top shape: 32 512 14 14 (3211264)
I0811 00:58:16.273856   174 net.cpp:151] Top shape: 32 512 14 14 (3211264)
I0811 00:58:16.273864   174 net.cpp:151] Top shape: 32 512 14 14 (3211264)
I0811 00:58:16.273869   174 net.cpp:151] Top shape: 32 512 14 14 (3211264)
I0811 00:58:16.273876   174 net.cpp:151] Top shape: 32 512 14 14 (3211264)
I0811 00:58:16.273881   174 net.cpp:159] Memory required for data: 1259618816
I0811 00:58:16.273887   174 layer_factory.hpp:77] Creating layer loss1/ave_pool
I0811 00:58:16.273896   174 net.cpp:94] Creating Layer loss1/ave_pool
I0811 00:58:16.273901   174 net.cpp:435] loss1/ave_pool <- inception_4a/output_inception_4a/output_0_split_0
I0811 00:58:16.273910   174 net.cpp:409] loss1/ave_pool -> loss1/ave_pool
I0811 00:58:16.273952   174 net.cpp:144] Setting up loss1/ave_pool
I0811 00:58:16.273962   174 net.cpp:151] Top shape: 32 512 4 4 (262144)
I0811 00:58:16.273967   174 net.cpp:159] Memory required for data: 1260667392
I0811 00:58:16.273972   174 layer_factory.hpp:77] Creating layer loss1/conv
I0811 00:58:16.274003   174 net.cpp:94] Creating Layer loss1/conv
I0811 00:58:16.274010   174 net.cpp:435] loss1/conv <- loss1/ave_pool
I0811 00:58:16.274020   174 net.cpp:409] loss1/conv -> loss1/conv
I0811 00:58:16.275009   174 net.cpp:144] Setting up loss1/conv
I0811 00:58:16.275024   174 net.cpp:151] Top shape: 32 128 4 4 (65536)
I0811 00:58:16.275029   174 net.cpp:159] Memory required for data: 1260929536
I0811 00:58:16.275038   174 layer_factory.hpp:77] Creating layer loss1/relu_conv
I0811 00:58:16.275048   174 net.cpp:94] Creating Layer loss1/relu_conv
I0811 00:58:16.275053   174 net.cpp:435] loss1/relu_conv <- loss1/conv
I0811 00:58:16.275061   174 net.cpp:396] loss1/relu_conv -> loss1/conv (in-place)
I0811 00:58:16.275071   174 net.cpp:144] Setting up loss1/relu_conv
I0811 00:58:16.275079   174 net.cpp:151] Top shape: 32 128 4 4 (65536)
I0811 00:58:16.275084   174 net.cpp:159] Memory required for data: 1261191680
I0811 00:58:16.275089   174 layer_factory.hpp:77] Creating layer loss1/fc
I0811 00:58:16.275101   174 net.cpp:94] Creating Layer loss1/fc
I0811 00:58:16.275108   174 net.cpp:435] loss1/fc <- loss1/conv
I0811 00:58:16.275117   174 net.cpp:409] loss1/fc -> loss1/fc
I0811 00:58:16.304857   174 net.cpp:144] Setting up loss1/fc
I0811 00:58:16.304881   174 net.cpp:151] Top shape: 32 1024 (32768)
I0811 00:58:16.304888   174 net.cpp:159] Memory required for data: 1261322752
I0811 00:58:16.304898   174 layer_factory.hpp:77] Creating layer loss1/relu_fc
I0811 00:58:16.304908   174 net.cpp:94] Creating Layer loss1/relu_fc
I0811 00:58:16.304915   174 net.cpp:435] loss1/relu_fc <- loss1/fc
I0811 00:58:16.304924   174 net.cpp:396] loss1/relu_fc -> loss1/fc (in-place)
I0811 00:58:16.304936   174 net.cpp:144] Setting up loss1/relu_fc
I0811 00:58:16.304944   174 net.cpp:151] Top shape: 32 1024 (32768)
I0811 00:58:16.304949   174 net.cpp:159] Memory required for data: 1261453824
I0811 00:58:16.304955   174 layer_factory.hpp:77] Creating layer loss1/drop_fc
I0811 00:58:16.304978   174 net.cpp:94] Creating Layer loss1/drop_fc
I0811 00:58:16.304985   174 net.cpp:435] loss1/drop_fc <- loss1/fc
I0811 00:58:16.304992   174 net.cpp:396] loss1/drop_fc -> loss1/fc (in-place)
I0811 00:58:16.305027   174 net.cpp:144] Setting up loss1/drop_fc
I0811 00:58:16.305035   174 net.cpp:151] Top shape: 32 1024 (32768)
I0811 00:58:16.305040   174 net.cpp:159] Memory required for data: 1261584896
I0811 00:58:16.305047   174 layer_factory.hpp:77] Creating layer loss1/classifier
I0811 00:58:16.305056   174 net.cpp:94] Creating Layer loss1/classifier
I0811 00:58:16.305063   174 net.cpp:435] loss1/classifier <- loss1/fc
I0811 00:58:16.305073   174 net.cpp:409] loss1/classifier -> loss1/classifier
I0811 00:58:16.305222   174 net.cpp:144] Setting up loss1/classifier
I0811 00:58:16.305233   174 net.cpp:151] Top shape: 32 3 (96)
I0811 00:58:16.305238   174 net.cpp:159] Memory required for data: 1261585280
I0811 00:58:16.305246   174 layer_factory.hpp:77] Creating layer loss1/loss
I0811 00:58:16.305256   174 net.cpp:94] Creating Layer loss1/loss
I0811 00:58:16.305263   174 net.cpp:435] loss1/loss <- loss1/classifier
I0811 00:58:16.305270   174 net.cpp:435] loss1/loss <- label_train-data_1_split_0
I0811 00:58:16.305279   174 net.cpp:409] loss1/loss -> loss1/loss
I0811 00:58:16.306684   174 layer_factory.hpp:77] Creating layer loss1/loss
I0811 00:58:16.306795   174 net.cpp:144] Setting up loss1/loss
I0811 00:58:16.306803   174 net.cpp:151] Top shape: (1)
I0811 00:58:16.306807   174 net.cpp:154]     with loss weight 0.3
I0811 00:58:16.306826   174 net.cpp:159] Memory required for data: 1261585284
I0811 00:58:16.306831   174 layer_factory.hpp:77] Creating layer inception_4b/1x1
I0811 00:58:16.306841   174 net.cpp:94] Creating Layer inception_4b/1x1
I0811 00:58:16.306845   174 net.cpp:435] inception_4b/1x1 <- inception_4a/output_inception_4a/output_0_split_1
I0811 00:58:16.306852   174 net.cpp:409] inception_4b/1x1 -> inception_4b/1x1
I0811 00:58:16.307570   174 net.cpp:144] Setting up inception_4b/1x1
I0811 00:58:16.307580   174 net.cpp:151] Top shape: 32 160 14 14 (1003520)
I0811 00:58:16.307600   174 net.cpp:159] Memory required for data: 1265599364
I0811 00:58:16.307607   174 layer_factory.hpp:77] Creating layer inception_4b/relu_1x1
I0811 00:58:16.307613   174 net.cpp:94] Creating Layer inception_4b/relu_1x1
I0811 00:58:16.307617   174 net.cpp:435] inception_4b/relu_1x1 <- inception_4b/1x1
I0811 00:58:16.307623   174 net.cpp:396] inception_4b/relu_1x1 -> inception_4b/1x1 (in-place)
I0811 00:58:16.307631   174 net.cpp:144] Setting up inception_4b/relu_1x1
I0811 00:58:16.307636   174 net.cpp:151] Top shape: 32 160 14 14 (1003520)
I0811 00:58:16.307655   174 net.cpp:159] Memory required for data: 1269613444
I0811 00:58:16.307658   174 layer_factory.hpp:77] Creating layer inception_4b/3x3_reduce
I0811 00:58:16.307667   174 net.cpp:94] Creating Layer inception_4b/3x3_reduce
I0811 00:58:16.307672   174 net.cpp:435] inception_4b/3x3_reduce <- inception_4a/output_inception_4a/output_0_split_2
I0811 00:58:16.307677   174 net.cpp:409] inception_4b/3x3_reduce -> inception_4b/3x3_reduce
I0811 00:58:16.308302   174 net.cpp:144] Setting up inception_4b/3x3_reduce
I0811 00:58:16.308315   174 net.cpp:151] Top shape: 32 112 14 14 (702464)
I0811 00:58:16.308317   174 net.cpp:159] Memory required for data: 1272423300
I0811 00:58:16.308326   174 layer_factory.hpp:77] Creating layer inception_4b/relu_3x3_reduce
I0811 00:58:16.308331   174 net.cpp:94] Creating Layer inception_4b/relu_3x3_reduce
I0811 00:58:16.308336   174 net.cpp:435] inception_4b/relu_3x3_reduce <- inception_4b/3x3_reduce
I0811 00:58:16.308342   174 net.cpp:396] inception_4b/relu_3x3_reduce -> inception_4b/3x3_reduce (in-place)
I0811 00:58:16.308349   174 net.cpp:144] Setting up inception_4b/relu_3x3_reduce
I0811 00:58:16.308354   174 net.cpp:151] Top shape: 32 112 14 14 (702464)
I0811 00:58:16.308357   174 net.cpp:159] Memory required for data: 1275233156
I0811 00:58:16.308360   174 layer_factory.hpp:77] Creating layer inception_4b/3x3
I0811 00:58:16.308377   174 net.cpp:94] Creating Layer inception_4b/3x3
I0811 00:58:16.308382   174 net.cpp:435] inception_4b/3x3 <- inception_4b/3x3_reduce
I0811 00:58:16.308387   174 net.cpp:409] inception_4b/3x3 -> inception_4b/3x3
I0811 00:58:16.310649   174 net.cpp:144] Setting up inception_4b/3x3
I0811 00:58:16.310678   174 net.cpp:151] Top shape: 32 224 14 14 (1404928)
I0811 00:58:16.310683   174 net.cpp:159] Memory required for data: 1280852868
I0811 00:58:16.310688   174 layer_factory.hpp:77] Creating layer inception_4b/relu_3x3
I0811 00:58:16.310695   174 net.cpp:94] Creating Layer inception_4b/relu_3x3
I0811 00:58:16.310700   174 net.cpp:435] inception_4b/relu_3x3 <- inception_4b/3x3
I0811 00:58:16.310706   174 net.cpp:396] inception_4b/relu_3x3 -> inception_4b/3x3 (in-place)
I0811 00:58:16.310714   174 net.cpp:144] Setting up inception_4b/relu_3x3
I0811 00:58:16.310719   174 net.cpp:151] Top shape: 32 224 14 14 (1404928)
I0811 00:58:16.310722   174 net.cpp:159] Memory required for data: 1286472580
I0811 00:58:16.310726   174 layer_factory.hpp:77] Creating layer inception_4b/5x5_reduce
I0811 00:58:16.310735   174 net.cpp:94] Creating Layer inception_4b/5x5_reduce
I0811 00:58:16.310739   174 net.cpp:435] inception_4b/5x5_reduce <- inception_4a/output_inception_4a/output_0_split_3
I0811 00:58:16.310746   174 net.cpp:409] inception_4b/5x5_reduce -> inception_4b/5x5_reduce
I0811 00:58:16.311022   174 net.cpp:144] Setting up inception_4b/5x5_reduce
I0811 00:58:16.311030   174 net.cpp:151] Top shape: 32 24 14 14 (150528)
I0811 00:58:16.311033   174 net.cpp:159] Memory required for data: 1287074692
I0811 00:58:16.311038   174 layer_factory.hpp:77] Creating layer inception_4b/relu_5x5_reduce
I0811 00:58:16.311045   174 net.cpp:94] Creating Layer inception_4b/relu_5x5_reduce
I0811 00:58:16.311049   174 net.cpp:435] inception_4b/relu_5x5_reduce <- inception_4b/5x5_reduce
I0811 00:58:16.311054   174 net.cpp:396] inception_4b/relu_5x5_reduce -> inception_4b/5x5_reduce (in-place)
I0811 00:58:16.311061   174 net.cpp:144] Setting up inception_4b/relu_5x5_reduce
I0811 00:58:16.311081   174 net.cpp:151] Top shape: 32 24 14 14 (150528)
I0811 00:58:16.311086   174 net.cpp:159] Memory required for data: 1287676804
I0811 00:58:16.311089   174 layer_factory.hpp:77] Creating layer inception_4b/5x5
I0811 00:58:16.311098   174 net.cpp:94] Creating Layer inception_4b/5x5
I0811 00:58:16.311102   174 net.cpp:435] inception_4b/5x5 <- inception_4b/5x5_reduce
I0811 00:58:16.311110   174 net.cpp:409] inception_4b/5x5 -> inception_4b/5x5
I0811 00:58:16.312217   174 net.cpp:144] Setting up inception_4b/5x5
I0811 00:58:16.312232   174 net.cpp:151] Top shape: 32 64 14 14 (401408)
I0811 00:58:16.312237   174 net.cpp:159] Memory required for data: 1289282436
I0811 00:58:16.312242   174 layer_factory.hpp:77] Creating layer inception_4b/relu_5x5
I0811 00:58:16.312249   174 net.cpp:94] Creating Layer inception_4b/relu_5x5
I0811 00:58:16.312253   174 net.cpp:435] inception_4b/relu_5x5 <- inception_4b/5x5
I0811 00:58:16.312260   174 net.cpp:396] inception_4b/relu_5x5 -> inception_4b/5x5 (in-place)
I0811 00:58:16.312268   174 net.cpp:144] Setting up inception_4b/relu_5x5
I0811 00:58:16.312273   174 net.cpp:151] Top shape: 32 64 14 14 (401408)
I0811 00:58:16.312275   174 net.cpp:159] Memory required for data: 1290888068
I0811 00:58:16.312280   174 layer_factory.hpp:77] Creating layer inception_4b/pool
I0811 00:58:16.312288   174 net.cpp:94] Creating Layer inception_4b/pool
I0811 00:58:16.312291   174 net.cpp:435] inception_4b/pool <- inception_4a/output_inception_4a/output_0_split_4
I0811 00:58:16.312297   174 net.cpp:409] inception_4b/pool -> inception_4b/pool
I0811 00:58:16.312343   174 net.cpp:144] Setting up inception_4b/pool
I0811 00:58:16.312350   174 net.cpp:151] Top shape: 32 512 14 14 (3211264)
I0811 00:58:16.312353   174 net.cpp:159] Memory required for data: 1303733124
I0811 00:58:16.312356   174 layer_factory.hpp:77] Creating layer inception_4b/pool_proj
I0811 00:58:16.312374   174 net.cpp:94] Creating Layer inception_4b/pool_proj
I0811 00:58:16.312378   174 net.cpp:435] inception_4b/pool_proj <- inception_4b/pool
I0811 00:58:16.312386   174 net.cpp:409] inception_4b/pool_proj -> inception_4b/pool_proj
I0811 00:58:16.312764   174 net.cpp:144] Setting up inception_4b/pool_proj
I0811 00:58:16.312772   174 net.cpp:151] Top shape: 32 64 14 14 (401408)
I0811 00:58:16.312775   174 net.cpp:159] Memory required for data: 1305338756
I0811 00:58:16.312781   174 layer_factory.hpp:77] Creating layer inception_4b/relu_pool_proj
I0811 00:58:16.312786   174 net.cpp:94] Creating Layer inception_4b/relu_pool_proj
I0811 00:58:16.312790   174 net.cpp:435] inception_4b/relu_pool_proj <- inception_4b/pool_proj
I0811 00:58:16.312796   174 net.cpp:396] inception_4b/relu_pool_proj -> inception_4b/pool_proj (in-place)
I0811 00:58:16.312803   174 net.cpp:144] Setting up inception_4b/relu_pool_proj
I0811 00:58:16.312808   174 net.cpp:151] Top shape: 32 64 14 14 (401408)
I0811 00:58:16.312810   174 net.cpp:159] Memory required for data: 1306944388
I0811 00:58:16.312813   174 layer_factory.hpp:77] Creating layer inception_4b/output
I0811 00:58:16.312819   174 net.cpp:94] Creating Layer inception_4b/output
I0811 00:58:16.312824   174 net.cpp:435] inception_4b/output <- inception_4b/1x1
I0811 00:58:16.312827   174 net.cpp:435] inception_4b/output <- inception_4b/3x3
I0811 00:58:16.312831   174 net.cpp:435] inception_4b/output <- inception_4b/5x5
I0811 00:58:16.312835   174 net.cpp:435] inception_4b/output <- inception_4b/pool_proj
I0811 00:58:16.312840   174 net.cpp:409] inception_4b/output -> inception_4b/output
I0811 00:58:16.312863   174 net.cpp:144] Setting up inception_4b/output
I0811 00:58:16.312871   174 net.cpp:151] Top shape: 32 512 14 14 (3211264)
I0811 00:58:16.312875   174 net.cpp:159] Memory required for data: 1319789444
I0811 00:58:16.312877   174 layer_factory.hpp:77] Creating layer inception_4b/output_inception_4b/output_0_split
I0811 00:58:16.312885   174 net.cpp:94] Creating Layer inception_4b/output_inception_4b/output_0_split
I0811 00:58:16.312888   174 net.cpp:435] inception_4b/output_inception_4b/output_0_split <- inception_4b/output
I0811 00:58:16.312909   174 net.cpp:409] inception_4b/output_inception_4b/output_0_split -> inception_4b/output_inception_4b/output_0_split_0
I0811 00:58:16.312917   174 net.cpp:409] inception_4b/output_inception_4b/output_0_split -> inception_4b/output_inception_4b/output_0_split_1
I0811 00:58:16.312924   174 net.cpp:409] inception_4b/output_inception_4b/output_0_split -> inception_4b/output_inception_4b/output_0_split_2
I0811 00:58:16.312932   174 net.cpp:409] inception_4b/output_inception_4b/output_0_split -> inception_4b/output_inception_4b/output_0_split_3
I0811 00:58:16.312981   174 net.cpp:144] Setting up inception_4b/output_inception_4b/output_0_split
I0811 00:58:16.312988   174 net.cpp:151] Top shape: 32 512 14 14 (3211264)
I0811 00:58:16.312991   174 net.cpp:151] Top shape: 32 512 14 14 (3211264)
I0811 00:58:16.312995   174 net.cpp:151] Top shape: 32 512 14 14 (3211264)
I0811 00:58:16.312999   174 net.cpp:151] Top shape: 32 512 14 14 (3211264)
I0811 00:58:16.313001   174 net.cpp:159] Memory required for data: 1371169668
I0811 00:58:16.313005   174 layer_factory.hpp:77] Creating layer inception_4c/1x1
I0811 00:58:16.313014   174 net.cpp:94] Creating Layer inception_4c/1x1
I0811 00:58:16.313019   174 net.cpp:435] inception_4c/1x1 <- inception_4b/output_inception_4b/output_0_split_0
I0811 00:58:16.313026   174 net.cpp:409] inception_4c/1x1 -> inception_4c/1x1
I0811 00:58:16.313657   174 net.cpp:144] Setting up inception_4c/1x1
I0811 00:58:16.313665   174 net.cpp:151] Top shape: 32 128 14 14 (802816)
I0811 00:58:16.313668   174 net.cpp:159] Memory required for data: 1374380932
I0811 00:58:16.313673   174 layer_factory.hpp:77] Creating layer inception_4c/relu_1x1
I0811 00:58:16.313679   174 net.cpp:94] Creating Layer inception_4c/relu_1x1
I0811 00:58:16.313683   174 net.cpp:435] inception_4c/relu_1x1 <- inception_4c/1x1
I0811 00:58:16.313689   174 net.cpp:396] inception_4c/relu_1x1 -> inception_4c/1x1 (in-place)
I0811 00:58:16.313695   174 net.cpp:144] Setting up inception_4c/relu_1x1
I0811 00:58:16.313700   174 net.cpp:151] Top shape: 32 128 14 14 (802816)
I0811 00:58:16.313704   174 net.cpp:159] Memory required for data: 1377592196
I0811 00:58:16.313706   174 layer_factory.hpp:77] Creating layer inception_4c/3x3_reduce
I0811 00:58:16.313714   174 net.cpp:94] Creating Layer inception_4c/3x3_reduce
I0811 00:58:16.313719   174 net.cpp:435] inception_4c/3x3_reduce <- inception_4b/output_inception_4b/output_0_split_1
I0811 00:58:16.313724   174 net.cpp:409] inception_4c/3x3_reduce -> inception_4c/3x3_reduce
I0811 00:58:16.314291   174 net.cpp:144] Setting up inception_4c/3x3_reduce
I0811 00:58:16.314301   174 net.cpp:151] Top shape: 32 128 14 14 (802816)
I0811 00:58:16.314303   174 net.cpp:159] Memory required for data: 1380803460
I0811 00:58:16.314308   174 layer_factory.hpp:77] Creating layer inception_4c/relu_3x3_reduce
I0811 00:58:16.314314   174 net.cpp:94] Creating Layer inception_4c/relu_3x3_reduce
I0811 00:58:16.314317   174 net.cpp:435] inception_4c/relu_3x3_reduce <- inception_4c/3x3_reduce
I0811 00:58:16.314324   174 net.cpp:396] inception_4c/relu_3x3_reduce -> inception_4c/3x3_reduce (in-place)
I0811 00:58:16.314330   174 net.cpp:144] Setting up inception_4c/relu_3x3_reduce
I0811 00:58:16.314334   174 net.cpp:151] Top shape: 32 128 14 14 (802816)
I0811 00:58:16.314337   174 net.cpp:159] Memory required for data: 1384014724
I0811 00:58:16.314340   174 layer_factory.hpp:77] Creating layer inception_4c/3x3
I0811 00:58:16.314348   174 net.cpp:94] Creating Layer inception_4c/3x3
I0811 00:58:16.314352   174 net.cpp:435] inception_4c/3x3 <- inception_4c/3x3_reduce
I0811 00:58:16.314358   174 net.cpp:409] inception_4c/3x3 -> inception_4c/3x3
I0811 00:58:16.318233   174 net.cpp:144] Setting up inception_4c/3x3
I0811 00:58:16.318254   174 net.cpp:151] Top shape: 32 256 14 14 (1605632)
I0811 00:58:16.318260   174 net.cpp:159] Memory required for data: 1390437252
I0811 00:58:16.318280   174 layer_factory.hpp:77] Creating layer inception_4c/relu_3x3
I0811 00:58:16.318291   174 net.cpp:94] Creating Layer inception_4c/relu_3x3
I0811 00:58:16.318317   174 net.cpp:435] inception_4c/relu_3x3 <- inception_4c/3x3
I0811 00:58:16.318329   174 net.cpp:396] inception_4c/relu_3x3 -> inception_4c/3x3 (in-place)
I0811 00:58:16.318342   174 net.cpp:144] Setting up inception_4c/relu_3x3
I0811 00:58:16.318351   174 net.cpp:151] Top shape: 32 256 14 14 (1605632)
I0811 00:58:16.318354   174 net.cpp:159] Memory required for data: 1396859780
I0811 00:58:16.318361   174 layer_factory.hpp:77] Creating layer inception_4c/5x5_reduce
I0811 00:58:16.318395   174 net.cpp:94] Creating Layer inception_4c/5x5_reduce
I0811 00:58:16.318403   174 net.cpp:435] inception_4c/5x5_reduce <- inception_4b/output_inception_4b/output_0_split_2
I0811 00:58:16.318414   174 net.cpp:409] inception_4c/5x5_reduce -> inception_4c/5x5_reduce
I0811 00:58:16.318843   174 net.cpp:144] Setting up inception_4c/5x5_reduce
I0811 00:58:16.318856   174 net.cpp:151] Top shape: 32 24 14 14 (150528)
I0811 00:58:16.318861   174 net.cpp:159] Memory required for data: 1397461892
I0811 00:58:16.318871   174 layer_factory.hpp:77] Creating layer inception_4c/relu_5x5_reduce
I0811 00:58:16.318879   174 net.cpp:94] Creating Layer inception_4c/relu_5x5_reduce
I0811 00:58:16.318888   174 net.cpp:435] inception_4c/relu_5x5_reduce <- inception_4c/5x5_reduce
I0811 00:58:16.318897   174 net.cpp:396] inception_4c/relu_5x5_reduce -> inception_4c/5x5_reduce (in-place)
I0811 00:58:16.318908   174 net.cpp:144] Setting up inception_4c/relu_5x5_reduce
I0811 00:58:16.318915   174 net.cpp:151] Top shape: 32 24 14 14 (150528)
I0811 00:58:16.318922   174 net.cpp:159] Memory required for data: 1398064004
I0811 00:58:16.318926   174 layer_factory.hpp:77] Creating layer inception_4c/5x5
I0811 00:58:16.318938   174 net.cpp:94] Creating Layer inception_4c/5x5
I0811 00:58:16.318944   174 net.cpp:435] inception_4c/5x5 <- inception_4c/5x5_reduce
I0811 00:58:16.318954   174 net.cpp:409] inception_4c/5x5 -> inception_4c/5x5
I0811 00:58:16.319690   174 net.cpp:144] Setting up inception_4c/5x5
I0811 00:58:16.319703   174 net.cpp:151] Top shape: 32 64 14 14 (401408)
I0811 00:58:16.319708   174 net.cpp:159] Memory required for data: 1399669636
I0811 00:58:16.319717   174 layer_factory.hpp:77] Creating layer inception_4c/relu_5x5
I0811 00:58:16.319725   174 net.cpp:94] Creating Layer inception_4c/relu_5x5
I0811 00:58:16.319731   174 net.cpp:435] inception_4c/relu_5x5 <- inception_4c/5x5
I0811 00:58:16.319739   174 net.cpp:396] inception_4c/relu_5x5 -> inception_4c/5x5 (in-place)
I0811 00:58:16.319749   174 net.cpp:144] Setting up inception_4c/relu_5x5
I0811 00:58:16.319756   174 net.cpp:151] Top shape: 32 64 14 14 (401408)
I0811 00:58:16.319761   174 net.cpp:159] Memory required for data: 1401275268
I0811 00:58:16.319766   174 layer_factory.hpp:77] Creating layer inception_4c/pool
I0811 00:58:16.319775   174 net.cpp:94] Creating Layer inception_4c/pool
I0811 00:58:16.319782   174 net.cpp:435] inception_4c/pool <- inception_4b/output_inception_4b/output_0_split_3
I0811 00:58:16.319790   174 net.cpp:409] inception_4c/pool -> inception_4c/pool
I0811 00:58:16.319839   174 net.cpp:144] Setting up inception_4c/pool
I0811 00:58:16.319849   174 net.cpp:151] Top shape: 32 512 14 14 (3211264)
I0811 00:58:16.319854   174 net.cpp:159] Memory required for data: 1414120324
I0811 00:58:16.319859   174 layer_factory.hpp:77] Creating layer inception_4c/pool_proj
I0811 00:58:16.319870   174 net.cpp:94] Creating Layer inception_4c/pool_proj
I0811 00:58:16.319877   174 net.cpp:435] inception_4c/pool_proj <- inception_4c/pool
I0811 00:58:16.319887   174 net.cpp:409] inception_4c/pool_proj -> inception_4c/pool_proj
I0811 00:58:16.320564   174 net.cpp:144] Setting up inception_4c/pool_proj
I0811 00:58:16.320595   174 net.cpp:151] Top shape: 32 64 14 14 (401408)
I0811 00:58:16.320600   174 net.cpp:159] Memory required for data: 1415725956
I0811 00:58:16.320608   174 layer_factory.hpp:77] Creating layer inception_4c/relu_pool_proj
I0811 00:58:16.320618   174 net.cpp:94] Creating Layer inception_4c/relu_pool_proj
I0811 00:58:16.320624   174 net.cpp:435] inception_4c/relu_pool_proj <- inception_4c/pool_proj
I0811 00:58:16.320650   174 net.cpp:396] inception_4c/relu_pool_proj -> inception_4c/pool_proj (in-place)
I0811 00:58:16.320663   174 net.cpp:144] Setting up inception_4c/relu_pool_proj
I0811 00:58:16.320672   174 net.cpp:151] Top shape: 32 64 14 14 (401408)
I0811 00:58:16.320677   174 net.cpp:159] Memory required for data: 1417331588
I0811 00:58:16.320681   174 layer_factory.hpp:77] Creating layer inception_4c/output
I0811 00:58:16.320691   174 net.cpp:94] Creating Layer inception_4c/output
I0811 00:58:16.320698   174 net.cpp:435] inception_4c/output <- inception_4c/1x1
I0811 00:58:16.320703   174 net.cpp:435] inception_4c/output <- inception_4c/3x3
I0811 00:58:16.320709   174 net.cpp:435] inception_4c/output <- inception_4c/5x5
I0811 00:58:16.320716   174 net.cpp:435] inception_4c/output <- inception_4c/pool_proj
I0811 00:58:16.320724   174 net.cpp:409] inception_4c/output -> inception_4c/output
I0811 00:58:16.320777   174 net.cpp:144] Setting up inception_4c/output
I0811 00:58:16.320786   174 net.cpp:151] Top shape: 32 512 14 14 (3211264)
I0811 00:58:16.320791   174 net.cpp:159] Memory required for data: 1430176644
I0811 00:58:16.320798   174 layer_factory.hpp:77] Creating layer inception_4c/output_inception_4c/output_0_split
I0811 00:58:16.320808   174 net.cpp:94] Creating Layer inception_4c/output_inception_4c/output_0_split
I0811 00:58:16.320816   174 net.cpp:435] inception_4c/output_inception_4c/output_0_split <- inception_4c/output
I0811 00:58:16.320825   174 net.cpp:409] inception_4c/output_inception_4c/output_0_split -> inception_4c/output_inception_4c/output_0_split_0
I0811 00:58:16.320837   174 net.cpp:409] inception_4c/output_inception_4c/output_0_split -> inception_4c/output_inception_4c/output_0_split_1
I0811 00:58:16.320847   174 net.cpp:409] inception_4c/output_inception_4c/output_0_split -> inception_4c/output_inception_4c/output_0_split_2
I0811 00:58:16.320910   174 net.cpp:409] inception_4c/output_inception_4c/output_0_split -> inception_4c/output_inception_4c/output_0_split_3
I0811 00:58:16.320994   174 net.cpp:144] Setting up inception_4c/output_inception_4c/output_0_split
I0811 00:58:16.321004   174 net.cpp:151] Top shape: 32 512 14 14 (3211264)
I0811 00:58:16.321012   174 net.cpp:151] Top shape: 32 512 14 14 (3211264)
I0811 00:58:16.321018   174 net.cpp:151] Top shape: 32 512 14 14 (3211264)
I0811 00:58:16.321025   174 net.cpp:151] Top shape: 32 512 14 14 (3211264)
I0811 00:58:16.321030   174 net.cpp:159] Memory required for data: 1481556868
I0811 00:58:16.321035   174 layer_factory.hpp:77] Creating layer inception_4d/1x1
I0811 00:58:16.321115   174 net.cpp:94] Creating Layer inception_4d/1x1
I0811 00:58:16.321123   174 net.cpp:435] inception_4d/1x1 <- inception_4c/output_inception_4c/output_0_split_0
I0811 00:58:16.321135   174 net.cpp:409] inception_4d/1x1 -> inception_4d/1x1
I0811 00:58:16.323045   174 net.cpp:144] Setting up inception_4d/1x1
I0811 00:58:16.323063   174 net.cpp:151] Top shape: 32 112 14 14 (702464)
I0811 00:58:16.323069   174 net.cpp:159] Memory required for data: 1484366724
I0811 00:58:16.323079   174 layer_factory.hpp:77] Creating layer inception_4d/relu_1x1
I0811 00:58:16.323089   174 net.cpp:94] Creating Layer inception_4d/relu_1x1
I0811 00:58:16.323096   174 net.cpp:435] inception_4d/relu_1x1 <- inception_4d/1x1
I0811 00:58:16.323107   174 net.cpp:396] inception_4d/relu_1x1 -> inception_4d/1x1 (in-place)
I0811 00:58:16.323123   174 net.cpp:144] Setting up inception_4d/relu_1x1
I0811 00:58:16.323132   174 net.cpp:151] Top shape: 32 112 14 14 (702464)
I0811 00:58:16.323137   174 net.cpp:159] Memory required for data: 1487176580
I0811 00:58:16.323143   174 layer_factory.hpp:77] Creating layer inception_4d/3x3_reduce
I0811 00:58:16.323158   174 net.cpp:94] Creating Layer inception_4d/3x3_reduce
I0811 00:58:16.323168   174 net.cpp:435] inception_4d/3x3_reduce <- inception_4c/output_inception_4c/output_0_split_1
I0811 00:58:16.323179   174 net.cpp:409] inception_4d/3x3_reduce -> inception_4d/3x3_reduce
I0811 00:58:16.324446   174 net.cpp:144] Setting up inception_4d/3x3_reduce
I0811 00:58:16.324466   174 net.cpp:151] Top shape: 32 144 14 14 (903168)
I0811 00:58:16.324471   174 net.cpp:159] Memory required for data: 1490789252
I0811 00:58:16.324481   174 layer_factory.hpp:77] Creating layer inception_4d/relu_3x3_reduce
I0811 00:58:16.324491   174 net.cpp:94] Creating Layer inception_4d/relu_3x3_reduce
I0811 00:58:16.324498   174 net.cpp:435] inception_4d/relu_3x3_reduce <- inception_4d/3x3_reduce
I0811 00:58:16.324508   174 net.cpp:396] inception_4d/relu_3x3_reduce -> inception_4d/3x3_reduce (in-place)
I0811 00:58:16.324519   174 net.cpp:144] Setting up inception_4d/relu_3x3_reduce
I0811 00:58:16.324527   174 net.cpp:151] Top shape: 32 144 14 14 (903168)
I0811 00:58:16.324532   174 net.cpp:159] Memory required for data: 1494401924
I0811 00:58:16.324537   174 layer_factory.hpp:77] Creating layer inception_4d/3x3
I0811 00:58:16.324550   174 net.cpp:94] Creating Layer inception_4d/3x3
I0811 00:58:16.324556   174 net.cpp:435] inception_4d/3x3 <- inception_4d/3x3_reduce
I0811 00:58:16.324568   174 net.cpp:409] inception_4d/3x3 -> inception_4d/3x3
I0811 00:58:16.329991   174 net.cpp:144] Setting up inception_4d/3x3
I0811 00:58:16.330015   174 net.cpp:151] Top shape: 32 288 14 14 (1806336)
I0811 00:58:16.330024   174 net.cpp:159] Memory required for data: 1501627268
I0811 00:58:16.330034   174 layer_factory.hpp:77] Creating layer inception_4d/relu_3x3
I0811 00:58:16.330044   174 net.cpp:94] Creating Layer inception_4d/relu_3x3
I0811 00:58:16.330051   174 net.cpp:435] inception_4d/relu_3x3 <- inception_4d/3x3
I0811 00:58:16.330075   174 net.cpp:396] inception_4d/relu_3x3 -> inception_4d/3x3 (in-place)
I0811 00:58:16.330087   174 net.cpp:144] Setting up inception_4d/relu_3x3
I0811 00:58:16.330106   174 net.cpp:151] Top shape: 32 288 14 14 (1806336)
I0811 00:58:16.330111   174 net.cpp:159] Memory required for data: 1508852612
I0811 00:58:16.330116   174 layer_factory.hpp:77] Creating layer inception_4d/5x5_reduce
I0811 00:58:16.330140   174 net.cpp:94] Creating Layer inception_4d/5x5_reduce
I0811 00:58:16.330147   174 net.cpp:435] inception_4d/5x5_reduce <- inception_4c/output_inception_4c/output_0_split_2
I0811 00:58:16.330158   174 net.cpp:409] inception_4d/5x5_reduce -> inception_4d/5x5_reduce
I0811 00:58:16.330655   174 net.cpp:144] Setting up inception_4d/5x5_reduce
I0811 00:58:16.330669   174 net.cpp:151] Top shape: 32 32 14 14 (200704)
I0811 00:58:16.330674   174 net.cpp:159] Memory required for data: 1509655428
I0811 00:58:16.330683   174 layer_factory.hpp:77] Creating layer inception_4d/relu_5x5_reduce
I0811 00:58:16.330693   174 net.cpp:94] Creating Layer inception_4d/relu_5x5_reduce
I0811 00:58:16.330698   174 net.cpp:435] inception_4d/relu_5x5_reduce <- inception_4d/5x5_reduce
I0811 00:58:16.330708   174 net.cpp:396] inception_4d/relu_5x5_reduce -> inception_4d/5x5_reduce (in-place)
I0811 00:58:16.330718   174 net.cpp:144] Setting up inception_4d/relu_5x5_reduce
I0811 00:58:16.330725   174 net.cpp:151] Top shape: 32 32 14 14 (200704)
I0811 00:58:16.330732   174 net.cpp:159] Memory required for data: 1510458244
I0811 00:58:16.330737   174 layer_factory.hpp:77] Creating layer inception_4d/5x5
I0811 00:58:16.330750   174 net.cpp:94] Creating Layer inception_4d/5x5
I0811 00:58:16.330756   174 net.cpp:435] inception_4d/5x5 <- inception_4d/5x5_reduce
I0811 00:58:16.330766   174 net.cpp:409] inception_4d/5x5 -> inception_4d/5x5
I0811 00:58:16.331666   174 net.cpp:144] Setting up inception_4d/5x5
I0811 00:58:16.331681   174 net.cpp:151] Top shape: 32 64 14 14 (401408)
I0811 00:58:16.331686   174 net.cpp:159] Memory required for data: 1512063876
I0811 00:58:16.331696   174 layer_factory.hpp:77] Creating layer inception_4d/relu_5x5
I0811 00:58:16.331704   174 net.cpp:94] Creating Layer inception_4d/relu_5x5
I0811 00:58:16.331710   174 net.cpp:435] inception_4d/relu_5x5 <- inception_4d/5x5
I0811 00:58:16.331719   174 net.cpp:396] inception_4d/relu_5x5 -> inception_4d/5x5 (in-place)
I0811 00:58:16.331729   174 net.cpp:144] Setting up inception_4d/relu_5x5
I0811 00:58:16.331759   174 net.cpp:151] Top shape: 32 64 14 14 (401408)
I0811 00:58:16.331765   174 net.cpp:159] Memory required for data: 1513669508
I0811 00:58:16.331770   174 layer_factory.hpp:77] Creating layer inception_4d/pool
I0811 00:58:16.331780   174 net.cpp:94] Creating Layer inception_4d/pool
I0811 00:58:16.331786   174 net.cpp:435] inception_4d/pool <- inception_4c/output_inception_4c/output_0_split_3
I0811 00:58:16.331796   174 net.cpp:409] inception_4d/pool -> inception_4d/pool
I0811 00:58:16.331854   174 net.cpp:144] Setting up inception_4d/pool
I0811 00:58:16.331863   174 net.cpp:151] Top shape: 32 512 14 14 (3211264)
I0811 00:58:16.331869   174 net.cpp:159] Memory required for data: 1526514564
I0811 00:58:16.331876   174 layer_factory.hpp:77] Creating layer inception_4d/pool_proj
I0811 00:58:16.331899   174 net.cpp:94] Creating Layer inception_4d/pool_proj
I0811 00:58:16.331905   174 net.cpp:435] inception_4d/pool_proj <- inception_4d/pool
I0811 00:58:16.331915   174 net.cpp:409] inception_4d/pool_proj -> inception_4d/pool_proj
I0811 00:58:16.332625   174 net.cpp:144] Setting up inception_4d/pool_proj
I0811 00:58:16.332641   174 net.cpp:151] Top shape: 32 64 14 14 (401408)
I0811 00:58:16.332646   174 net.cpp:159] Memory required for data: 1528120196
I0811 00:58:16.332655   174 layer_factory.hpp:77] Creating layer inception_4d/relu_pool_proj
I0811 00:58:16.332664   174 net.cpp:94] Creating Layer inception_4d/relu_pool_proj
I0811 00:58:16.332671   174 net.cpp:435] inception_4d/relu_pool_proj <- inception_4d/pool_proj
I0811 00:58:16.332680   174 net.cpp:396] inception_4d/relu_pool_proj -> inception_4d/pool_proj (in-place)
I0811 00:58:16.332690   174 net.cpp:144] Setting up inception_4d/relu_pool_proj
I0811 00:58:16.332697   174 net.cpp:151] Top shape: 32 64 14 14 (401408)
I0811 00:58:16.332702   174 net.cpp:159] Memory required for data: 1529725828
I0811 00:58:16.332707   174 layer_factory.hpp:77] Creating layer inception_4d/output
I0811 00:58:16.332717   174 net.cpp:94] Creating Layer inception_4d/output
I0811 00:58:16.332722   174 net.cpp:435] inception_4d/output <- inception_4d/1x1
I0811 00:58:16.332729   174 net.cpp:435] inception_4d/output <- inception_4d/3x3
I0811 00:58:16.332736   174 net.cpp:435] inception_4d/output <- inception_4d/5x5
I0811 00:58:16.332741   174 net.cpp:435] inception_4d/output <- inception_4d/pool_proj
I0811 00:58:16.332751   174 net.cpp:409] inception_4d/output -> inception_4d/output
I0811 00:58:16.332782   174 net.cpp:144] Setting up inception_4d/output
I0811 00:58:16.332790   174 net.cpp:151] Top shape: 32 528 14 14 (3311616)
I0811 00:58:16.332795   174 net.cpp:159] Memory required for data: 1542972292
I0811 00:58:16.332800   174 layer_factory.hpp:77] Creating layer inception_4d/output_inception_4d/output_0_split
I0811 00:58:16.332811   174 net.cpp:94] Creating Layer inception_4d/output_inception_4d/output_0_split
I0811 00:58:16.332818   174 net.cpp:435] inception_4d/output_inception_4d/output_0_split <- inception_4d/output
I0811 00:58:16.332826   174 net.cpp:409] inception_4d/output_inception_4d/output_0_split -> inception_4d/output_inception_4d/output_0_split_0
I0811 00:58:16.332837   174 net.cpp:409] inception_4d/output_inception_4d/output_0_split -> inception_4d/output_inception_4d/output_0_split_1
I0811 00:58:16.332847   174 net.cpp:409] inception_4d/output_inception_4d/output_0_split -> inception_4d/output_inception_4d/output_0_split_2
I0811 00:58:16.332857   174 net.cpp:409] inception_4d/output_inception_4d/output_0_split -> inception_4d/output_inception_4d/output_0_split_3
I0811 00:58:16.332866   174 net.cpp:409] inception_4d/output_inception_4d/output_0_split -> inception_4d/output_inception_4d/output_0_split_4
I0811 00:58:16.332954   174 net.cpp:144] Setting up inception_4d/output_inception_4d/output_0_split
I0811 00:58:16.332979   174 net.cpp:151] Top shape: 32 528 14 14 (3311616)
I0811 00:58:16.332985   174 net.cpp:151] Top shape: 32 528 14 14 (3311616)
I0811 00:58:16.332993   174 net.cpp:151] Top shape: 32 528 14 14 (3311616)
I0811 00:58:16.332999   174 net.cpp:151] Top shape: 32 528 14 14 (3311616)
I0811 00:58:16.333022   174 net.cpp:151] Top shape: 32 528 14 14 (3311616)
I0811 00:58:16.333029   174 net.cpp:159] Memory required for data: 1609204612
I0811 00:58:16.333034   174 layer_factory.hpp:77] Creating layer loss2/ave_pool
I0811 00:58:16.333043   174 net.cpp:94] Creating Layer loss2/ave_pool
I0811 00:58:16.333050   174 net.cpp:435] loss2/ave_pool <- inception_4d/output_inception_4d/output_0_split_0
I0811 00:58:16.333060   174 net.cpp:409] loss2/ave_pool -> loss2/ave_pool
I0811 00:58:16.333096   174 net.cpp:144] Setting up loss2/ave_pool
I0811 00:58:16.333106   174 net.cpp:151] Top shape: 32 528 4 4 (270336)
I0811 00:58:16.333111   174 net.cpp:159] Memory required for data: 1610285956
I0811 00:58:16.333115   174 layer_factory.hpp:77] Creating layer loss2/conv
I0811 00:58:16.333127   174 net.cpp:94] Creating Layer loss2/conv
I0811 00:58:16.333133   174 net.cpp:435] loss2/conv <- loss2/ave_pool
I0811 00:58:16.333143   174 net.cpp:409] loss2/conv -> loss2/conv
I0811 00:58:16.335094   174 net.cpp:144] Setting up loss2/conv
I0811 00:58:16.335114   174 net.cpp:151] Top shape: 32 128 4 4 (65536)
I0811 00:58:16.335119   174 net.cpp:159] Memory required for data: 1610548100
I0811 00:58:16.335129   174 layer_factory.hpp:77] Creating layer loss2/relu_conv
I0811 00:58:16.335139   174 net.cpp:94] Creating Layer loss2/relu_conv
I0811 00:58:16.335160   174 net.cpp:435] loss2/relu_conv <- loss2/conv
I0811 00:58:16.335167   174 net.cpp:396] loss2/relu_conv -> loss2/conv (in-place)
I0811 00:58:16.335193   174 net.cpp:144] Setting up loss2/relu_conv
I0811 00:58:16.335201   174 net.cpp:151] Top shape: 32 128 4 4 (65536)
I0811 00:58:16.335206   174 net.cpp:159] Memory required for data: 1610810244
I0811 00:58:16.335211   174 layer_factory.hpp:77] Creating layer loss2/fc
I0811 00:58:16.335222   174 net.cpp:94] Creating Layer loss2/fc
I0811 00:58:16.335227   174 net.cpp:435] loss2/fc <- loss2/conv
I0811 00:58:16.335235   174 net.cpp:409] loss2/fc -> loss2/fc
I0811 00:58:16.363138   174 net.cpp:144] Setting up loss2/fc
I0811 00:58:16.363162   174 net.cpp:151] Top shape: 32 1024 (32768)
I0811 00:58:16.363168   174 net.cpp:159] Memory required for data: 1610941316
I0811 00:58:16.363178   174 layer_factory.hpp:77] Creating layer loss2/relu_fc
I0811 00:58:16.363188   174 net.cpp:94] Creating Layer loss2/relu_fc
I0811 00:58:16.363196   174 net.cpp:435] loss2/relu_fc <- loss2/fc
I0811 00:58:16.363206   174 net.cpp:396] loss2/relu_fc -> loss2/fc (in-place)
I0811 00:58:16.363219   174 net.cpp:144] Setting up loss2/relu_fc
I0811 00:58:16.363226   174 net.cpp:151] Top shape: 32 1024 (32768)
I0811 00:58:16.363231   174 net.cpp:159] Memory required for data: 1611072388
I0811 00:58:16.363236   174 layer_factory.hpp:77] Creating layer loss2/drop_fc
I0811 00:58:16.363247   174 net.cpp:94] Creating Layer loss2/drop_fc
I0811 00:58:16.363252   174 net.cpp:435] loss2/drop_fc <- loss2/fc
I0811 00:58:16.363261   174 net.cpp:396] loss2/drop_fc -> loss2/fc (in-place)
I0811 00:58:16.363296   174 net.cpp:144] Setting up loss2/drop_fc
I0811 00:58:16.363306   174 net.cpp:151] Top shape: 32 1024 (32768)
I0811 00:58:16.363312   174 net.cpp:159] Memory required for data: 1611203460
I0811 00:58:16.363317   174 layer_factory.hpp:77] Creating layer loss2/classifier
I0811 00:58:16.363327   174 net.cpp:94] Creating Layer loss2/classifier
I0811 00:58:16.363333   174 net.cpp:435] loss2/classifier <- loss2/fc
I0811 00:58:16.363343   174 net.cpp:409] loss2/classifier -> loss2/classifier
I0811 00:58:16.363514   174 net.cpp:144] Setting up loss2/classifier
I0811 00:58:16.363525   174 net.cpp:151] Top shape: 32 3 (96)
I0811 00:58:16.363530   174 net.cpp:159] Memory required for data: 1611203844
I0811 00:58:16.363539   174 layer_factory.hpp:77] Creating layer loss2/loss
I0811 00:58:16.363549   174 net.cpp:94] Creating Layer loss2/loss
I0811 00:58:16.363556   174 net.cpp:435] loss2/loss <- loss2/classifier
I0811 00:58:16.363564   174 net.cpp:435] loss2/loss <- label_train-data_1_split_1
I0811 00:58:16.363572   174 net.cpp:409] loss2/loss -> loss2/loss
I0811 00:58:16.363606   174 layer_factory.hpp:77] Creating layer loss2/loss
I0811 00:58:16.363811   174 net.cpp:144] Setting up loss2/loss
I0811 00:58:16.363837   174 net.cpp:151] Top shape: (1)
I0811 00:58:16.363842   174 net.cpp:154]     with loss weight 0.3
I0811 00:58:16.363858   174 net.cpp:159] Memory required for data: 1611203848
I0811 00:58:16.363864   174 layer_factory.hpp:77] Creating layer inception_4e/1x1
I0811 00:58:16.363880   174 net.cpp:94] Creating Layer inception_4e/1x1
I0811 00:58:16.363888   174 net.cpp:435] inception_4e/1x1 <- inception_4d/output_inception_4d/output_0_split_1
I0811 00:58:16.363898   174 net.cpp:409] inception_4e/1x1 -> inception_4e/1x1
I0811 00:58:16.365662   174 net.cpp:144] Setting up inception_4e/1x1
I0811 00:58:16.365679   174 net.cpp:151] Top shape: 32 256 14 14 (1605632)
I0811 00:58:16.365685   174 net.cpp:159] Memory required for data: 1617626376
I0811 00:58:16.365695   174 layer_factory.hpp:77] Creating layer inception_4e/relu_1x1
I0811 00:58:16.365705   174 net.cpp:94] Creating Layer inception_4e/relu_1x1
I0811 00:58:16.365710   174 net.cpp:435] inception_4e/relu_1x1 <- inception_4e/1x1
I0811 00:58:16.365722   174 net.cpp:396] inception_4e/relu_1x1 -> inception_4e/1x1 (in-place)
I0811 00:58:16.365734   174 net.cpp:144] Setting up inception_4e/relu_1x1
I0811 00:58:16.365742   174 net.cpp:151] Top shape: 32 256 14 14 (1605632)
I0811 00:58:16.365746   174 net.cpp:159] Memory required for data: 1624048904
I0811 00:58:16.365752   174 layer_factory.hpp:77] Creating layer inception_4e/3x3_reduce
I0811 00:58:16.365767   174 net.cpp:94] Creating Layer inception_4e/3x3_reduce
I0811 00:58:16.365772   174 net.cpp:435] inception_4e/3x3_reduce <- inception_4d/output_inception_4d/output_0_split_2
I0811 00:58:16.365784   174 net.cpp:409] inception_4e/3x3_reduce -> inception_4e/3x3_reduce
I0811 00:58:16.367451   174 net.cpp:144] Setting up inception_4e/3x3_reduce
I0811 00:58:16.367467   174 net.cpp:151] Top shape: 32 160 14 14 (1003520)
I0811 00:58:16.367470   174 net.cpp:159] Memory required for data: 1628062984
I0811 00:58:16.367477   174 layer_factory.hpp:77] Creating layer inception_4e/relu_3x3_reduce
I0811 00:58:16.367485   174 net.cpp:94] Creating Layer inception_4e/relu_3x3_reduce
I0811 00:58:16.367488   174 net.cpp:435] inception_4e/relu_3x3_reduce <- inception_4e/3x3_reduce
I0811 00:58:16.367497   174 net.cpp:396] inception_4e/relu_3x3_reduce -> inception_4e/3x3_reduce (in-place)
I0811 00:58:16.367506   174 net.cpp:144] Setting up inception_4e/relu_3x3_reduce
I0811 00:58:16.367511   174 net.cpp:151] Top shape: 32 160 14 14 (1003520)
I0811 00:58:16.367516   174 net.cpp:159] Memory required for data: 1632077064
I0811 00:58:16.367521   174 layer_factory.hpp:77] Creating layer inception_4e/3x3
I0811 00:58:16.367533   174 net.cpp:94] Creating Layer inception_4e/3x3
I0811 00:58:16.367537   174 net.cpp:435] inception_4e/3x3 <- inception_4e/3x3_reduce
I0811 00:58:16.367547   174 net.cpp:409] inception_4e/3x3 -> inception_4e/3x3
I0811 00:58:16.374909   174 net.cpp:144] Setting up inception_4e/3x3
I0811 00:58:16.374963   174 net.cpp:151] Top shape: 32 320 14 14 (2007040)
I0811 00:58:16.374970   174 net.cpp:159] Memory required for data: 1640105224
I0811 00:58:16.374980   174 layer_factory.hpp:77] Creating layer inception_4e/relu_3x3
I0811 00:58:16.374989   174 net.cpp:94] Creating Layer inception_4e/relu_3x3
I0811 00:58:16.374996   174 net.cpp:435] inception_4e/relu_3x3 <- inception_4e/3x3
I0811 00:58:16.375021   174 net.cpp:396] inception_4e/relu_3x3 -> inception_4e/3x3 (in-place)
I0811 00:58:16.375032   174 net.cpp:144] Setting up inception_4e/relu_3x3
I0811 00:58:16.375041   174 net.cpp:151] Top shape: 32 320 14 14 (2007040)
I0811 00:58:16.375046   174 net.cpp:159] Memory required for data: 1648133384
I0811 00:58:16.375051   174 layer_factory.hpp:77] Creating layer inception_4e/5x5_reduce
I0811 00:58:16.375082   174 net.cpp:94] Creating Layer inception_4e/5x5_reduce
I0811 00:58:16.375088   174 net.cpp:435] inception_4e/5x5_reduce <- inception_4d/output_inception_4d/output_0_split_3
I0811 00:58:16.375133   174 net.cpp:409] inception_4e/5x5_reduce -> inception_4e/5x5_reduce
I0811 00:58:16.375648   174 net.cpp:144] Setting up inception_4e/5x5_reduce
I0811 00:58:16.375661   174 net.cpp:151] Top shape: 32 32 14 14 (200704)
I0811 00:58:16.375666   174 net.cpp:159] Memory required for data: 1648936200
I0811 00:58:16.375675   174 layer_factory.hpp:77] Creating layer inception_4e/relu_5x5_reduce
I0811 00:58:16.375684   174 net.cpp:94] Creating Layer inception_4e/relu_5x5_reduce
I0811 00:58:16.375690   174 net.cpp:435] inception_4e/relu_5x5_reduce <- inception_4e/5x5_reduce
I0811 00:58:16.375701   174 net.cpp:396] inception_4e/relu_5x5_reduce -> inception_4e/5x5_reduce (in-place)
I0811 00:58:16.375712   174 net.cpp:144] Setting up inception_4e/relu_5x5_reduce
I0811 00:58:16.375720   174 net.cpp:151] Top shape: 32 32 14 14 (200704)
I0811 00:58:16.375725   174 net.cpp:159] Memory required for data: 1649739016
I0811 00:58:16.375730   174 layer_factory.hpp:77] Creating layer inception_4e/5x5
I0811 00:58:16.375792   174 net.cpp:94] Creating Layer inception_4e/5x5
I0811 00:58:16.375800   174 net.cpp:435] inception_4e/5x5 <- inception_4e/5x5_reduce
I0811 00:58:16.375811   174 net.cpp:409] inception_4e/5x5 -> inception_4e/5x5
I0811 00:58:16.377256   174 net.cpp:144] Setting up inception_4e/5x5
I0811 00:58:16.377272   174 net.cpp:151] Top shape: 32 128 14 14 (802816)
I0811 00:58:16.377279   174 net.cpp:159] Memory required for data: 1652950280
I0811 00:58:16.377288   174 layer_factory.hpp:77] Creating layer inception_4e/relu_5x5
I0811 00:58:16.377296   174 net.cpp:94] Creating Layer inception_4e/relu_5x5
I0811 00:58:16.377303   174 net.cpp:435] inception_4e/relu_5x5 <- inception_4e/5x5
I0811 00:58:16.377315   174 net.cpp:396] inception_4e/relu_5x5 -> inception_4e/5x5 (in-place)
I0811 00:58:16.377326   174 net.cpp:144] Setting up inception_4e/relu_5x5
I0811 00:58:16.377332   174 net.cpp:151] Top shape: 32 128 14 14 (802816)
I0811 00:58:16.377337   174 net.cpp:159] Memory required for data: 1656161544
I0811 00:58:16.377343   174 layer_factory.hpp:77] Creating layer inception_4e/pool
I0811 00:58:16.377352   174 net.cpp:94] Creating Layer inception_4e/pool
I0811 00:58:16.377358   174 net.cpp:435] inception_4e/pool <- inception_4d/output_inception_4d/output_0_split_4
I0811 00:58:16.377378   174 net.cpp:409] inception_4e/pool -> inception_4e/pool
I0811 00:58:16.377431   174 net.cpp:144] Setting up inception_4e/pool
I0811 00:58:16.377441   174 net.cpp:151] Top shape: 32 528 14 14 (3311616)
I0811 00:58:16.377447   174 net.cpp:159] Memory required for data: 1669408008
I0811 00:58:16.377452   174 layer_factory.hpp:77] Creating layer inception_4e/pool_proj
I0811 00:58:16.377471   174 net.cpp:94] Creating Layer inception_4e/pool_proj
I0811 00:58:16.377478   174 net.cpp:435] inception_4e/pool_proj <- inception_4e/pool
I0811 00:58:16.377488   174 net.cpp:409] inception_4e/pool_proj -> inception_4e/pool_proj
I0811 00:58:16.378490   174 net.cpp:144] Setting up inception_4e/pool_proj
I0811 00:58:16.378504   174 net.cpp:151] Top shape: 32 128 14 14 (802816)
I0811 00:58:16.378509   174 net.cpp:159] Memory required for data: 1672619272
I0811 00:58:16.378518   174 layer_factory.hpp:77] Creating layer inception_4e/relu_pool_proj
I0811 00:58:16.378527   174 net.cpp:94] Creating Layer inception_4e/relu_pool_proj
I0811 00:58:16.378533   174 net.cpp:435] inception_4e/relu_pool_proj <- inception_4e/pool_proj
I0811 00:58:16.378545   174 net.cpp:396] inception_4e/relu_pool_proj -> inception_4e/pool_proj (in-place)
I0811 00:58:16.378556   174 net.cpp:144] Setting up inception_4e/relu_pool_proj
I0811 00:58:16.378563   174 net.cpp:151] Top shape: 32 128 14 14 (802816)
I0811 00:58:16.378568   174 net.cpp:159] Memory required for data: 1675830536
I0811 00:58:16.378573   174 layer_factory.hpp:77] Creating layer inception_4e/output
I0811 00:58:16.378582   174 net.cpp:94] Creating Layer inception_4e/output
I0811 00:58:16.378587   174 net.cpp:435] inception_4e/output <- inception_4e/1x1
I0811 00:58:16.378594   174 net.cpp:435] inception_4e/output <- inception_4e/3x3
I0811 00:58:16.378618   174 net.cpp:435] inception_4e/output <- inception_4e/5x5
I0811 00:58:16.378626   174 net.cpp:435] inception_4e/output <- inception_4e/pool_proj
I0811 00:58:16.378634   174 net.cpp:409] inception_4e/output -> inception_4e/output
I0811 00:58:16.378675   174 net.cpp:144] Setting up inception_4e/output
I0811 00:58:16.378685   174 net.cpp:151] Top shape: 32 832 14 14 (5218304)
I0811 00:58:16.378690   174 net.cpp:159] Memory required for data: 1696703752
I0811 00:58:16.378695   174 layer_factory.hpp:77] Creating layer pool4/3x3_s2
I0811 00:58:16.378710   174 net.cpp:94] Creating Layer pool4/3x3_s2
I0811 00:58:16.378715   174 net.cpp:435] pool4/3x3_s2 <- inception_4e/output
I0811 00:58:16.378724   174 net.cpp:409] pool4/3x3_s2 -> pool4/3x3_s2
I0811 00:58:16.378778   174 net.cpp:144] Setting up pool4/3x3_s2
I0811 00:58:16.378787   174 net.cpp:151] Top shape: 32 832 7 7 (1304576)
I0811 00:58:16.378793   174 net.cpp:159] Memory required for data: 1701922056
I0811 00:58:16.378798   174 layer_factory.hpp:77] Creating layer pool4/3x3_s2_pool4/3x3_s2_0_split
I0811 00:58:16.378808   174 net.cpp:94] Creating Layer pool4/3x3_s2_pool4/3x3_s2_0_split
I0811 00:58:16.378813   174 net.cpp:435] pool4/3x3_s2_pool4/3x3_s2_0_split <- pool4/3x3_s2
I0811 00:58:16.378825   174 net.cpp:409] pool4/3x3_s2_pool4/3x3_s2_0_split -> pool4/3x3_s2_pool4/3x3_s2_0_split_0
I0811 00:58:16.378836   174 net.cpp:409] pool4/3x3_s2_pool4/3x3_s2_0_split -> pool4/3x3_s2_pool4/3x3_s2_0_split_1
I0811 00:58:16.378851   174 net.cpp:409] pool4/3x3_s2_pool4/3x3_s2_0_split -> pool4/3x3_s2_pool4/3x3_s2_0_split_2
I0811 00:58:16.378865   174 net.cpp:409] pool4/3x3_s2_pool4/3x3_s2_0_split -> pool4/3x3_s2_pool4/3x3_s2_0_split_3
I0811 00:58:16.378944   174 net.cpp:144] Setting up pool4/3x3_s2_pool4/3x3_s2_0_split
I0811 00:58:16.378955   174 net.cpp:151] Top shape: 32 832 7 7 (1304576)
I0811 00:58:16.378962   174 net.cpp:151] Top shape: 32 832 7 7 (1304576)
I0811 00:58:16.378969   174 net.cpp:151] Top shape: 32 832 7 7 (1304576)
I0811 00:58:16.378975   174 net.cpp:151] Top shape: 32 832 7 7 (1304576)
I0811 00:58:16.378981   174 net.cpp:159] Memory required for data: 1722795272
I0811 00:58:16.378986   174 layer_factory.hpp:77] Creating layer inception_5a/1x1
I0811 00:58:16.379001   174 net.cpp:94] Creating Layer inception_5a/1x1
I0811 00:58:16.379009   174 net.cpp:435] inception_5a/1x1 <- pool4/3x3_s2_pool4/3x3_s2_0_split_0
I0811 00:58:16.379019   174 net.cpp:409] inception_5a/1x1 -> inception_5a/1x1
I0811 00:58:16.382584   174 net.cpp:144] Setting up inception_5a/1x1
I0811 00:58:16.382606   174 net.cpp:151] Top shape: 32 256 7 7 (401408)
I0811 00:58:16.382611   174 net.cpp:159] Memory required for data: 1724400904
I0811 00:58:16.382622   174 layer_factory.hpp:77] Creating layer inception_5a/relu_1x1
I0811 00:58:16.382633   174 net.cpp:94] Creating Layer inception_5a/relu_1x1
I0811 00:58:16.382655   174 net.cpp:435] inception_5a/relu_1x1 <- inception_5a/1x1
I0811 00:58:16.382664   174 net.cpp:396] inception_5a/relu_1x1 -> inception_5a/1x1 (in-place)
I0811 00:58:16.382675   174 net.cpp:144] Setting up inception_5a/relu_1x1
I0811 00:58:16.382683   174 net.cpp:151] Top shape: 32 256 7 7 (401408)
I0811 00:58:16.382688   174 net.cpp:159] Memory required for data: 1726006536
I0811 00:58:16.382716   174 layer_factory.hpp:77] Creating layer inception_5a/3x3_reduce
I0811 00:58:16.382741   174 net.cpp:94] Creating Layer inception_5a/3x3_reduce
I0811 00:58:16.382748   174 net.cpp:435] inception_5a/3x3_reduce <- pool4/3x3_s2_pool4/3x3_s2_0_split_1
I0811 00:58:16.382761   174 net.cpp:409] inception_5a/3x3_reduce -> inception_5a/3x3_reduce
I0811 00:58:16.385428   174 net.cpp:144] Setting up inception_5a/3x3_reduce
I0811 00:58:16.385448   174 net.cpp:151] Top shape: 32 160 7 7 (250880)
I0811 00:58:16.385454   174 net.cpp:159] Memory required for data: 1727010056
I0811 00:58:16.385465   174 layer_factory.hpp:77] Creating layer inception_5a/relu_3x3_reduce
I0811 00:58:16.385475   174 net.cpp:94] Creating Layer inception_5a/relu_3x3_reduce
I0811 00:58:16.385499   174 net.cpp:435] inception_5a/relu_3x3_reduce <- inception_5a/3x3_reduce
I0811 00:58:16.385514   174 net.cpp:396] inception_5a/relu_3x3_reduce -> inception_5a/3x3_reduce (in-place)
I0811 00:58:16.385526   174 net.cpp:144] Setting up inception_5a/relu_3x3_reduce
I0811 00:58:16.385535   174 net.cpp:151] Top shape: 32 160 7 7 (250880)
I0811 00:58:16.385540   174 net.cpp:159] Memory required for data: 1728013576
I0811 00:58:16.385545   174 layer_factory.hpp:77] Creating layer inception_5a/3x3
I0811 00:58:16.385560   174 net.cpp:94] Creating Layer inception_5a/3x3
I0811 00:58:16.385565   174 net.cpp:435] inception_5a/3x3 <- inception_5a/3x3_reduce
I0811 00:58:16.385577   174 net.cpp:409] inception_5a/3x3 -> inception_5a/3x3
I0811 00:58:16.392094   174 net.cpp:144] Setting up inception_5a/3x3
I0811 00:58:16.392132   174 net.cpp:151] Top shape: 32 320 7 7 (501760)
I0811 00:58:16.392138   174 net.cpp:159] Memory required for data: 1730020616
I0811 00:58:16.392148   174 layer_factory.hpp:77] Creating layer inception_5a/relu_3x3
I0811 00:58:16.392158   174 net.cpp:94] Creating Layer inception_5a/relu_3x3
I0811 00:58:16.392165   174 net.cpp:435] inception_5a/relu_3x3 <- inception_5a/3x3
I0811 00:58:16.392174   174 net.cpp:396] inception_5a/relu_3x3 -> inception_5a/3x3 (in-place)
I0811 00:58:16.392186   174 net.cpp:144] Setting up inception_5a/relu_3x3
I0811 00:58:16.392194   174 net.cpp:151] Top shape: 32 320 7 7 (501760)
I0811 00:58:16.392199   174 net.cpp:159] Memory required for data: 1732027656
I0811 00:58:16.392204   174 layer_factory.hpp:77] Creating layer inception_5a/5x5_reduce
I0811 00:58:16.392222   174 net.cpp:94] Creating Layer inception_5a/5x5_reduce
I0811 00:58:16.392230   174 net.cpp:435] inception_5a/5x5_reduce <- pool4/3x3_s2_pool4/3x3_s2_0_split_2
I0811 00:58:16.392242   174 net.cpp:409] inception_5a/5x5_reduce -> inception_5a/5x5_reduce
I0811 00:58:16.392880   174 net.cpp:144] Setting up inception_5a/5x5_reduce
I0811 00:58:16.392896   174 net.cpp:151] Top shape: 32 32 7 7 (50176)
I0811 00:58:16.392902   174 net.cpp:159] Memory required for data: 1732228360
I0811 00:58:16.392911   174 layer_factory.hpp:77] Creating layer inception_5a/relu_5x5_reduce
I0811 00:58:16.392920   174 net.cpp:94] Creating Layer inception_5a/relu_5x5_reduce
I0811 00:58:16.392927   174 net.cpp:435] inception_5a/relu_5x5_reduce <- inception_5a/5x5_reduce
I0811 00:58:16.392941   174 net.cpp:396] inception_5a/relu_5x5_reduce -> inception_5a/5x5_reduce (in-place)
I0811 00:58:16.392953   174 net.cpp:144] Setting up inception_5a/relu_5x5_reduce
I0811 00:58:16.392962   174 net.cpp:151] Top shape: 32 32 7 7 (50176)
I0811 00:58:16.392967   174 net.cpp:159] Memory required for data: 1732429064
I0811 00:58:16.392973   174 layer_factory.hpp:77] Creating layer inception_5a/5x5
I0811 00:58:16.392987   174 net.cpp:94] Creating Layer inception_5a/5x5
I0811 00:58:16.392994   174 net.cpp:435] inception_5a/5x5 <- inception_5a/5x5_reduce
I0811 00:58:16.393007   174 net.cpp:409] inception_5a/5x5 -> inception_5a/5x5
I0811 00:58:16.394479   174 net.cpp:144] Setting up inception_5a/5x5
I0811 00:58:16.394492   174 net.cpp:151] Top shape: 32 128 7 7 (200704)
I0811 00:58:16.394497   174 net.cpp:159] Memory required for data: 1733231880
I0811 00:58:16.394506   174 layer_factory.hpp:77] Creating layer inception_5a/relu_5x5
I0811 00:58:16.394518   174 net.cpp:94] Creating Layer inception_5a/relu_5x5
I0811 00:58:16.394524   174 net.cpp:435] inception_5a/relu_5x5 <- inception_5a/5x5
I0811 00:58:16.394532   174 net.cpp:396] inception_5a/relu_5x5 -> inception_5a/5x5 (in-place)
I0811 00:58:16.394543   174 net.cpp:144] Setting up inception_5a/relu_5x5
I0811 00:58:16.394551   174 net.cpp:151] Top shape: 32 128 7 7 (200704)
I0811 00:58:16.394556   174 net.cpp:159] Memory required for data: 1734034696
I0811 00:58:16.394560   174 layer_factory.hpp:77] Creating layer inception_5a/pool
I0811 00:58:16.394587   174 net.cpp:94] Creating Layer inception_5a/pool
I0811 00:58:16.394593   174 net.cpp:435] inception_5a/pool <- pool4/3x3_s2_pool4/3x3_s2_0_split_3
I0811 00:58:16.394634   174 net.cpp:409] inception_5a/pool -> inception_5a/pool
I0811 00:58:16.394724   174 net.cpp:144] Setting up inception_5a/pool
I0811 00:58:16.394735   174 net.cpp:151] Top shape: 32 832 7 7 (1304576)
I0811 00:58:16.394740   174 net.cpp:159] Memory required for data: 1739253000
I0811 00:58:16.394745   174 layer_factory.hpp:77] Creating layer inception_5a/pool_proj
I0811 00:58:16.394760   174 net.cpp:94] Creating Layer inception_5a/pool_proj
I0811 00:58:16.394767   174 net.cpp:435] inception_5a/pool_proj <- inception_5a/pool
I0811 00:58:16.394794   174 net.cpp:409] inception_5a/pool_proj -> inception_5a/pool_proj
I0811 00:58:16.397092   174 net.cpp:144] Setting up inception_5a/pool_proj
I0811 00:58:16.397116   174 net.cpp:151] Top shape: 32 128 7 7 (200704)
I0811 00:58:16.397122   174 net.cpp:159] Memory required for data: 1740055816
I0811 00:58:16.397132   174 layer_factory.hpp:77] Creating layer inception_5a/relu_pool_proj
I0811 00:58:16.397142   174 net.cpp:94] Creating Layer inception_5a/relu_pool_proj
I0811 00:58:16.397148   174 net.cpp:435] inception_5a/relu_pool_proj <- inception_5a/pool_proj
I0811 00:58:16.397157   174 net.cpp:396] inception_5a/relu_pool_proj -> inception_5a/pool_proj (in-place)
I0811 00:58:16.397169   174 net.cpp:144] Setting up inception_5a/relu_pool_proj
I0811 00:58:16.397177   174 net.cpp:151] Top shape: 32 128 7 7 (200704)
I0811 00:58:16.397182   174 net.cpp:159] Memory required for data: 1740858632
I0811 00:58:16.397187   174 layer_factory.hpp:77] Creating layer inception_5a/output
I0811 00:58:16.397197   174 net.cpp:94] Creating Layer inception_5a/output
I0811 00:58:16.397202   174 net.cpp:435] inception_5a/output <- inception_5a/1x1
I0811 00:58:16.397208   174 net.cpp:435] inception_5a/output <- inception_5a/3x3
I0811 00:58:16.397214   174 net.cpp:435] inception_5a/output <- inception_5a/5x5
I0811 00:58:16.397220   174 net.cpp:435] inception_5a/output <- inception_5a/pool_proj
I0811 00:58:16.397233   174 net.cpp:409] inception_5a/output -> inception_5a/output
I0811 00:58:16.397274   174 net.cpp:144] Setting up inception_5a/output
I0811 00:58:16.397284   174 net.cpp:151] Top shape: 32 832 7 7 (1304576)
I0811 00:58:16.397289   174 net.cpp:159] Memory required for data: 1746076936
I0811 00:58:16.397294   174 layer_factory.hpp:77] Creating layer inception_5a/output_inception_5a/output_0_split
I0811 00:58:16.397303   174 net.cpp:94] Creating Layer inception_5a/output_inception_5a/output_0_split
I0811 00:58:16.397310   174 net.cpp:435] inception_5a/output_inception_5a/output_0_split <- inception_5a/output
I0811 00:58:16.397321   174 net.cpp:409] inception_5a/output_inception_5a/output_0_split -> inception_5a/output_inception_5a/output_0_split_0
I0811 00:58:16.397333   174 net.cpp:409] inception_5a/output_inception_5a/output_0_split -> inception_5a/output_inception_5a/output_0_split_1
I0811 00:58:16.397346   174 net.cpp:409] inception_5a/output_inception_5a/output_0_split -> inception_5a/output_inception_5a/output_0_split_2
I0811 00:58:16.397356   174 net.cpp:409] inception_5a/output_inception_5a/output_0_split -> inception_5a/output_inception_5a/output_0_split_3
I0811 00:58:16.397449   174 net.cpp:144] Setting up inception_5a/output_inception_5a/output_0_split
I0811 00:58:16.397459   174 net.cpp:151] Top shape: 32 832 7 7 (1304576)
I0811 00:58:16.397466   174 net.cpp:151] Top shape: 32 832 7 7 (1304576)
I0811 00:58:16.397473   174 net.cpp:151] Top shape: 32 832 7 7 (1304576)
I0811 00:58:16.397480   174 net.cpp:151] Top shape: 32 832 7 7 (1304576)
I0811 00:58:16.397485   174 net.cpp:159] Memory required for data: 1766950152
I0811 00:58:16.397490   174 layer_factory.hpp:77] Creating layer inception_5b/1x1
I0811 00:58:16.397505   174 net.cpp:94] Creating Layer inception_5b/1x1
I0811 00:58:16.397511   174 net.cpp:435] inception_5b/1x1 <- inception_5a/output_inception_5a/output_0_split_0
I0811 00:58:16.397529   174 net.cpp:409] inception_5b/1x1 -> inception_5b/1x1
I0811 00:58:16.402231   174 net.cpp:144] Setting up inception_5b/1x1
I0811 00:58:16.402266   174 net.cpp:151] Top shape: 32 384 7 7 (602112)
I0811 00:58:16.402289   174 net.cpp:159] Memory required for data: 1769358600
I0811 00:58:16.402300   174 layer_factory.hpp:77] Creating layer inception_5b/relu_1x1
I0811 00:58:16.402309   174 net.cpp:94] Creating Layer inception_5b/relu_1x1
I0811 00:58:16.402317   174 net.cpp:435] inception_5b/relu_1x1 <- inception_5b/1x1
I0811 00:58:16.402328   174 net.cpp:396] inception_5b/relu_1x1 -> inception_5b/1x1 (in-place)
I0811 00:58:16.402340   174 net.cpp:144] Setting up inception_5b/relu_1x1
I0811 00:58:16.402348   174 net.cpp:151] Top shape: 32 384 7 7 (602112)
I0811 00:58:16.402379   174 net.cpp:159] Memory required for data: 1771767048
I0811 00:58:16.402384   174 layer_factory.hpp:77] Creating layer inception_5b/3x3_reduce
I0811 00:58:16.402400   174 net.cpp:94] Creating Layer inception_5b/3x3_reduce
I0811 00:58:16.402406   174 net.cpp:435] inception_5b/3x3_reduce <- inception_5a/output_inception_5a/output_0_split_1
I0811 00:58:16.402423   174 net.cpp:409] inception_5b/3x3_reduce -> inception_5b/3x3_reduce
I0811 00:58:16.405247   174 net.cpp:144] Setting up inception_5b/3x3_reduce
I0811 00:58:16.405267   174 net.cpp:151] Top shape: 32 192 7 7 (301056)
I0811 00:58:16.405273   174 net.cpp:159] Memory required for data: 1772971272
I0811 00:58:16.405283   174 layer_factory.hpp:77] Creating layer inception_5b/relu_3x3_reduce
I0811 00:58:16.405293   174 net.cpp:94] Creating Layer inception_5b/relu_3x3_reduce
I0811 00:58:16.405300   174 net.cpp:435] inception_5b/relu_3x3_reduce <- inception_5b/3x3_reduce
I0811 00:58:16.405313   174 net.cpp:396] inception_5b/relu_3x3_reduce -> inception_5b/3x3_reduce (in-place)
I0811 00:58:16.405324   174 net.cpp:144] Setting up inception_5b/relu_3x3_reduce
I0811 00:58:16.405333   174 net.cpp:151] Top shape: 32 192 7 7 (301056)
I0811 00:58:16.405337   174 net.cpp:159] Memory required for data: 1774175496
I0811 00:58:16.405344   174 layer_factory.hpp:77] Creating layer inception_5b/3x3
I0811 00:58:16.405359   174 net.cpp:94] Creating Layer inception_5b/3x3
I0811 00:58:16.405375   174 net.cpp:435] inception_5b/3x3 <- inception_5b/3x3_reduce
I0811 00:58:16.405387   174 net.cpp:409] inception_5b/3x3 -> inception_5b/3x3
I0811 00:58:16.414723   174 net.cpp:144] Setting up inception_5b/3x3
I0811 00:58:16.414746   174 net.cpp:151] Top shape: 32 384 7 7 (602112)
I0811 00:58:16.414752   174 net.cpp:159] Memory required for data: 1776583944
I0811 00:58:16.414762   174 layer_factory.hpp:77] Creating layer inception_5b/relu_3x3
I0811 00:58:16.414775   174 net.cpp:94] Creating Layer inception_5b/relu_3x3
I0811 00:58:16.414783   174 net.cpp:435] inception_5b/relu_3x3 <- inception_5b/3x3
I0811 00:58:16.414791   174 net.cpp:396] inception_5b/relu_3x3 -> inception_5b/3x3 (in-place)
I0811 00:58:16.414803   174 net.cpp:144] Setting up inception_5b/relu_3x3
I0811 00:58:16.414811   174 net.cpp:151] Top shape: 32 384 7 7 (602112)
I0811 00:58:16.414816   174 net.cpp:159] Memory required for data: 1778992392
I0811 00:58:16.414821   174 layer_factory.hpp:77] Creating layer inception_5b/5x5_reduce
I0811 00:58:16.414844   174 net.cpp:94] Creating Layer inception_5b/5x5_reduce
I0811 00:58:16.414850   174 net.cpp:435] inception_5b/5x5_reduce <- inception_5a/output_inception_5a/output_0_split_2
I0811 00:58:16.414862   174 net.cpp:409] inception_5b/5x5_reduce -> inception_5b/5x5_reduce
I0811 00:58:16.415621   174 net.cpp:144] Setting up inception_5b/5x5_reduce
I0811 00:58:16.415635   174 net.cpp:151] Top shape: 32 48 7 7 (75264)
I0811 00:58:16.415640   174 net.cpp:159] Memory required for data: 1779293448
I0811 00:58:16.415650   174 layer_factory.hpp:77] Creating layer inception_5b/relu_5x5_reduce
I0811 00:58:16.415659   174 net.cpp:94] Creating Layer inception_5b/relu_5x5_reduce
I0811 00:58:16.415665   174 net.cpp:435] inception_5b/relu_5x5_reduce <- inception_5b/5x5_reduce
I0811 00:58:16.415673   174 net.cpp:396] inception_5b/relu_5x5_reduce -> inception_5b/5x5_reduce (in-place)
I0811 00:58:16.415684   174 net.cpp:144] Setting up inception_5b/relu_5x5_reduce
I0811 00:58:16.415693   174 net.cpp:151] Top shape: 32 48 7 7 (75264)
I0811 00:58:16.415716   174 net.cpp:159] Memory required for data: 1779594504
I0811 00:58:16.415724   174 layer_factory.hpp:77] Creating layer inception_5b/5x5
I0811 00:58:16.415738   174 net.cpp:94] Creating Layer inception_5b/5x5
I0811 00:58:16.415747   174 net.cpp:435] inception_5b/5x5 <- inception_5b/5x5_reduce
I0811 00:58:16.415757   174 net.cpp:409] inception_5b/5x5 -> inception_5b/5x5
I0811 00:58:16.417739   174 net.cpp:144] Setting up inception_5b/5x5
I0811 00:58:16.417755   174 net.cpp:151] Top shape: 32 128 7 7 (200704)
I0811 00:58:16.417762   174 net.cpp:159] Memory required for data: 1780397320
I0811 00:58:16.417771   174 layer_factory.hpp:77] Creating layer inception_5b/relu_5x5
I0811 00:58:16.417783   174 net.cpp:94] Creating Layer inception_5b/relu_5x5
I0811 00:58:16.417790   174 net.cpp:435] inception_5b/relu_5x5 <- inception_5b/5x5
I0811 00:58:16.417799   174 net.cpp:396] inception_5b/relu_5x5 -> inception_5b/5x5 (in-place)
I0811 00:58:16.417815   174 net.cpp:144] Setting up inception_5b/relu_5x5
I0811 00:58:16.417826   174 net.cpp:151] Top shape: 32 128 7 7 (200704)
I0811 00:58:16.417832   174 net.cpp:159] Memory required for data: 1781200136
I0811 00:58:16.417837   174 layer_factory.hpp:77] Creating layer inception_5b/pool
I0811 00:58:16.417846   174 net.cpp:94] Creating Layer inception_5b/pool
I0811 00:58:16.417853   174 net.cpp:435] inception_5b/pool <- inception_5a/output_inception_5a/output_0_split_3
I0811 00:58:16.417861   174 net.cpp:409] inception_5b/pool -> inception_5b/pool
I0811 00:58:16.417946   174 net.cpp:144] Setting up inception_5b/pool
I0811 00:58:16.417955   174 net.cpp:151] Top shape: 32 832 7 7 (1304576)
I0811 00:58:16.417959   174 net.cpp:159] Memory required for data: 1786418440
I0811 00:58:16.417963   174 layer_factory.hpp:77] Creating layer inception_5b/pool_proj
I0811 00:58:16.417973   174 net.cpp:94] Creating Layer inception_5b/pool_proj
I0811 00:58:16.417979   174 net.cpp:435] inception_5b/pool_proj <- inception_5b/pool
I0811 00:58:16.417986   174 net.cpp:409] inception_5b/pool_proj -> inception_5b/pool_proj
I0811 00:58:16.419483   174 net.cpp:144] Setting up inception_5b/pool_proj
I0811 00:58:16.419499   174 net.cpp:151] Top shape: 32 128 7 7 (200704)
I0811 00:58:16.419503   174 net.cpp:159] Memory required for data: 1787221256
I0811 00:58:16.419510   174 layer_factory.hpp:77] Creating layer inception_5b/relu_pool_proj
I0811 00:58:16.419517   174 net.cpp:94] Creating Layer inception_5b/relu_pool_proj
I0811 00:58:16.419523   174 net.cpp:435] inception_5b/relu_pool_proj <- inception_5b/pool_proj
I0811 00:58:16.419528   174 net.cpp:396] inception_5b/relu_pool_proj -> inception_5b/pool_proj (in-place)
I0811 00:58:16.419536   174 net.cpp:144] Setting up inception_5b/relu_pool_proj
I0811 00:58:16.419541   174 net.cpp:151] Top shape: 32 128 7 7 (200704)
I0811 00:58:16.419544   174 net.cpp:159] Memory required for data: 1788024072
I0811 00:58:16.419548   174 layer_factory.hpp:77] Creating layer inception_5b/output
I0811 00:58:16.419555   174 net.cpp:94] Creating Layer inception_5b/output
I0811 00:58:16.419560   174 net.cpp:435] inception_5b/output <- inception_5b/1x1
I0811 00:58:16.419564   174 net.cpp:435] inception_5b/output <- inception_5b/3x3
I0811 00:58:16.419569   174 net.cpp:435] inception_5b/output <- inception_5b/5x5
I0811 00:58:16.419574   174 net.cpp:435] inception_5b/output <- inception_5b/pool_proj
I0811 00:58:16.419579   174 net.cpp:409] inception_5b/output -> inception_5b/output
I0811 00:58:16.419606   174 net.cpp:144] Setting up inception_5b/output
I0811 00:58:16.419612   174 net.cpp:151] Top shape: 32 1024 7 7 (1605632)
I0811 00:58:16.419615   174 net.cpp:159] Memory required for data: 1794446600
I0811 00:58:16.419618   174 layer_factory.hpp:77] Creating layer pool5/7x7_s1
I0811 00:58:16.419625   174 net.cpp:94] Creating Layer pool5/7x7_s1
I0811 00:58:16.419628   174 net.cpp:435] pool5/7x7_s1 <- inception_5b/output
I0811 00:58:16.419636   174 net.cpp:409] pool5/7x7_s1 -> pool5/7x7_s1
I0811 00:58:16.419661   174 net.cpp:144] Setting up pool5/7x7_s1
I0811 00:58:16.419683   174 net.cpp:151] Top shape: 32 1024 1 1 (32768)
I0811 00:58:16.419687   174 net.cpp:159] Memory required for data: 1794577672
I0811 00:58:16.419690   174 layer_factory.hpp:77] Creating layer pool5/drop_7x7_s1
I0811 00:58:16.419697   174 net.cpp:94] Creating Layer pool5/drop_7x7_s1
I0811 00:58:16.419701   174 net.cpp:435] pool5/drop_7x7_s1 <- pool5/7x7_s1
I0811 00:58:16.419723   174 net.cpp:396] pool5/drop_7x7_s1 -> pool5/7x7_s1 (in-place)
I0811 00:58:16.419746   174 net.cpp:144] Setting up pool5/drop_7x7_s1
I0811 00:58:16.419754   174 net.cpp:151] Top shape: 32 1024 1 1 (32768)
I0811 00:58:16.419757   174 net.cpp:159] Memory required for data: 1794708744
I0811 00:58:16.419761   174 layer_factory.hpp:77] Creating layer loss3/classifier
I0811 00:58:16.419768   174 net.cpp:94] Creating Layer loss3/classifier
I0811 00:58:16.419771   174 net.cpp:435] loss3/classifier <- pool5/7x7_s1
I0811 00:58:16.419780   174 net.cpp:409] loss3/classifier -> loss3/classifier
I0811 00:58:16.419899   174 net.cpp:144] Setting up loss3/classifier
I0811 00:58:16.419905   174 net.cpp:151] Top shape: 32 3 (96)
I0811 00:58:16.419909   174 net.cpp:159] Memory required for data: 1794709128
I0811 00:58:16.419914   174 layer_factory.hpp:77] Creating layer loss3/loss
I0811 00:58:16.419922   174 net.cpp:94] Creating Layer loss3/loss
I0811 00:58:16.419926   174 net.cpp:435] loss3/loss <- loss3/classifier
I0811 00:58:16.419931   174 net.cpp:435] loss3/loss <- label_train-data_1_split_2
I0811 00:58:16.419936   174 net.cpp:409] loss3/loss -> loss
…
I0811 00:58:16.422803   174 solver.cpp:181] Creating test net (#0) specified by net file: train_val.prototxt
I0811 00:58:16.422955   174 net.cpp:323] The NetState phase (1) differed from the phase (0) specified by a rule in layer train-data
I0811 00:58:16.423674   174 net.cpp:52] Initializing net from parameters:
state {
phase: TEST
}
layer {
name: "val-data"
type: "Data"
top: "data"
top: "label"
include {
phase: TEST
}
transform_param {
mirror: false
crop_size: 224
mean_file: "/opt/DIGITS/digits/jobs/20190811-005252-9dba/mean.binaryproto"
}
data_param {
source: "/opt/DIGITS/digits/jobs/20190811-005252-9dba/val_db"
batch_size: 16
backend: LMDB
}
}
layer {
name: "conv1/7x7_s2"
type: "Convolution"
bottom: "data"
top: "conv1/7x7_s2"
param {
lr_mult: 1
decay_mult: 1
}
param {
lr_mult: 2
decay_mult: 0
}
convolution_param {
num_output: 64
pad: 3
kernel_size: 7
stride: 2
weight_filler {
type: "xavier"
std: 0.1
}
bias_filler {
type: "constant"
value: 0.2
}
}
}
layer {
name: "conv1/relu_7x7"
type: "ReLU"
bottom: "conv1/7x7_s2"
top: "conv1/7x7_s2"
}
layer {
name: "pool1/3x3_s2"
type: "Pooling"
bottom: "conv1/7x7_s2"
top: "pool1/3x3_s2"
pooling_param {
pool: MAX
kernel_size: 3
stride: 2
}
}
layer {
name: "pool1/norm1"
type: "LRN"
bottom: "pool1/3x3_s2"
top: "pool1/norm1"
lrn_param {
local_size: 5
alpha: 0.0001
beta: 0.75
}
}
layer {
name: "conv2/3x3_reduce"
type: "Convolution"
bottom: "pool1/norm1"
top: "conv2/3x3_reduce"
param {
lr_mult: 1
decay_mult: 1
}
param {
lr_mult: 2
decay_mult: 0
}
convolution_param {
num_output: 64
kernel_size: 1
weight_filler {
type: "xavier"
std: 0.1
}
bias_filler {
type: "constant"
value: 0.2
}
}
}
layer {
name: "conv2/relu_3x3_reduce"
type: "ReLU"
bottom: "conv2/3x3_reduce"
top: "conv2/3x3_reduce"
}
layer {
name: "conv2/3x3"
type: "Convolution"
bottom: "conv2/3x3_reduce"
top: "conv2/3x3"
param {
lr_mult: 1
decay_mult: 1
}
param {
lr_mult: 2
decay_mult: 0
}
convolution_param {
num_output: 192
pad: 1
kernel_size: 3
weight_filler {
type: "xavier"
std: 0.03
}
bias_filler {
type: "constant"
value: 0.2
}
}
}
layer {
name: "conv2/relu_3x3"
type: "ReLU"
bottom: "conv2/3x3"
top: "conv2/3x3"
}
layer {
name: "conv2/norm2"
type: "LRN"
bottom: "conv2/3x3"
top: "conv2/norm2"
lrn_param {
local_size: 5
alpha: 0.0001
beta: 0.75
}
}
layer {
name: "pool2/3x3_s2"
type: "Pooling"
bottom: "conv2/norm2"
top: "pool2/3x3_s2"
pooling_param {
pool: MAX
kernel_size: 3
stride: 2
}
}
layer {
name: "inception_3a/1x1"
type: "Convolution"
bottom: "pool2/3x3_s2"
top: "inception_3a/1x1"
param {
lr_mult: 1
decay_mult: 1
}
param {
lr_mult: 2
decay_mult: 0
}
convolution_param {
num_output: 64
kernel_size: 1
weight_filler {
type: "xavier"
std: 0.03
}
bias_filler {
type: "constant"
value: 0.2
}
}
}
layer {
name: "inception_3a/relu_1x1"
type: "ReLU"
bottom: "inception_3a/1x1"
top: "inception_3a/1x1"
}
layer {
name: "inception_3a/3x3_reduce"
type: "Convolution"
bottom: "pool2/3x3_s2"
top: "inception_3a/3x3_reduce"
param {
lr_mult: 1
decay_mult: 1
}
param {
lr_mult: 2
decay_mult: 0
}
convolution_param {
num_output: 96
kernel_size: 1
weight_filler {
type: "xavier"
std: 0.09
}
bias_filler {
type: "constant"
value: 0.2
}
}
}
layer {
name: "inception_3a/relu_3x3_reduce"
type: "ReLU"
bottom: "inception_3a/3x3_reduce"
top: "inception_3a/3x3_reduce"
}
layer {
name: "inception_3a/3x3"
type: "Convolution"
bottom: "inception_3a/3x3_reduce"
top: "inception_3a/3x3"
param {
lr_mult: 1
decay_mult: 1
}
param {
lr_mult: 2
decay_mult: 0
}
convolution_param {
num_output: 128
pad: 1
kernel_size: 3
weight_filler {
type: "xavier"
std: 0.03
}
bias_filler {
type: "constant"
value: 0.2
}
}
}
layer {
name: "inception_3a/relu_3x3"
type: "ReLU"
bottom: "inception_3a/3x3"
top: "inception_3a/3x3"
}
layer {
name: "inception_3a/5x5_reduce"
type: "Convolution"
bottom: "pool2/3x3_s2"
top: "inception_3a/5x5_reduce"
param {
lr_mult: 1
decay_mult: 1
}
param {
lr_mult: 2
decay_mult: 0
}
convolution_param {
num_output: 16
kernel_size: 1
weight_filler {
type: "xavier"
std: 0.2
}
bias_filler {
type: "constant"
value: 0.2
}
}
}
layer {
name: "inception_3a/relu_5x5_reduce"
type: "ReLU"
bottom: "inception_3a/5x5_reduce"
top: "inception_3a/5x5_reduce"
}
layer {
name: "inception_3a/5x5"
type: "Convolution"
bottom: "inception_3a/5x5_reduce"
top: "inception_3a/5x5"
param {
lr_mult: 1
decay_mult: 1
}
param {
lr_mult: 2
decay_mult: 0
}
convolution_param {
num_output: 32
pad: 2
kernel_size: 5
weight_filler {
type: "xavier"
std: 0.03
}
bias_filler {
type: "constant"
value: 0.2
}
}
}
layer {
name: "inception_3a/relu_5x5"
type: "ReLU"
bottom: "inception_3a/5x5"
top: "inception_3a/5x5"
}
layer {
name: "inception_3a/pool"
type: "Pooling"
bottom: "pool2/3x3_s2"
top: "inception_3a/pool"
pooling_param {
pool: MAX
kernel_size: 3
stride: 1
pad: 1
}
}
layer {
name: "inception_3a/pool_proj"
type: "Convolution"
bottom: "inception_3a/pool"
top: "inception_3a/pool_proj"
param {
lr_mult: 1
decay_mult: 1
}
param {
lr_mult: 2
decay_mult: 0
}
convolution_param {
num_output: 32
kernel_size: 1
weight_filler {
type: "xavier"
std: 0.1
}
bias_filler {
type: "constant"
value: 0.2
}
}
}
layer {
name: "inception_3a/relu_pool_proj"
type: "ReLU"
bottom: "inception_3a/pool_proj"
top: "inception_3a/pool_proj"
}
layer {
name: "inception_3a/output"
type: "Concat"
bottom: "inception_3a/1x1"
bottom: "inception_3a/3x3"
bottom: "inception_3a/5x5"
bottom: "inception_3a/pool_proj"
top: "inception_3a/output"
}
layer {
name: "inception_3b/1x1"
type: "Convolution"
bottom: "inception_3a/output"
top: "inception_3b/1x1"
param {
lr_mult: 1
decay_mult: 1
}
param {
lr_mult: 2
decay_mult: 0
}
convolution_param {
num_output: 128
kernel_size: 1
weight_filler {
type: "xavier"
std: 0.03
}
bias_filler {
type: "constant"
value: 0.2
}
}
}
layer {
name: "inception_3b/relu_1x1"
type: "ReLU"
bottom: "inception_3b/1x1"
top: "inception_3b/1x1"
}
layer {
name: "inception_3b/3x3_reduce"
type: "Convolution"
bottom: "inception_3a/output"
top: "inception_3b/3x3_reduce"
param {
lr_mult: 1
decay_mult: 1
}
param {
lr_mult: 2
decay_mult: 0
}
convolution_param {
num_output: 128
kernel_size: 1
weight_filler {
type: "xavier"
std: 0.09
}
bias_filler {
type: "constant"
value: 0.2
}
}
}
layer {
name: "inception_3b/relu_3x3_reduce"
type: "ReLU"
bottom: "inception_3b/3x3_reduce"
top: "inception_3b/3x3_reduce"
}
layer {
name: "inception_3b/3x3"
type: "Convolution"
bottom: "inception_3b/3x3_reduce"
top: "inception_3b/3x3"
param {
lr_mult: 1
decay_mult: 1
}
param {
lr_mult: 2
decay_mult: 0
}
convolution_param {
num_output: 192
pad: 1
kernel_size: 3
weight_filler {
type: "xavier"
std: 0.03
}
bias_filler {
type: "constant"
value: 0.2
}
}
}
layer {
name: "inception_3b/relu_3x3"
type: "ReLU"
bottom: "inception_3b/3x3"
top: "inception_3b/3x3"
}
layer {
name: "inception_3b/5x5_reduce"
type: "Convolution"
bottom: "inception_3a/output"
top: "inception_3b/5x5_reduce"
param {
lr_mult: 1
decay_mult: 1
}
param {
lr_mult: 2
decay_mult: 0
}
convolution_param {
num_output: 32
kernel_size: 1
weight_filler {
type: "xavier"
std: 0.2
}
bias_filler {
type: "constant"
value: 0.2
}
}
}
layer {
name: "inception_3b/relu_5x5_reduce"
type: "ReLU"
bottom: "inception_3b/5x5_reduce"
top: "inception_3b/5x5_reduce"
}
layer {
name: "inception_3b/5x5"
type: "Convolution"
bottom: "inception_3b/5x5_reduce"
top: "inception_3b/5x5"
param {
lr_mult: 1
decay_mult: 1
}
param {
lr_mult: 2
decay_mult: 0
}
convolution_param {
num_output: 96
pad: 2
kernel_size: 5
weight_filler {
type: "xavier"
std: 0.03
}
bias_filler {
type: "constant"
value: 0.2
}
}
}
layer {
name: "inception_3b/relu_5x5"
type: "ReLU"
bottom: "inception_3b/5x5"
top: "inception_3b/5x5"
}
layer {
name: "inception_3b/pool"
type: "Pooling"
bottom: "inception_3a/output"
top: "inception_3b/pool"
pooling_param {
pool: MAX
kernel_size: 3
stride: 1
pad: 1
}
}
layer {
name: "inception_3b/pool_proj"
type: "Convolution"
bottom: "inception_3b/pool"
top: "inception_3b/pool_proj"
param {
lr_mult: 1
decay_mult: 1
}
param {
lr_mult: 2
decay_mult: 0
}
convolution_param {
num_output: 64
kernel_size: 1
weight_filler {
type: "xavier"
std: 0.1
}
bias_filler {
type: "constant"
value: 0.2
}
}
}
layer {
name: "inception_3b/relu_pool_proj"
type: "ReLU"
bottom: "inception_3b/pool_proj"
top: "inception_3b/pool_proj"
}
layer {
name: "inception_3b/output"
type: "Concat"
bottom: "inception_3b/1x1"
bottom: "inception_3b/3x3"
bottom: "inception_3b/5x5"
bottom: "inception_3b/pool_proj"
top: "inception_3b/output"
}
layer {
name: "pool3/3x3_s2"
type: "Pooling"
bottom: "inception_3b/output"
top: "pool3/3x3_s2"
pooling_param {
pool: MAX
kernel_size: 3
stride: 2
}
}
layer {
name: "inception_4a/1x1"
type: "Convolution"
bottom: "pool3/3x3_s2"
top: "inception_4a/1x1"
param {
lr_mult: 1
decay_mult: 1
}
param {
lr_mult: 2
decay_mult: 0
}
convolution_param {
num_output: 192
kernel_size: 1
weight_filler {
type: "xavier"
std: 0.03
}
bias_filler {
type: "constant"
value: 0.2
}
}
}
layer {
name: "inception_4a/relu_1x1"
type: "ReLU"
bottom: "inception_4a/1x1"
top: "inception_4a/1x1"
}
layer {
name: "inception_4a/3x3_reduce"
type: "Convolution"
bottom: "pool3/3x3_s2"
top: "inception_4a/3x3_reduce"
param {
lr_mult: 1
decay_mult: 1
}
param {
lr_mult: 2
decay_mult: 0
}
convolution_param {
num_output: 96
kernel_size: 1
weight_filler {
type: "xavier"
std: 0.09
}
bias_filler {
type: "constant"
value: 0.2
}
}
}
layer {
name: "inception_4a/relu_3x3_reduce"
type: "ReLU"
bottom: "inception_4a/3x3_reduce"
top: "inception_4a/3x3_reduce"
}
layer {
name: "inception_4a/3x3"
type: "Convolution"
bottom: "inception_4a/3x3_reduce"
top: "inception_4a/3x3"
param {
lr_mult: 1
decay_mult: 1
}
param {
lr_mult: 2
decay_mult: 0
}
convolution_param {
num_output: 208
pad: 1
kernel_size: 3
weight_filler {
type: "xavier"
std: 0.03
}
bias_filler {
type: "constant"
value: 0.2
}
}
}
layer {
name: "inception_4a/relu_3x3"
type: "ReLU"
bottom: "inception_4a/3x3"
top: "inception_4a/3x3"
}
layer {
name: "inception_4a/5x5_reduce"
type: "Convolution"
bottom: "pool3/3x3_s2"
top: "inception_4a/5x5_reduce"
param {
lr_mult: 1
decay_mult: 1
}
param {
lr_mult: 2
decay_mult: 0
}
convolution_param {
num_output: 16
kernel_size: 1
weight_filler {
type: "xavier"
std: 0.2
}
bias_filler {
type: "constant"
value: 0.2
}
}
}
layer {
name: "inception_4a/relu_5x5_reduce"
type: "ReLU"
bottom: "inception_4a/5x5_reduce"
top: "inception_4a/5x5_reduce"
}
layer {
name: "inception_4a/5x5"
type: "Convolution"
bottom: "inception_4a/5x5_reduce"
top: "inception_4a/5x5"
param {
lr_mult: 1
decay_mult: 1
}
param {
lr_mult: 2
decay_mult: 0
}
convolution_param {
num_output: 48
pad: 2
kernel_size: 5
weight_filler {
type: "xavier"
std: 0.03
}
bias_filler {
type: "constant"
value: 0.2
}
}
}
layer {
name: "inception_4a/relu_5x5"
type: "ReLU"
bottom: "inception_4a/5x5"
top: "inception_4a/5x5"
}
layer {
name: "inception_4a/pool"
type: "Pooling"
bottom: "pool3/3x3_s2"
top: "inception_4a/pool"
pooling_param {
pool: MAX
kernel_size: 3
stride: 1
pad: 1
}
}
layer {
name: "inception_4a/pool_proj"
type: "Convolution"
bottom: "inception_4a/pool"
top: "inception_4a/pool_proj"
param {
lr_mult: 1
decay_mult: 1
}
param {
lr_mult: 2
decay_mult: 0
}
convolution_param {
num_output: 64
kernel_size: 1
weight_filler {
type: "xavier"
std: 0.1
}
bias_filler {
type: "constant"
value: 0.2
}
}
}
layer {
name: "inception_4a/relu_pool_proj"
type: "ReLU"
bottom: "inception_4a/pool_proj"
top: "inception_4a/pool_proj"
}
layer {
name: "inception_4a/output"
type: "Concat"
bottom: "inception_4a/1x1"
bottom: "inception_4a/3x3"
bottom: "inception_4a/5x5"
bottom: "inception_4a/pool_proj"
top: "inception_4a/output"
}
layer {
name: "loss1/ave_pool"
type: "Pooling"
bottom: "inception_4a/output"
top: "loss1/ave_pool"
pooling_param {
pool: AVE
kernel_size: 5
stride: 3
}
}
layer {
name: "loss1/conv"
type: "Convolution"
bottom: "loss1/ave_pool"
top: "loss1/conv"
param {
lr_mult: 1
decay_mult: 1
}
param {
lr_mult: 2
decay_mult: 0
}
convolution_param {
num_output: 128
kernel_size: 1
weight_filler {
type: "xavier"
std: 0.08
}
bias_filler {
type: "constant"
value: 0.2
}
}
}
layer {
name: "loss1/relu_conv"
type: "ReLU"
bottom: "loss1/conv"
top: "loss1/conv"
}
layer {
name: "loss1/fc"
type: "InnerProduct"
bottom: "loss1/conv"
top: "loss1/fc"
param {
lr_mult: 1
decay_mult: 1
}
param {
lr_mult: 2
decay_mult: 0
}
inner_product_param {
num_output: 1024
weight_filler {
type: "xavier"
std: 0.02
}
bias_filler {
type: "constant"
value: 0.2
}
}
}
layer {
name: "loss1/relu_fc"
type: "ReLU"
bottom: "loss1/fc"
top: "loss1/fc"
}
layer {
name: "loss1/drop_fc"
type: "Dropout"
bottom: "loss1/fc"
top: "loss1/fc"
dropout_param {
dropout_ratio: 0.7
}
}
layer {
name: "loss1/classifier"
type: "InnerProduct"
bottom: "loss1/fc"
top: "loss1/classifier"
param {
lr_mult: 1
decay_mult: 1
}
param {
lr_mult: 2
decay_mult: 0
}
inner_product_param {
num_output: 3
weight_filler {
type: "xavier"
std: 0.0009765625
}
bias_filler {
type: "constant"
value: 0
}
}
}
layer {
name: "loss1/loss"
type: "SoftmaxWithLoss"
bottom: "loss1/classifier"
bottom: "label"
top: "loss1/loss"
loss_weight: 0.3
}
layer {
name: "loss1/top-1"
type: "Accuracy"
bottom: "loss1/classifier"
bottom: "label"
top: "loss1/accuracy"
include {
phase: TEST
}
}
layer {
name: "inception_4b/1x1"
type: "Convolution"
bottom: "inception_4a/output"
top: "inception_4b/1x1"
param {
lr_mult: 1
decay_mult: 1
}
param {
lr_mult: 2
decay_mult: 0
}
convolution_param {
num_output: 160
kernel_size: 1
weight_filler {
type: "xavier"
std: 0.03
}
bias_filler {
type: "constant"
value: 0.2
}
}
}
layer {
name: "inception_4b/relu_1x1"
type: "ReLU"
bottom: "inception_4b/1x1"
top: "inception_4b/1x1"
}
layer {
name: "inception_4b/3x3_reduce"
type: "Convolution"
bottom: "inception_4a/output"
top: "inception_4b/3x3_reduce"
param {
lr_mult: 1
decay_mult: 1
}
param {
lr_mult: 2
decay_mult: 0
}
convolution_param {
num_output: 112
kernel_size: 1
weight_filler {
type: "xavier"
std: 0.09
}
bias_filler {
type: "constant"
value: 0.2
}
}
}
layer {
name: "inception_4b/relu_3x3_reduce"
type: "ReLU"
bottom: "inception_4b/3x3_reduce"
top: "inception_4b/3x3_reduce"
}
layer {
name: "inception_4b/3x3"
type: "Convolution"
bottom: "inception_4b/3x3_reduce"
top: "inception_4b/3x3"
param {
lr_mult: 1
decay_mult: 1
}
param {
lr_mult: 2
decay_mult: 0
}
convolution_param {
num_output: 224
pad: 1
kernel_size: 3
weight_filler {
type: "xavier"
std: 0.03
}
bias_filler {
type: "constant"
value: 0.2
}
}
}
layer {
name: "inception_4b/relu_3x3"
type: "ReLU"
bottom: "inception_4b/3x3"
top: "inception_4b/3x3"
}
layer {
name: "inception_4b/5x5_reduce"
type: "Convolution"
bottom: "inception_4a/output"
top: "inception_4b/5x5_reduce"
param {
lr_mult: 1
decay_mult: 1
}
param {
lr_mult: 2
decay_mult: 0
}
convolution_param {
num_output: 24
kernel_size: 1
weight_filler {
type: "xavier"
std: 0.2
}
bias_filler {
type: "constant"
value: 0.2
}
}
}
layer {
name: "inception_4b/relu_5x5_reduce"
type: "ReLU"
bottom: "inception_4b/5x5_reduce"
top: "inception_4b/5x5_reduce"
}
layer {
name: "inception_4b/5x5"
type: "Convolution"
bottom: "inception_4b/5x5_reduce"
top: "inception_4b/5x5"
param {
lr_mult: 1
decay_mult: 1
}
param {
lr_mult: 2
decay_mult: 0
}
convolution_param {
num_output: 64
pad: 2
kernel_size: 5
weight_filler {
type: "xavier"
std: 0.03
}
bias_filler {
type: "constant"
value: 0.2
}
}
}
layer {
name: "inception_4b/relu_5x5"
type: "ReLU"
bottom: "inception_4b/5x5"
top: "inception_4b/5x5"
}
layer {
name: "inception_4b/pool"
type: "Pooling"
bottom: "inception_4a/output"
top: "inception_4b/pool"
pooling_param {
pool: MAX
kernel_size: 3
stride: 1
pad: 1
}
}
layer {
name: "inception_4b/pool_proj"
type: "Convolution"
bottom: "inception_4b/pool"
top: "inception_4b/pool_proj"
param {
lr_mult: 1
decay_mult: 1
}
param {
lr_mult: 2
decay_mult: 0
}
convolution_param {
num_output: 64
kernel_size: 1
weight_filler {
type: "xavier"
std: 0.1
}
bias_filler {
type: "constant"
value: 0.2
}
}
}
layer {
name: "inception_4b/relu_pool_proj"
type: "ReLU"
bottom: "inception_4b/pool_proj"
top: "inception_4b/pool_proj"
}
layer {
name: "inception_4b/output"
type: "Concat"
bottom: "inception_4b/1x1"
bottom: "inception_4b/3x3"
bottom: "inception_4b/5x5"
bottom: "inception_4b/pool_proj"
top: "inception_4b/output"
}
layer {
name: "inception_4c/1x1"
type: "Convolution"
bottom: "inception_4b/output"
top: "inception_4c/1x1"
param {
lr_mult: 1
decay_mult: 1
}
param {
lr_mult: 2
decay_mult: 0
}
convolution_param {
num_output: 128
kernel_size: 1
weight_filler {
type: "xavier"
std: 0.03
}
bias_filler {
type: "constant"
value: 0.2
}
}
}
layer {
name: "inception_4c/relu_1x1"
type: "ReLU"
bottom: "inception_4c/1x1"
top: "inception_4c/1x1"
}
layer {
name: "inception_4c/3x3_reduce"
type: "Convolution"
bottom: "inception_4b/output"
top: "inception_4c/3x3_reduce"
param {
lr_mult: 1
decay_mult: 1
}
param {
lr_mult: 2
decay_mult: 0
}
convolution_param {
num_output: 128
kernel_size: 1
weight_filler {
type: "xavier"
std: 0.09
}
bias_filler {
type: "constant"
value: 0.2
}
}
}
layer {
name: "inception_4c/relu_3x3_reduce"
type: "ReLU"
bottom: "inception_4c/3x3_reduce"
top: "inception_4c/3x3_reduce"
}
layer {
name: "inception_4c/3x3"
type: "Convolution"
bottom: "inception_4c/3x3_reduce"
top: "inception_4c/3x3"
param {
lr_mult: 1
decay_mult: 1
}
param {
lr_mult: 2
decay_mult: 0
}
convolution_param {
num_output: 256
pad: 1
kernel_size: 3
weight_filler {
type: "xavier"
std: 0.03
}
bias_filler {
type: "constant"
value: 0.2
}
}
}
layer {
name: "inception_4c/relu_3x3"
type: "ReLU"
bottom: "inception_4c/3x3"
top: "inception_4c/3x3"
}
layer {
name: "inception_4c/5x5_reduce"
type: "Convolution"
bottom: "inception_4b/output"
top: "inception_4c/5x5_reduce"
param {
lr_mult: 1
decay_mult: 1
}
param {
lr_mult: 2
decay_mult: 0
}
convolution_param {
num_output: 24
kernel_size: 1
weight_filler {
type: "xavier"
std: 0.2
}
bias_filler {
type: "constant"
value: 0.2
}
}
}
layer {
name: "inception_4c/relu_5x5_reduce"
type: "ReLU"
bottom: "inception_4c/5x5_reduce"
top: "inception_4c/5x5_reduce"
}
layer {
name: "inception_4c/5x5"
type: "Convolution"
bottom: "inception_4c/5x5_reduce"
top: "inception_4c/5x5"
param {
lr_mult: 1
decay_mult: 1
}
param {
lr_mult: 2
decay_mult: 0
}
convolution_param {
num_output: 64
pad: 2
kernel_size: 5
weight_filler {
type: "xavier"
std: 0.03
}
bias_filler {
type: "constant"
value: 0.2
}
}
}
layer {
name: "inception_4c/relu_5x5"
type: "ReLU"
bottom: "inception_4c/5x5"
top: "inception_4c/5x5"
}
layer {
name: "inception_4c/pool"
type: "Pooling"
bottom: "inception_4b/output"
top: "inception_4c/pool"
pooling_param {
pool: MAX
kernel_size: 3
stride: 1
pad: 1
}
}
layer {
name: "inception_4c/pool_proj"
type: "Convolution"
bottom: "inception_4c/pool"
top: "inception_4c/pool_proj"
param {
lr_mult: 1
decay_mult: 1
}
param {
lr_mult: 2
decay_mult: 0
}
convolution_param {
num_output: 64
kernel_size: 1
weight_filler {
type: "xavier"
std: 0.1
}
bias_filler {
type: "constant"
value: 0.2
}
}
}
layer {
name: "inception_4c/relu_pool_proj"
type: "ReLU"
bottom: "inception_4c/pool_proj"
top: "inception_4c/pool_proj"
}
layer {
name: "inception_4c/output"
type: "Concat"
bottom: "inception_4c/1x1"
bottom: "inception_4c/3x3"
bottom: "inception_4c/5x5"
bottom: "inception_4c/pool_proj"
top: "inception_4c/output"
}
layer {
name: "inception_4d/1x1"
type: "Convolution"
bottom: "inception_4c/output"
top: "inception_4d/1x1"
param {
lr_mult: 1
decay_mult: 1
}
param {
lr_mult: 2
decay_mult: 0
}
convolution_param {
num_output: 112
kernel_size: 1
weight_filler {
type: "xavier"
std: 0.03
}
bias_filler {
type: "constant"
value: 0.2
}
}
}
layer {
name: "inception_4d/relu_1x1"
type: "ReLU"
bottom: "inception_4d/1x1"
…
I0811 00:58:16.533984   174 net.cpp:159] Memory required for data: 699835400
I0811 00:58:16.533989   174 layer_factory.hpp:77] Creating layer inception_4c/relu_5x5
I0811 00:58:16.534019   174 net.cpp:94] Creating Layer inception_4c/relu_5x5
I0811 00:58:16.534025   174 net.cpp:435] inception_4c/relu_5x5 <- inception_4c/5x5
I0811 00:58:16.534031   174 net.cpp:396] inception_4c/relu_5x5 -> inception_4c/5x5 (in-place)
I0811 00:58:16.534039   174 net.cpp:144] Setting up inception_4c/relu_5x5
I0811 00:58:16.534044   174 net.cpp:151] Top shape: 16 64 14 14 (200704)
I0811 00:58:16.534046   174 net.cpp:159] Memory required for data: 700638216
I0811 00:58:16.534050   174 layer_factory.hpp:77] Creating layer inception_4c/pool
I0811 00:58:16.534056   174 net.cpp:94] Creating Layer inception_4c/pool
I0811 00:58:16.534060   174 net.cpp:435] inception_4c/pool <- inception_4b/output_inception_4b/output_0_split_3
I0811 00:58:16.534066   174 net.cpp:409] inception_4c/pool -> inception_4c/pool
I0811 00:58:16.534106   174 net.cpp:144] Setting up inception_4c/pool
I0811 00:58:16.534111   174 net.cpp:151] Top shape: 16 512 14 14 (1605632)
I0811 00:58:16.534114   174 net.cpp:159] Memory required for data: 707060744
I0811 00:58:16.534118   174 layer_factory.hpp:77] Creating layer inception_4c/pool_proj
I0811 00:58:16.534126   174 net.cpp:94] Creating Layer inception_4c/pool_proj
I0811 00:58:16.534130   174 net.cpp:435] inception_4c/pool_proj <- inception_4c/pool
I0811 00:58:16.534137   174 net.cpp:409] inception_4c/pool_proj -> inception_4c/pool_proj
I0811 00:58:16.534606   174 net.cpp:144] Setting up inception_4c/pool_proj
I0811 00:58:16.534615   174 net.cpp:151] Top shape: 16 64 14 14 (200704)
I0811 00:58:16.534618   174 net.cpp:159] Memory required for data: 707863560
I0811 00:58:16.534624   174 layer_factory.hpp:77] Creating layer inception_4c/relu_pool_proj
I0811 00:58:16.534629   174 net.cpp:94] Creating Layer inception_4c/relu_pool_proj
I0811 00:58:16.534633   174 net.cpp:435] inception_4c/relu_pool_proj <- inception_4c/pool_proj
I0811 00:58:16.534639   174 net.cpp:396] inception_4c/relu_pool_proj -> inception_4c/pool_proj (in-place)
I0811 00:58:16.534646   174 net.cpp:144] Setting up inception_4c/relu_pool_proj
I0811 00:58:16.534649   174 net.cpp:151] Top shape: 16 64 14 14 (200704)
I0811 00:58:16.534652   174 net.cpp:159] Memory required for data: 708666376
I0811 00:58:16.534656   174 layer_factory.hpp:77] Creating layer inception_4c/output
I0811 00:58:16.534662   174 net.cpp:94] Creating Layer inception_4c/output
I0811 00:58:16.534664   174 net.cpp:435] inception_4c/output <- inception_4c/1x1
I0811 00:58:16.534668   174 net.cpp:435] inception_4c/output <- inception_4c/3x3
I0811 00:58:16.534672   174 net.cpp:435] inception_4c/output <- inception_4c/5x5
I0811 00:58:16.534677   174 net.cpp:435] inception_4c/output <- inception_4c/pool_proj
I0811 00:58:16.534682   174 net.cpp:409] inception_4c/output -> inception_4c/output
I0811 00:58:16.534703   174 net.cpp:144] Setting up inception_4c/output
I0811 00:58:16.534708   174 net.cpp:151] Top shape: 16 512 14 14 (1605632)
I0811 00:58:16.534711   174 net.cpp:159] Memory required for data: 715088904
I0811 00:58:16.534714   174 layer_factory.hpp:77] Creating layer inception_4c/output_inception_4c/output_0_split
I0811 00:58:16.534721   174 net.cpp:94] Creating Layer inception_4c/output_inception_4c/output_0_split
I0811 00:58:16.534725   174 net.cpp:435] inception_4c/output_inception_4c/output_0_split <- inception_4c/output
I0811 00:58:16.534731   174 net.cpp:409] inception_4c/output_inception_4c/output_0_split -> inception_4c/output_inception_4c/output_0_split_0
I0811 00:58:16.534739   174 net.cpp:409] inception_4c/output_inception_4c/output_0_split -> inception_4c/output_inception_4c/output_0_split_1
I0811 00:58:16.534744   174 net.cpp:409] inception_4c/output_inception_4c/output_0_split -> inception_4c/output_inception_4c/output_0_split_2
I0811 00:58:16.534751   174 net.cpp:409] inception_4c/output_inception_4c/output_0_split -> inception_4c/output_inception_4c/output_0_split_3
I0811 00:58:16.534859   174 net.cpp:144] Setting up inception_4c/output_inception_4c/output_0_split
I0811 00:58:16.534867   174 net.cpp:151] Top shape: 16 512 14 14 (1605632)
I0811 00:58:16.534914   174 net.cpp:151] Top shape: 16 512 14 14 (1605632)
I0811 00:58:16.534919   174 net.cpp:151] Top shape: 16 512 14 14 (1605632)
I0811 00:58:16.534924   174 net.cpp:151] Top shape: 16 512 14 14 (1605632)
I0811 00:58:16.534926   174 net.cpp:159] Memory required for data: 740779016
I0811 00:58:16.534945   174 layer_factory.hpp:77] Creating layer inception_4d/1x1
I0811 00:58:16.534976   174 net.cpp:94] Creating Layer inception_4d/1x1
I0811 00:58:16.534981   174 net.cpp:435] inception_4d/1x1 <- inception_4c/output_inception_4c/output_0_split_0
I0811 00:58:16.534987   174 net.cpp:409] inception_4d/1x1 -> inception_4d/1x1
I0811 00:58:16.536891   174 net.cpp:144] Setting up inception_4d/1x1
I0811 00:58:16.536906   174 net.cpp:151] Top shape: 16 112 14 14 (351232)
I0811 00:58:16.536924   174 net.cpp:159] Memory required for data: 742183944
I0811 00:58:16.536931   174 layer_factory.hpp:77] Creating layer inception_4d/relu_1x1
I0811 00:58:16.536936   174 net.cpp:94] Creating Layer inception_4d/relu_1x1
I0811 00:58:16.536942   174 net.cpp:435] inception_4d/relu_1x1 <- inception_4d/1x1
I0811 00:58:16.536947   174 net.cpp:396] inception_4d/relu_1x1 -> inception_4d/1x1 (in-place)
I0811 00:58:16.536954   174 net.cpp:144] Setting up inception_4d/relu_1x1
I0811 00:58:16.536958   174 net.cpp:151] Top shape: 16 112 14 14 (351232)
I0811 00:58:16.536978   174 net.cpp:159] Memory required for data: 743588872
I0811 00:58:16.536980   174 layer_factory.hpp:77] Creating layer inception_4d/3x3_reduce
I0811 00:58:16.536991   174 net.cpp:94] Creating Layer inception_4d/3x3_reduce
I0811 00:58:16.536995   174 net.cpp:435] inception_4d/3x3_reduce <- inception_4c/output_inception_4c/output_0_split_1
I0811 00:58:16.537001   174 net.cpp:409] inception_4d/3x3_reduce -> inception_4d/3x3_reduce
I0811 00:58:16.539018   174 net.cpp:144] Setting up inception_4d/3x3_reduce
I0811 00:58:16.539038   174 net.cpp:151] Top shape: 16 144 14 14 (451584)
I0811 00:58:16.539043   174 net.cpp:159] Memory required for data: 745395208
I0811 00:58:16.539053   174 layer_factory.hpp:77] Creating layer inception_4d/relu_3x3_reduce
I0811 00:58:16.539064   174 net.cpp:94] Creating Layer inception_4d/relu_3x3_reduce
I0811 00:58:16.539072   174 net.cpp:435] inception_4d/relu_3x3_reduce <- inception_4d/3x3_reduce
I0811 00:58:16.539081   174 net.cpp:396] inception_4d/relu_3x3_reduce -> inception_4d/3x3_reduce (in-place)
I0811 00:58:16.539093   174 net.cpp:144] Setting up inception_4d/relu_3x3_reduce
I0811 00:58:16.539100   174 net.cpp:151] Top shape: 16 144 14 14 (451584)
I0811 00:58:16.539106   174 net.cpp:159] Memory required for data: 747201544
I0811 00:58:16.539111   174 layer_factory.hpp:77] Creating layer inception_4d/3x3
I0811 00:58:16.539125   174 net.cpp:94] Creating Layer inception_4d/3x3
I0811 00:58:16.539131   174 net.cpp:435] inception_4d/3x3 <- inception_4d/3x3_reduce
I0811 00:58:16.539141   174 net.cpp:409] inception_4d/3x3 -> inception_4d/3x3
I0811 00:58:16.544982   174 net.cpp:144] Setting up inception_4d/3x3
I0811 00:58:16.545003   174 net.cpp:151] Top shape: 16 288 14 14 (903168)
I0811 00:58:16.545011   174 net.cpp:159] Memory required for data: 750814216
I0811 00:58:16.545020   174 layer_factory.hpp:77] Creating layer inception_4d/relu_3x3
I0811 00:58:16.545030   174 net.cpp:94] Creating Layer inception_4d/relu_3x3
I0811 00:58:16.545037   174 net.cpp:435] inception_4d/relu_3x3 <- inception_4d/3x3
I0811 00:58:16.545047   174 net.cpp:396] inception_4d/relu_3x3 -> inception_4d/3x3 (in-place)
I0811 00:58:16.545058   174 net.cpp:144] Setting up inception_4d/relu_3x3
I0811 00:58:16.545066   174 net.cpp:151] Top shape: 16 288 14 14 (903168)
I0811 00:58:16.545071   174 net.cpp:159] Memory required for data: 754426888
I0811 00:58:16.545076   174 layer_factory.hpp:77] Creating layer inception_4d/5x5_reduce
I0811 00:58:16.545089   174 net.cpp:94] Creating Layer inception_4d/5x5_reduce
I0811 00:58:16.545096   174 net.cpp:435] inception_4d/5x5_reduce <- inception_4c/output_inception_4c/output_0_split_2
I0811 00:58:16.545106   174 net.cpp:409] inception_4d/5x5_reduce -> inception_4d/5x5_reduce
I0811 00:58:16.545724   174 net.cpp:144] Setting up inception_4d/5x5_reduce
I0811 00:58:16.545754   174 net.cpp:151] Top shape: 16 32 14 14 (100352)
I0811 00:58:16.545759   174 net.cpp:159] Memory required for data: 754828296
I0811 00:58:16.545768   174 layer_factory.hpp:77] Creating layer inception_4d/relu_5x5_reduce
I0811 00:58:16.545792   174 net.cpp:94] Creating Layer inception_4d/relu_5x5_reduce
I0811 00:58:16.545797   174 net.cpp:435] inception_4d/relu_5x5_reduce <- inception_4d/5x5_reduce
I0811 00:58:16.545806   174 net.cpp:396] inception_4d/relu_5x5_reduce -> inception_4d/5x5_reduce (in-place)
I0811 00:58:16.545831   174 net.cpp:144] Setting up inception_4d/relu_5x5_reduce
I0811 00:58:16.545838   174 net.cpp:151] Top shape: 16 32 14 14 (100352)
I0811 00:58:16.545858   174 net.cpp:159] Memory required for data: 755229704
I0811 00:58:16.545864   174 layer_factory.hpp:77] Creating layer inception_4d/5x5
I0811 00:58:16.545892   174 net.cpp:94] Creating Layer inception_4d/5x5
I0811 00:58:16.545898   174 net.cpp:435] inception_4d/5x5 <- inception_4d/5x5_reduce
I0811 00:58:16.545908   174 net.cpp:409] inception_4d/5x5 -> inception_4d/5x5
I0811 00:58:16.546880   174 net.cpp:144] Setting up inception_4d/5x5
I0811 00:58:16.546893   174 net.cpp:151] Top shape: 16 64 14 14 (200704)
I0811 00:58:16.546898   174 net.cpp:159] Memory required for data: 756032520
I0811 00:58:16.546907   174 layer_factory.hpp:77] Creating layer inception_4d/relu_5x5
I0811 00:58:16.546918   174 net.cpp:94] Creating Layer inception_4d/relu_5x5
I0811 00:58:16.546926   174 net.cpp:435] inception_4d/relu_5x5 <- inception_4d/5x5
I0811 00:58:16.546934   174 net.cpp:396] inception_4d/relu_5x5 -> inception_4d/5x5 (in-place)
I0811 00:58:16.546944   174 net.cpp:144] Setting up inception_4d/relu_5x5
I0811 00:58:16.546952   174 net.cpp:151] Top shape: 16 64 14 14 (200704)
I0811 00:58:16.546957   174 net.cpp:159] Memory required for data: 756835336
I0811 00:58:16.546962   174 layer_factory.hpp:77] Creating layer inception_4d/pool
I0811 00:58:16.546972   174 net.cpp:94] Creating Layer inception_4d/pool
I0811 00:58:16.546978   174 net.cpp:435] inception_4d/pool <- inception_4c/output_inception_4c/output_0_split_3
I0811 00:58:16.546988   174 net.cpp:409] inception_4d/pool -> inception_4d/pool
I0811 00:58:16.547053   174 net.cpp:144] Setting up inception_4d/pool
I0811 00:58:16.547062   174 net.cpp:151] Top shape: 16 512 14 14 (1605632)
I0811 00:58:16.547067   174 net.cpp:159] Memory required for data: 763257864
I0811 00:58:16.547073   174 layer_factory.hpp:77] Creating layer inception_4d/pool_proj
I0811 00:58:16.547086   174 net.cpp:94] Creating Layer inception_4d/pool_proj
I0811 00:58:16.547091   174 net.cpp:435] inception_4d/pool_proj <- inception_4d/pool
I0811 00:58:16.547116   174 net.cpp:409] inception_4d/pool_proj -> inception_4d/pool_proj
I0811 00:58:16.547914   174 net.cpp:144] Setting up inception_4d/pool_proj
I0811 00:58:16.547926   174 net.cpp:151] Top shape: 16 64 14 14 (200704)
I0811 00:58:16.547931   174 net.cpp:159] Memory required for data: 764060680
I0811 00:58:16.547982   174 layer_factory.hpp:77] Creating layer inception_4d/relu_pool_proj
I0811 00:58:16.547996   174 net.cpp:94] Creating Layer inception_4d/relu_pool_proj
I0811 00:58:16.548002   174 net.cpp:435] inception_4d/relu_pool_proj <- inception_4d/pool_proj
I0811 00:58:16.548012   174 net.cpp:396] inception_4d/relu_pool_proj -> inception_4d/pool_proj (in-place)
I0811 00:58:16.548023   174 net.cpp:144] Setting up inception_4d/relu_pool_proj
I0811 00:58:16.548030   174 net.cpp:151] Top shape: 16 64 14 14 (200704)
I0811 00:58:16.548036   174 net.cpp:159] Memory required for data: 764863496
I0811 00:58:16.548053   174 layer_factory.hpp:77] Creating layer inception_4d/output
I0811 00:58:16.548063   174 net.cpp:94] Creating Layer inception_4d/output
I0811 00:58:16.548069   174 net.cpp:435] inception_4d/output <- inception_4d/1x1
I0811 00:58:16.548075   174 net.cpp:435] inception_4d/output <- inception_4d/3x3
I0811 00:58:16.548094   174 net.cpp:435] inception_4d/output <- inception_4d/5x5
I0811 00:58:16.548118   174 net.cpp:435] inception_4d/output <- inception_4d/pool_proj
I0811 00:58:16.548130   174 net.cpp:409] inception_4d/output -> inception_4d/output
I0811 00:58:16.548173   174 net.cpp:144] Setting up inception_4d/output
I0811 00:58:16.548184   174 net.cpp:151] Top shape: 16 528 14 14 (1655808)
I0811 00:58:16.548188   174 net.cpp:159] Memory required for data: 771486728
I0811 00:58:16.548194   174 layer_factory.hpp:77] Creating layer inception_4d/output_inception_4d/output_0_split
I0811 00:58:16.548205   174 net.cpp:94] Creating Layer inception_4d/output_inception_4d/output_0_split
I0811 00:58:16.548211   174 net.cpp:435] inception_4d/output_inception_4d/output_0_split <- inception_4d/output
I0811 00:58:16.548221   174 net.cpp:409] inception_4d/output_inception_4d/output_0_split -> inception_4d/output_inception_4d/output_0_split_0
I0811 00:58:16.548233   174 net.cpp:409] inception_4d/output_inception_4d/output_0_split -> inception_4d/output_inception_4d/output_0_split_1
I0811 00:58:16.548244   174 net.cpp:409] inception_4d/output_inception_4d/output_0_split -> inception_4d/output_inception_4d/output_0_split_2
I0811 00:58:16.548254   174 net.cpp:409] inception_4d/output_inception_4d/output_0_split -> inception_4d/output_inception_4d/output_0_split_3
I0811 00:58:16.548265   174 net.cpp:409] inception_4d/output_inception_4d/output_0_split -> inception_4d/output_inception_4d/output_0_split_4
I0811 00:58:16.548380   174 net.cpp:144] Setting up inception_4d/output_inception_4d/output_0_split
I0811 00:58:16.548391   174 net.cpp:151] Top shape: 16 528 14 14 (1655808)
I0811 00:58:16.548398   174 net.cpp:151] Top shape: 16 528 14 14 (1655808)
I0811 00:58:16.548404   174 net.cpp:151] Top shape: 16 528 14 14 (1655808)
I0811 00:58:16.548411   174 net.cpp:151] Top shape: 16 528 14 14 (1655808)
I0811 00:58:16.548427   174 net.cpp:151] Top shape: 16 528 14 14 (1655808)
I0811 00:58:16.548432   174 net.cpp:159] Memory required for data: 804602888
I0811 00:58:16.548437   174 layer_factory.hpp:77] Creating layer loss2/ave_pool
I0811 00:58:16.548447   174 net.cpp:94] Creating Layer loss2/ave_pool
I0811 00:58:16.548454   174 net.cpp:435] loss2/ave_pool <- inception_4d/output_inception_4d/output_0_split_0
I0811 00:58:16.548463   174 net.cpp:409] loss2/ave_pool -> loss2/ave_pool
I0811 00:58:16.548497   174 net.cpp:144] Setting up loss2/ave_pool
I0811 00:58:16.548506   174 net.cpp:151] Top shape: 16 528 4 4 (135168)
I0811 00:58:16.548512   174 net.cpp:159] Memory required for data: 805143560
I0811 00:58:16.548517   174 layer_factory.hpp:77] Creating layer loss2/conv
I0811 00:58:16.548529   174 net.cpp:94] Creating Layer loss2/conv
I0811 00:58:16.548535   174 net.cpp:435] loss2/conv <- loss2/ave_pool
I0811 00:58:16.548545   174 net.cpp:409] loss2/conv -> loss2/conv
I0811 00:58:16.550534   174 net.cpp:144] Setting up loss2/conv
I0811 00:58:16.550554   174 net.cpp:151] Top shape: 16 128 4 4 (32768)
I0811 00:58:16.550560   174 net.cpp:159] Memory required for data: 805274632
I0811 00:58:16.550570   174 layer_factory.hpp:77] Creating layer loss2/relu_conv
I0811 00:58:16.550580   174 net.cpp:94] Creating Layer loss2/relu_conv
I0811 00:58:16.550585   174 net.cpp:435] loss2/relu_conv <- loss2/conv
I0811 00:58:16.550595   174 net.cpp:396] loss2/relu_conv -> loss2/conv (in-place)
I0811 00:58:16.550606   174 net.cpp:144] Setting up loss2/relu_conv
I0811 00:58:16.550613   174 net.cpp:151] Top shape: 16 128 4 4 (32768)
I0811 00:58:16.550618   174 net.cpp:159] Memory required for data: 805405704
I0811 00:58:16.550624   174 layer_factory.hpp:77] Creating layer loss2/fc
I0811 00:58:16.550634   174 net.cpp:94] Creating Layer loss2/fc
I0811 00:58:16.550639   174 net.cpp:435] loss2/fc <- loss2/conv
I0811 00:58:16.550648   174 net.cpp:409] loss2/fc -> loss2/fc
I0811 00:58:16.571213   174 net.cpp:144] Setting up loss2/fc
I0811 00:58:16.571229   174 net.cpp:151] Top shape: 16 1024 (16384)
I0811 00:58:16.571233   174 net.cpp:159] Memory required for data: 805471240
I0811 00:58:16.571240   174 layer_factory.hpp:77] Creating layer loss2/relu_fc
I0811 00:58:16.571264   174 net.cpp:94] Creating Layer loss2/relu_fc
I0811 00:58:16.571269   174 net.cpp:435] loss2/relu_fc <- loss2/fc
I0811 00:58:16.571275   174 net.cpp:396] loss2/relu_fc -> loss2/fc (in-place)
I0811 00:58:16.571285   174 net.cpp:144] Setting up loss2/relu_fc
I0811 00:58:16.571290   174 net.cpp:151] Top shape: 16 1024 (16384)
I0811 00:58:16.571292   174 net.cpp:159] Memory required for data: 805536776
I0811 00:58:16.571295   174 layer_factory.hpp:77] Creating layer loss2/drop_fc
I0811 00:58:16.571302   174 net.cpp:94] Creating Layer loss2/drop_fc
I0811 00:58:16.571305   174 net.cpp:435] loss2/drop_fc <- loss2/fc
I0811 00:58:16.571311   174 net.cpp:396] loss2/drop_fc -> loss2/fc (in-place)
I0811 00:58:16.571337   174 net.cpp:144] Setting up loss2/drop_fc
I0811 00:58:16.571343   174 net.cpp:151] Top shape: 16 1024 (16384)
I0811 00:58:16.571346   174 net.cpp:159] Memory required for data: 805602312
I0811 00:58:16.571349   174 layer_factory.hpp:77] Creating layer loss2/classifier
I0811 00:58:16.571365   174 net.cpp:94] Creating Layer loss2/classifier
I0811 00:58:16.571369   174 net.cpp:435] loss2/classifier <- loss2/fc
I0811 00:58:16.571388   174 net.cpp:409] loss2/classifier -> loss2/classifier
I0811 00:58:16.571507   174 net.cpp:144] Setting up loss2/classifier
I0811 00:58:16.571516   174 net.cpp:151] Top shape: 16 3 (48)
I0811 00:58:16.571518   174 net.cpp:159] Memory required for data: 805602504
I0811 00:58:16.571524   174 layer_factory.hpp:77] Creating layer loss2/classifier_loss2/classifier_0_split
I0811 00:58:16.571535   174 net.cpp:94] Creating Layer loss2/classifier_loss2/classifier_0_split
I0811 00:58:16.571540   174 net.cpp:435] loss2/classifier_loss2/classifier_0_split <- loss2/classifier
I0811 00:58:16.571547   174 net.cpp:409] loss2/classifier_loss2/classifier_0_split -> loss2/classifier_loss2/classifier_0_split_0
I0811 00:58:16.571553   174 net.cpp:409] loss2/classifier_loss2/classifier_0_split -> loss2/classifier_loss2/classifier_0_split_1
I0811 00:58:16.571595   174 net.cpp:144] Setting up loss2/classifier_loss2/classifier_0_split
I0811 00:58:16.571601   174 net.cpp:151] Top shape: 16 3 (48)
I0811 00:58:16.571604   174 net.cpp:151] Top shape: 16 3 (48)
I0811 00:58:16.571607   174 net.cpp:159] Memory required for data: 805602888
I0811 00:58:16.571611   174 layer_factory.hpp:77] Creating layer loss2/loss
I0811 00:58:16.571617   174 net.cpp:94] Creating Layer loss2/loss
I0811 00:58:16.571622   174 net.cpp:435] loss2/loss <- loss2/classifier_loss2/classifier_0_split_0
I0811 00:58:16.571627   174 net.cpp:435] loss2/loss <- label_val-data_1_split_2
…
I0811 00:58:16.571796   174 net.cpp:144] Setting up loss2/top-1
I0811 00:58:16.571801   174 net.cpp:151] Top shape: (1)
I0811 00:58:16.571805   174 net.cpp:159] Memory required for data: 805602896
I0811 00:58:16.571807   174 layer_factory.hpp:77] Creating layer inception_4e/1x1
I0811 00:58:16.571822   174 net.cpp:94] Creating Layer inception_4e/1x1
I0811 00:58:16.571827   174 net.cpp:435] inception_4e/1x1 <- inception_4d/output_inception_4d/output_0_split_1
I0811 00:58:16.571838   174 net.cpp:409] inception_4e/1x1 -> inception_4e/1x1
I0811 00:58:16.572940   174 net.cpp:144] Setting up inception_4e/1x1
I0811 00:58:16.572968   174 net.cpp:151] Top shape: 16 256 14 14 (802816)
I0811 00:58:16.572973   174 net.cpp:159] Memory required for data: 808814160
I0811 00:58:16.572979   174 layer_factory.hpp:77] Creating layer inception_4e/relu_1x1
I0811 00:58:16.572986   174 net.cpp:94] Creating Layer inception_4e/relu_1x1
I0811 00:58:16.572990   174 net.cpp:435] inception_4e/relu_1x1 <- inception_4e/1x1
I0811 00:58:16.572996   174 net.cpp:396] inception_4e/relu_1x1 -> inception_4e/1x1 (in-place)
I0811 00:58:16.573004   174 net.cpp:144] Setting up inception_4e/relu_1x1
I0811 00:58:16.573009   174 net.cpp:151] Top shape: 16 256 14 14 (802816)
I0811 00:58:16.573011   174 net.cpp:159] Memory required for data: 812025424
I0811 00:58:16.573015   174 layer_factory.hpp:77] Creating layer inception_4e/3x3_reduce
I0811 00:58:16.573050   174 net.cpp:94] Creating Layer inception_4e/3x3_reduce
I0811 00:58:16.573055   174 net.cpp:435] inception_4e/3x3_reduce <- inception_4d/output_inception_4d/output_0_split_2
I0811 00:58:16.573060   174 net.cpp:409] inception_4e/3x3_reduce -> inception_4e/3x3_reduce
I0811 00:58:16.574592   174 net.cpp:144] Setting up inception_4e/3x3_reduce
I0811 00:58:16.574606   174 net.cpp:151] Top shape: 16 160 14 14 (501760)
I0811 00:58:16.574610   174 net.cpp:159] Memory required for data: 814032464
I0811 00:58:16.574625   174 layer_factory.hpp:77] Creating layer inception_4e/relu_3x3_reduce
I0811 00:58:16.574633   174 net.cpp:94] Creating Layer inception_4e/relu_3x3_reduce
I0811 00:58:16.574637   174 net.cpp:435] inception_4e/relu_3x3_reduce <- inception_4e/3x3_reduce
I0811 00:58:16.574661   174 net.cpp:396] inception_4e/relu_3x3_reduce -> inception_4e/3x3_reduce (in-place)
I0811 00:58:16.574671   174 net.cpp:144] Setting up inception_4e/relu_3x3_reduce
I0811 00:58:16.574674   174 net.cpp:151] Top shape: 16 160 14 14 (501760)
I0811 00:58:16.574677   174 net.cpp:159] Memory required for data: 816039504
I0811 00:58:16.574681   174 layer_factory.hpp:77] Creating layer inception_4e/3x3
I0811 00:58:16.574734   174 net.cpp:94] Creating Layer inception_4e/3x3
I0811 00:58:16.574739   174 net.cpp:435] inception_4e/3x3 <- inception_4e/3x3_reduce
I0811 00:58:16.574745   174 net.cpp:409] inception_4e/3x3 -> inception_4e/3x3
I0811 00:58:16.578923   174 net.cpp:144] Setting up inception_4e/3x3
I0811 00:58:16.578938   174 net.cpp:151] Top shape: 16 320 14 14 (1003520)
I0811 00:58:16.578943   174 net.cpp:159] Memory required for data: 820053584
I0811 00:58:16.578948   174 layer_factory.hpp:77] Creating layer inception_4e/relu_3x3
I0811 00:58:16.578955   174 net.cpp:94] Creating Layer inception_4e/relu_3x3
I0811 00:58:16.578959   174 net.cpp:435] inception_4e/relu_3x3 <- inception_4e/3x3
I0811 00:58:16.578965   174 net.cpp:396] inception_4e/relu_3x3 -> inception_4e/3x3 (in-place)
I0811 00:58:16.578974   174 net.cpp:144] Setting up inception_4e/relu_3x3
I0811 00:58:16.578977   174 net.cpp:151] Top shape: 16 320 14 14 (1003520)
I0811 00:58:16.578980   174 net.cpp:159] Memory required for data: 824067664
I0811 00:58:16.578984   174 layer_factory.hpp:77] Creating layer inception_4e/5x5_reduce
I0811 00:58:16.578994   174 net.cpp:94] Creating Layer inception_4e/5x5_reduce
I0811 00:58:16.578999   174 net.cpp:435] inception_4e/5x5_reduce <- inception_4d/output_inception_4d/output_0_split_3
I0811 00:58:16.579006   174 net.cpp:409] inception_4e/5x5_reduce -> inception_4e/5x5_reduce
I0811 00:58:16.579322   174 net.cpp:144] Setting up inception_4e/5x5_reduce
I0811 00:58:16.579330   174 net.cpp:151] Top shape: 16 32 14 14 (100352)
I0811 00:58:16.579334   174 net.cpp:159] Memory required for data: 824469072
I0811 00:58:16.579339   174 layer_factory.hpp:77] Creating layer inception_4e/relu_5x5_reduce
I0811 00:58:16.579344   174 net.cpp:94] Creating Layer inception_4e/relu_5x5_reduce
I0811 00:58:16.579349   174 net.cpp:435] inception_4e/relu_5x5_reduce <- inception_4e/5x5_reduce
I0811 00:58:16.579365   174 net.cpp:396] inception_4e/relu_5x5_reduce -> inception_4e/5x5_reduce (in-place)
I0811 00:58:16.579372   174 net.cpp:144] Setting up inception_4e/relu_5x5_reduce
I0811 00:58:16.579408   174 net.cpp:151] Top shape: 16 32 14 14 (100352)
I0811 00:58:16.579412   174 net.cpp:159] Memory required for data: 824870480
I0811 00:58:16.579416   174 layer_factory.hpp:77] Creating layer inception_4e/5x5
I0811 00:58:16.579442   174 net.cpp:94] Creating Layer inception_4e/5x5
I0811 00:58:16.579447   174 net.cpp:435] inception_4e/5x5 <- inception_4e/5x5_reduce
I0811 00:58:16.579452   174 net.cpp:409] inception_4e/5x5 -> inception_4e/5x5
I0811 00:58:16.580375   174 net.cpp:144] Setting up inception_4e/5x5
I0811 00:58:16.580389   174 net.cpp:151] Top shape: 16 128 14 14 (401408)
I0811 00:58:16.580392   174 net.cpp:159] Memory required for data: 826476112
I0811 00:58:16.580399   174 layer_factory.hpp:77] Creating layer inception_4e/relu_5x5
I0811 00:58:16.580405   174 net.cpp:94] Creating Layer inception_4e/relu_5x5
I0811 00:58:16.580410   174 net.cpp:435] inception_4e/relu_5x5 <- inception_4e/5x5
I0811 00:58:16.580417   174 net.cpp:396] inception_4e/relu_5x5 -> inception_4e/5x5 (in-place)
I0811 00:58:16.580425   174 net.cpp:144] Setting up inception_4e/relu_5x5
I0811 00:58:16.580430   174 net.cpp:151] Top shape: 16 128 14 14 (401408)
I0811 00:58:16.580432   174 net.cpp:159] Memory required for data: 828081744
I0811 00:58:16.580436   174 layer_factory.hpp:77] Creating layer inception_4e/pool
I0811 00:58:16.580442   174 net.cpp:94] Creating Layer inception_4e/pool
I0811 00:58:16.580446   174 net.cpp:435] inception_4e/pool <- inception_4d/output_inception_4d/output_0_split_4
I0811 00:58:16.580454   174 net.cpp:409] inception_4e/pool -> inception_4e/pool
I0811 00:58:16.580518   174 net.cpp:144] Setting up inception_4e/pool
I0811 00:58:16.580526   174 net.cpp:151] Top shape: 16 528 14 14 (1655808)
I0811 00:58:16.580529   174 net.cpp:159] Memory required for data: 834704976
I0811 00:58:16.580533   174 layer_factory.hpp:77] Creating layer inception_4e/pool_proj
I0811 00:58:16.580543   174 net.cpp:94] Creating Layer inception_4e/pool_proj
I0811 00:58:16.580548   174 net.cpp:435] inception_4e/pool_proj <- inception_4e/pool
I0811 00:58:16.580579   174 net.cpp:409] inception_4e/pool_proj -> inception_4e/pool_proj
I0811 00:58:16.581187   174 net.cpp:144] Setting up inception_4e/pool_proj
I0811 00:58:16.581195   174 net.cpp:151] Top shape: 16 128 14 14 (401408)
I0811 00:58:16.581199   174 net.cpp:159] Memory required for data: 836310608
I0811 00:58:16.581204   174 layer_factory.hpp:77] Creating layer inception_4e/relu_pool_proj
I0811 00:58:16.581210   174 net.cpp:94] Creating Layer inception_4e/relu_pool_proj
I0811 00:58:16.581214   174 net.cpp:435] inception_4e/relu_pool_proj <- inception_4e/pool_proj
I0811 00:58:16.581220   174 net.cpp:396] inception_4e/relu_pool_proj -> inception_4e/pool_proj (in-place)
I0811 00:58:16.581228   174 net.cpp:144] Setting up inception_4e/relu_pool_proj
I0811 00:58:16.581231   174 net.cpp:151] Top shape: 16 128 14 14 (401408)
I0811 00:58:16.581234   174 net.cpp:159] Memory required for data: 837916240
I0811 00:58:16.581238   174 layer_factory.hpp:77] Creating layer inception_4e/output
I0811 00:58:16.581246   174 net.cpp:94] Creating Layer inception_4e/output
I0811 00:58:16.581250   174 net.cpp:435] inception_4e/output <- inception_4e/1x1
I0811 00:58:16.581255   174 net.cpp:435] inception_4e/output <- inception_4e/3x3
I0811 00:58:16.581259   174 net.cpp:435] inception_4e/output <- inception_4e/5x5
I0811 00:58:16.581264   174 net.cpp:435] inception_4e/output <- inception_4e/pool_proj
I0811 00:58:16.581269   174 net.cpp:409] inception_4e/output -> inception_4e/output
I0811 00:58:16.581295   174 net.cpp:144] Setting up inception_4e/output
I0811 00:58:16.581300   174 net.cpp:151] Top shape: 16 832 14 14 (2609152)
I0811 00:58:16.581303   174 net.cpp:159] Memory required for data: 848352848
I0811 00:58:16.581306   174 layer_factory.hpp:77] Creating layer pool4/3x3_s2
I0811 00:58:16.581315   174 net.cpp:94] Creating Layer pool4/3x3_s2
I0811 00:58:16.581318   174 net.cpp:435] pool4/3x3_s2 <- inception_4e/output
I0811 00:58:16.581324   174 net.cpp:409] pool4/3x3_s2 -> pool4/3x3_s2
I0811 00:58:16.581388   174 net.cpp:144] Setting up pool4/3x3_s2
I0811 00:58:16.581396   174 net.cpp:151] Top shape: 16 832 7 7 (652288)
I0811 00:58:16.581399   174 net.cpp:159] Memory required for data: 850962000
I0811 00:58:16.581403   174 layer_factory.hpp:77] Creating layer pool4/3x3_s2_pool4/3x3_s2_0_split
I0811 00:58:16.581409   174 net.cpp:94] Creating Layer pool4/3x3_s2_pool4/3x3_s2_0_split
I0811 00:58:16.581413   174 net.cpp:435] pool4/3x3_s2_pool4/3x3_s2_0_split <- pool4/3x3_s2
I0811 00:58:16.581421   174 net.cpp:409] pool4/3x3_s2_pool4/3x3_s2_0_split -> pool4/3x3_s2_pool4/3x3_s2_0_split_0
I0811 00:58:16.581429   174 net.cpp:409] pool4/3x3_s2_pool4/3x3_s2_0_split -> pool4/3x3_s2_pool4/3x3_s2_0_split_1
I0811 00:58:16.581435   174 net.cpp:409] pool4/3x3_s2_pool4/3x3_s2_0_split -> pool4/3x3_s2_pool4/3x3_s2_0_split_2
I0811 00:58:16.581444   174 net.cpp:409] pool4/3x3_s2_pool4/3x3_s2_0_split -> pool4/3x3_s2_pool4/3x3_s2_0_split_3
I0811 00:58:16.581499   174 net.cpp:144] Setting up pool4/3x3_s2_pool4/3x3_s2_0_split
I0811 00:58:16.581506   174 net.cpp:151] Top shape: 16 832 7 7 (652288)
I0811 00:58:16.581509   174 net.cpp:151] Top shape: 16 832 7 7 (652288)
I0811 00:58:16.581513   174 net.cpp:151] Top shape: 16 832 7 7 (652288)
I0811 00:58:16.581518   174 net.cpp:151] Top shape: 16 832 7 7 (652288)
I0811 00:58:16.581522   174 net.cpp:159] Memory required for data: 861398608
I0811 00:58:16.581526   174 layer_factory.hpp:77] Creating layer inception_5a/1x1
I0811 00:58:16.581535   174 net.cpp:94] Creating Layer inception_5a/1x1
I0811 00:58:16.581539   174 net.cpp:435] inception_5a/1x1 <- pool4/3x3_s2_pool4/3x3_s2_0_split_0
I0811 00:58:16.581548   174 net.cpp:409] inception_5a/1x1 -> inception_5a/1x1
I0811 00:58:16.583704   174 net.cpp:144] Setting up inception_5a/1x1
I0811 00:58:16.583719   174 net.cpp:151] Top shape: 16 256 7 7 (200704)
I0811 00:58:16.583724   174 net.cpp:159] Memory required for data: 862201424
I0811 00:58:16.583729   174 layer_factory.hpp:77] Creating layer inception_5a/relu_1x1
I0811 00:58:16.583735   174 net.cpp:94] Creating Layer inception_5a/relu_1x1
I0811 00:58:16.583739   174 net.cpp:435] inception_5a/relu_1x1 <- inception_5a/1x1
I0811 00:58:16.583745   174 net.cpp:396] inception_5a/relu_1x1 -> inception_5a/1x1 (in-place)
I0811 00:58:16.583753   174 net.cpp:144] Setting up inception_5a/relu_1x1
I0811 00:58:16.583758   174 net.cpp:151] Top shape: 16 256 7 7 (200704)
I0811 00:58:16.583761   174 net.cpp:159] Memory required for data: 863004240
I0811 00:58:16.583765   174 layer_factory.hpp:77] Creating layer inception_5a/3x3_reduce
I0811 00:58:16.583776   174 net.cpp:94] Creating Layer inception_5a/3x3_reduce
I0811 00:58:16.583781   174 net.cpp:435] inception_5a/3x3_reduce <- pool4/3x3_s2_pool4/3x3_s2_0_split_1
I0811 00:58:16.583787   174 net.cpp:409] inception_5a/3x3_reduce -> inception_5a/3x3_reduce
I0811 00:58:16.585578   174 net.cpp:144] Setting up inception_5a/3x3_reduce
I0811 00:58:16.585593   174 net.cpp:151] Top shape: 16 160 7 7 (125440)
I0811 00:58:16.585597   174 net.cpp:159] Memory required for data: 863506000
I0811 00:58:16.585603   174 layer_factory.hpp:77] Creating layer inception_5a/relu_3x3_reduce
I0811 00:58:16.585610   174 net.cpp:94] Creating Layer inception_5a/relu_3x3_reduce
I0811 00:58:16.585614   174 net.cpp:435] inception_5a/relu_3x3_reduce <- inception_5a/3x3_reduce
I0811 00:58:16.585623   174 net.cpp:396] inception_5a/relu_3x3_reduce -> inception_5a/3x3_reduce (in-place)
I0811 00:58:16.585630   174 net.cpp:144] Setting up inception_5a/relu_3x3_reduce
I0811 00:58:16.585635   174 net.cpp:151] Top shape: 16 160 7 7 (125440)
I0811 00:58:16.585638   174 net.cpp:159] Memory required for data: 864007760
I0811 00:58:16.585641   174 layer_factory.hpp:77] Creating layer inception_5a/3x3
I0811 00:58:16.585651   174 net.cpp:94] Creating Layer inception_5a/3x3
I0811 00:58:16.585655   174 net.cpp:435] inception_5a/3x3 <- inception_5a/3x3_reduce
I0811 00:58:16.585664   174 net.cpp:409] inception_5a/3x3 -> inception_5a/3x3
I0811 00:58:16.589888   174 net.cpp:144] Setting up inception_5a/3x3
I0811 00:58:16.589918   174 net.cpp:151] Top shape: 16 320 7 7 (250880)
I0811 00:58:16.589923   174 net.cpp:159] Memory required for data: 865011280
I0811 00:58:16.589929   174 layer_factory.hpp:77] Creating layer inception_5a/relu_3x3
I0811 00:58:16.589944   174 net.cpp:94] Creating Layer inception_5a/relu_3x3
I0811 00:58:16.589949   174 net.cpp:435] inception_5a/relu_3x3 <- inception_5a/3x3
I0811 00:58:16.589956   174 net.cpp:396] inception_5a/relu_3x3 -> inception_5a/3x3 (in-place)
I0811 00:58:16.589964   174 net.cpp:144] Setting up inception_5a/relu_3x3
I0811 00:58:16.589968   174 net.cpp:151] Top shape: 16 320 7 7 (250880)
I0811 00:58:16.589972   174 net.cpp:159] Memory required for data: 866014800
I0811 00:58:16.589975   174 layer_factory.hpp:77] Creating layer inception_5a/5x5_reduce
I0811 00:58:16.589990   174 net.cpp:94] Creating Layer inception_5a/5x5_reduce
I0811 00:58:16.589995   174 net.cpp:435] inception_5a/5x5_reduce <- pool4/3x3_s2_pool4/3x3_s2_0_split_2
I0811 00:58:16.590003   174 net.cpp:409] inception_5a/5x5_reduce -> inception_5a/5x5_reduce
I0811 00:58:16.590445   174 net.cpp:144] Setting up inception_5a/5x5_reduce
I0811 00:58:16.590454   174 net.cpp:151] Top shape: 16 32 7 7 (25088)
I0811 00:58:16.590458   174 net.cpp:159] Memory required for data: 866115152
I0811 00:58:16.590464   174 layer_factory.hpp:77] Creating layer inception_5a/relu_5x5_reduce
I0811 00:58:16.590471   174 net.cpp:94] Creating Layer inception_5a/relu_5x5_reduce
I0811 00:58:16.590474   174 net.cpp:435] inception_5a/relu_5x5_reduce <- inception_5a/5x5_reduce
I0811 00:58:16.590481   174 net.cpp:396] inception_5a/relu_5x5_reduce -> inception_5a/5x5_reduce (in-place)
I0811 00:58:16.590489   174 net.cpp:144] Setting up inception_5a/relu_5x5_reduce
I0811 00:58:16.590493   174 net.cpp:151] Top shape: 16 32 7 7 (25088)
I0811 00:58:16.590497   174 net.cpp:159] Memory required for data: 866215504
I0811 00:58:16.590500   174 layer_factory.hpp:77] Creating layer inception_5a/5x5
I0811 00:58:16.590509   174 net.cpp:94] Creating Layer inception_5a/5x5
I0811 00:58:16.590514   174 net.cpp:435] inception_5a/5x5 <- inception_5a/5x5_reduce
I0811 00:58:16.590521   174 net.cpp:409] inception_5a/5x5 -> inception_5a/5x5
I0811 00:58:16.591363   174 net.cpp:144] Setting up inception_5a/5x5
I0811 00:58:16.591373   174 net.cpp:151] Top shape: 16 128 7 7 (100352)
I0811 00:58:16.591377   174 net.cpp:159] Memory required for data: 866616912
I0811 00:58:16.591382   174 layer_factory.hpp:77] Creating layer inception_5a/relu_5x5
I0811 00:58:16.591403   174 net.cpp:94] Creating Layer inception_5a/relu_5x5
I0811 00:58:16.591406   174 net.cpp:435] inception_5a/relu_5x5 <- inception_5a/5x5
I0811 00:58:16.591413   174 net.cpp:396] inception_5a/relu_5x5 -> inception_5a/5x5 (in-place)
I0811 00:58:16.591418   174 net.cpp:144] Setting up inception_5a/relu_5x5
I0811 00:58:16.591423   174 net.cpp:151] Top shape: 16 128 7 7 (100352)
I0811 00:58:16.591426   174 net.cpp:159] Memory required for data: 867018320
I0811 00:58:16.591429   174 layer_factory.hpp:77] Creating layer inception_5a/pool
I0811 00:58:16.591435   174 net.cpp:94] Creating Layer inception_5a/pool
I0811 00:58:16.591439   174 net.cpp:435] inception_5a/pool <- pool4/3x3_s2_pool4/3x3_s2_0_split_3
I0811 00:58:16.591446   174 net.cpp:409] inception_5a/pool -> inception_5a/pool
I0811 00:58:16.591543   174 net.cpp:144] Setting up inception_5a/pool
I0811 00:58:16.591550   174 net.cpp:151] Top shape: 16 832 7 7 (652288)
I0811 00:58:16.591554   174 net.cpp:159] Memory required for data: 869627472
I0811 00:58:16.591557   174 layer_factory.hpp:77] Creating layer inception_5a/pool_proj
I0811 00:58:16.591565   174 net.cpp:94] Creating Layer inception_5a/pool_proj
I0811 00:58:16.591569   174 net.cpp:435] inception_5a/pool_proj <- inception_5a/pool
I0811 00:58:16.591575   174 net.cpp:409] inception_5a/pool_proj -> inception_5a/pool_proj
I0811 00:58:16.593231   174 net.cpp:144] Setting up inception_5a/pool_proj
I0811 00:58:16.593246   174 net.cpp:151] Top shape: 16 128 7 7 (100352)
I0811 00:58:16.593250   174 net.cpp:159] Memory required for data: 870028880
I0811 00:58:16.593272   174 layer_factory.hpp:77] Creating layer inception_5a/relu_pool_proj
I0811 00:58:16.593279   174 net.cpp:94] Creating Layer inception_5a/relu_pool_proj
I0811 00:58:16.593284   174 net.cpp:435] inception_5a/relu_pool_proj <- inception_5a/pool_proj
I0811 00:58:16.593291   174 net.cpp:396] inception_5a/relu_pool_proj -> inception_5a/pool_proj (in-place)
I0811 00:58:16.593298   174 net.cpp:144] Setting up inception_5a/relu_pool_proj
I0811 00:58:16.593303   174 net.cpp:151] Top shape: 16 128 7 7 (100352)
I0811 00:58:16.593307   174 net.cpp:159] Memory required for data: 870430288
I0811 00:58:16.593309   174 layer_factory.hpp:77] Creating layer inception_5a/output
I0811 00:58:16.593317   174 net.cpp:94] Creating Layer inception_5a/output
I0811 00:58:16.593322   174 net.cpp:435] inception_5a/output <- inception_5a/1x1
I0811 00:58:16.593327   174 net.cpp:435] inception_5a/output <- inception_5a/3x3
I0811 00:58:16.593331   174 net.cpp:435] inception_5a/output <- inception_5a/5x5
I0811 00:58:16.593335   174 net.cpp:435] inception_5a/output <- inception_5a/pool_proj
I0811 00:58:16.593340   174 net.cpp:409] inception_5a/output -> inception_5a/output
I0811 00:58:16.593379   174 net.cpp:144] Setting up inception_5a/output
I0811 00:58:16.593386   174 net.cpp:151] Top shape: 16 832 7 7 (652288)
I0811 00:58:16.593389   174 net.cpp:159] Memory required for data: 873039440
I0811 00:58:16.593394   174 layer_factory.hpp:77] Creating layer inception_5a/output_inception_5a/output_0_split
I0811 00:58:16.593402   174 net.cpp:94] Creating Layer inception_5a/output_inception_5a/output_0_split
I0811 00:58:16.593406   174 net.cpp:435] inception_5a/output_inception_5a/output_0_split <- inception_5a/output
I0811 00:58:16.593412   174 net.cpp:409] inception_5a/output_inception_5a/output_0_split -> inception_5a/output_inception_5a/output_0_split_0
I0811 00:58:16.593422   174 net.cpp:409] inception_5a/output_inception_5a/output_0_split -> inception_5a/output_inception_5a/output_0_split_1
I0811 00:58:16.593430   174 net.cpp:409] inception_5a/output_inception_5a/output_0_split -> inception_5a/output_inception_5a/output_0_split_2
I0811 00:58:16.593436   174 net.cpp:409] inception_5a/output_inception_5a/output_0_split -> inception_5a/output_inception_5a/output_0_split_3
I0811 00:58:16.593497   174 net.cpp:144] Setting up inception_5a/output_inception_5a/output_0_split
I0811 00:58:16.593505   174 net.cpp:151] Top shape: 16 832 7 7 (652288)
I0811 00:58:16.593509   174 net.cpp:151] Top shape: 16 832 7 7 (652288)
I0811 00:58:16.593513   174 net.cpp:151] Top shape: 16 832 7 7 (652288)
I0811 00:58:16.593518   174 net.cpp:151] Top shape: 16 832 7 7 (652288)
I0811 00:58:16.593520   174 net.cpp:159] Memory required for data: 883476048
I0811 00:58:16.593524   174 layer_factory.hpp:77] Creating layer inception_5b/1x1
I0811 00:58:16.593534   174 net.cpp:94] Creating Layer inception_5b/1x1
I0811 00:58:16.593539   174 net.cpp:435] inception_5b/1x1 <- inception_5a/output_inception_5a/output_0_split_0
I0811 00:58:16.593545   174 net.cpp:409] inception_5b/1x1 -> inception_5b/1x1
I0811 00:58:16.596487   174 net.cpp:144] Setting up inception_5b/1x1
I0811 00:58:16.596503   174 net.cpp:151] Top shape: 16 384 7 7 (301056)
I0811 00:58:16.596506   174 net.cpp:159] Memory required for data: 884680272
I0811 00:58:16.596513   174 layer_factory.hpp:77] Creating layer inception_5b/relu_1x1
I0811 00:58:16.596523   174 net.cpp:94] Creating Layer inception_5b/relu_1x1
I0811 00:58:16.596526   174 net.cpp:435] inception_5b/relu_1x1 <- inception_5b/1x1
I0811 00:58:16.596532   174 net.cpp:396] inception_5b/relu_1x1 -> inception_5b/1x1 (in-place)
I0811 00:58:16.596540   174 net.cpp:144] Setting up inception_5b/relu_1x1
I0811 00:58:16.596545   174 net.cpp:151] Top shape: 16 384 7 7 (301056)
I0811 00:58:16.596549   174 net.cpp:159] Memory required for data: 885884496
I0811 00:58:16.596551   174 layer_factory.hpp:77] Creating layer inception_5b/3x3_reduce
I0811 00:58:16.596562   174 net.cpp:94] Creating Layer inception_5b/3x3_reduce
I0811 00:58:16.596581   174 net.cpp:435] inception_5b/3x3_reduce <- inception_5a/output_inception_5a/output_0_split_1
I0811 00:58:16.596591   174 net.cpp:409] inception_5b/3x3_reduce -> inception_5b/3x3_reduce
I0811 00:58:16.598392   174 net.cpp:144] Setting up inception_5b/3x3_reduce
I0811 00:58:16.598407   174 net.cpp:151] Top shape: 16 192 7 7 (150528)
I0811 00:58:16.598409   174 net.cpp:159] Memory required for data: 886486608
I0811 00:58:16.598417   174 layer_factory.hpp:77] Creating layer inception_5b/relu_3x3_reduce
I0811 00:58:16.598425   174 net.cpp:94] Creating Layer inception_5b/relu_3x3_reduce
I0811 00:58:16.598430   174 net.cpp:435] inception_5b/relu_3x3_reduce <- inception_5b/3x3_reduce
I0811 00:58:16.598436   174 net.cpp:396] inception_5b/relu_3x3_reduce -> inception_5b/3x3_reduce (in-place)
I0811 00:58:16.598444   174 net.cpp:144] Setting up inception_5b/relu_3x3_reduce
I0811 00:58:16.598449   174 net.cpp:151] Top shape: 16 192 7 7 (150528)
I0811 00:58:16.598453   174 net.cpp:159] Memory required for data: 887088720
I0811 00:58:16.598455   174 layer_factory.hpp:77] Creating layer inception_5b/3x3
I0811 00:58:16.598465   174 net.cpp:94] Creating Layer inception_5b/3x3
I0811 00:58:16.598470   174 net.cpp:435] inception_5b/3x3 <- inception_5b/3x3_reduce
I0811 00:58:16.598479   174 net.cpp:409] inception_5b/3x3 -> inception_5b/3x3
I0811 00:58:16.604431   174 net.cpp:144] Setting up inception_5b/3x3
I0811 00:58:16.604457   174 net.cpp:151] Top shape: 16 384 7 7 (301056)
I0811 00:58:16.604461   174 net.cpp:159] Memory required for data: 888292944
I0811 00:58:16.604468   174 layer_factory.hpp:77] Creating layer inception_5b/relu_3x3
I0811 00:58:16.604475   174 net.cpp:94] Creating Layer inception_5b/relu_3x3
I0811 00:58:16.604480   174 net.cpp:435] inception_5b/relu_3x3 <- inception_5b/3x3
I0811 00:58:16.604485   174 net.cpp:396] inception_5b/relu_3x3 -> inception_5b/3x3 (in-place)
I0811 00:58:16.604494   174 net.cpp:144] Setting up inception_5b/relu_3x3
I0811 00:58:16.604498   174 net.cpp:151] Top shape: 16 384 7 7 (301056)
I0811 00:58:16.604501   174 net.cpp:159] Memory required for data: 889497168
I0811 00:58:16.604506   174 layer_factory.hpp:77] Creating layer inception_5b/5x5_reduce
I0811 00:58:16.604516   174 net.cpp:94] Creating Layer inception_5b/5x5_reduce
I0811 00:58:16.604521   174 net.cpp:435] inception_5b/5x5_reduce <- inception_5a/output_inception_5a/output_0_split_2
I0811 00:58:16.604538   174 net.cpp:409] inception_5b/5x5_reduce -> inception_5b/5x5_reduce
I0811 00:58:16.605020   174 net.cpp:144] Setting up inception_5b/5x5_reduce
I0811 00:58:16.605028   174 net.cpp:151] Top shape: 16 48 7 7 (37632)
I0811 00:58:16.605031   174 net.cpp:159] Memory required for data: 889647696
I0811 00:58:16.605037   174 layer_factory.hpp:77] Creating layer inception_5b/relu_5x5_reduce
I0811 00:58:16.605043   174 net.cpp:94] Creating Layer inception_5b/relu_5x5_reduce
I0811 00:58:16.605048   174 net.cpp:435] inception_5b/relu_5x5_reduce <- inception_5b/5x5_reduce
I0811 00:58:16.605056   174 net.cpp:396] inception_5b/relu_5x5_reduce -> inception_5b/5x5_reduce (in-place)
I0811 00:58:16.605063   174 net.cpp:144] Setting up inception_5b/relu_5x5_reduce
I0811 00:58:16.605068   174 net.cpp:151] Top shape: 16 48 7 7 (37632)
I0811 00:58:16.605072   174 net.cpp:159] Memory required for data: 889798224
I0811 00:58:16.605074   174 layer_factory.hpp:77] Creating layer inception_5b/5x5
I0811 00:58:16.605084   174 net.cpp:94] Creating Layer inception_5b/5x5
I0811 00:58:16.605089   174 net.cpp:435] inception_5b/5x5 <- inception_5b/5x5_reduce
I0811 00:58:16.605098   174 net.cpp:409] inception_5b/5x5 -> inception_5b/5x5
I0811 00:58:16.606281   174 net.cpp:144] Setting up inception_5b/5x5
I0811 00:58:16.606289   174 net.cpp:151] Top shape: 16 128 7 7 (100352)
I0811 00:58:16.606293   174 net.cpp:159] Memory required for data: 890199632
I0811 00:58:16.606298   174 layer_factory.hpp:77] Creating layer inception_5b/relu_5x5
I0811 00:58:16.606304   174 net.cpp:94] Creating Layer inception_5b/relu_5x5
I0811 00:58:16.606308   174 net.cpp:435] inception_5b/relu_5x5 <- inception_5b/5x5
I0811 00:58:16.606329   174 net.cpp:396] inception_5b/relu_5x5 -> inception_5b/5x5 (in-place)
I0811 00:58:16.606340   174 net.cpp:144] Setting up inception_5b/relu_5x5
I0811 00:58:16.606345   174 net.cpp:151] Top shape: 16 128 7 7 (100352)
I0811 00:58:16.606349   174 net.cpp:159] Memory required for data: 890601040
I0811 00:58:16.606359   174 layer_factory.hpp:77] Creating layer inception_5b/pool
I0811 00:58:16.606365   174 net.cpp:94] Creating Layer inception_5b/pool
I0811 00:58:16.606369   174 net.cpp:435] inception_5b/pool <- inception_5a/output_inception_5a/output_0_split_3
I0811 00:58:16.606377   174 net.cpp:409] inception_5b/pool -> inception_5b/pool
I0811 00:58:16.606420   174 net.cpp:144] Setting up inception_5b/pool
I0811 00:58:16.606427   174 net.cpp:151] Top shape: 16 832 7 7 (652288)
I0811 00:58:16.606431   174 net.cpp:159] Memory required for data: 893210192
I0811 00:58:16.606434   174 layer_factory.hpp:77] Creating layer inception_5b/pool_proj
I0811 00:58:16.606444   174 net.cpp:94] Creating Layer inception_5b/pool_proj
I0811 00:58:16.606448   174 net.cpp:435] inception_5b/pool_proj <- inception_5b/pool
I0811 00:58:16.606456   174 net.cpp:409] inception_5b/pool_proj -> inception_5b/pool_proj
I0811 00:58:16.607980   174 net.cpp:144] Setting up inception_5b/pool_proj
I0811 00:58:16.608000   174 net.cpp:151] Top shape: 16 128 7 7 (100352)
I0811 00:58:16.608006   174 net.cpp:159] Memory required for data: 893611600
I0811 00:58:16.608016   174 layer_factory.hpp:77] Creating layer inception_5b/relu_pool_proj
I0811 00:58:16.608024   174 net.cpp:94] Creating Layer inception_5b/relu_pool_proj
I0811 00:58:16.608028   174 net.cpp:435] inception_5b/relu_pool_proj <- inception_5b/pool_proj
I0811 00:58:16.608037   174 net.cpp:396] inception_5b/relu_pool_proj -> inception_5b/pool_proj (in-place)
I0811 00:58:16.608045   174 net.cpp:144] Setting up inception_5b/relu_pool_proj
I0811 00:58:16.608050   174 net.cpp:151] Top shape: 16 128 7 7 (100352)
I0811 00:58:16.608053   174 net.cpp:159] Memory required for data: 894013008
I0811 00:58:16.608057   174 layer_factory.hpp:77] Creating layer inception_5b/output
I0811 00:58:16.608062   174 net.cpp:94] Creating Layer inception_5b/output
I0811 00:58:16.608065   174 net.cpp:435] inception_5b/output <- inception_5b/1x1
I0811 00:58:16.608085   174 net.cpp:435] inception_5b/output <- inception_5b/3x3
I0811 00:58:16.608090   174 net.cpp:435] inception_5b/output <- inception_5b/5x5
I0811 00:58:16.608094   174 net.cpp:435] inception_5b/output <- inception_5b/pool_proj
I0811 00:58:16.608101   174 net.cpp:409] inception_5b/output -> inception_5b/output
I0811 00:58:16.608130   174 net.cpp:144] Setting up inception_5b/output
I0811 00:58:16.608139   174 net.cpp:151] Top shape: 16 1024 7 7 (802816)
I0811 00:58:16.608142   174 net.cpp:159] Memory required for data: 897224272
I0811 00:58:16.608146   174 layer_factory.hpp:77] Creating layer pool5/7x7_s1
I0811 00:58:16.608152   174 net.cpp:94] Creating Layer pool5/7x7_s1
I0811 00:58:16.608156   174 net.cpp:435] pool5/7x7_s1 <- inception_5b/output
I0811 00:58:16.608161   174 net.cpp:409] pool5/7x7_s1 -> pool5/7x7_s1
I0811 00:58:16.608187   174 net.cpp:144] Setting up pool5/7x7_s1
I0811 00:58:16.608193   174 net.cpp:151] Top shape: 16 1024 1 1 (16384)
I0811 00:58:16.608196   174 net.cpp:159] Memory required for data: 897289808
I0811 00:58:16.608201   174 layer_factory.hpp:77] Creating layer pool5/drop_7x7_s1
I0811 00:58:16.608207   174 net.cpp:94] Creating Layer pool5/drop_7x7_s1
I0811 00:58:16.608212   174 net.cpp:435] pool5/drop_7x7_s1 <- pool5/7x7_s1
I0811 00:58:16.608217   174 net.cpp:396] pool5/drop_7x7_s1 -> pool5/7x7_s1 (in-place)
I0811 00:58:16.608238   174 net.cpp:144] Setting up pool5/drop_7x7_s1
I0811 00:58:16.608243   174 net.cpp:151] Top shape: 16 1024 1 1 (16384)
I0811 00:58:16.608247   174 net.cpp:159] Memory required for data: 897355344
I0811 00:58:16.608250   174 layer_factory.hpp:77] Creating layer loss3/classifier
I0811 00:58:16.608256   174 net.cpp:94] Creating Layer loss3/classifier
I0811 00:58:16.608275   174 net.cpp:435] loss3/classifier <- pool5/7x7_s1
I0811 00:58:16.608286   174 net.cpp:409] loss3/classifier -> loss3/classifier
I0811 00:58:16.608412   174 net.cpp:144] Setting up loss3/classifier
I0811 00:58:16.608419   174 net.cpp:151] Top shape: 16 3 (48)
I0811 00:58:16.608422   174 net.cpp:159] Memory required for data: 897355536
I0811 00:58:16.608428   174 layer_factory.hpp:77] Creating layer loss3/classifier_loss3/classifier_0_split
I0811 00:58:16.608434   174 net.cpp:94] Creating Layer loss3/classifier_loss3/classifier_0_split
I0811 00:58:16.608438   174 net.cpp:435] loss3/classifier_loss3/classifier_0_split <- loss3/classifier
I0811 00:58:16.608446   174 net.cpp:409] loss3/classifier_loss3/classifier_0_split -> loss3/classifier_loss3/classifier_0_split_0
I0811 00:58:16.608453   174 net.cpp:409] loss3/classifier_loss3/classifier_0_split -> loss3/classifier_loss3/classifier_0_split_1
I0811 00:58:16.608486   174 net.cpp:144] Setting up loss3/classifier_loss3/classifier_0_split
I0811 00:58:16.608492   174 net.cpp:151] Top shape: 16 3 (48)
I0811 00:58:16.608495   174 net.cpp:151] Top shape: 16 3 (48)
I0811 00:58:16.608498   174 net.cpp:159] Memory required for data: 897355920
I0811 00:58:16.608501   174 layer_factory.hpp:77] Creating layer loss3/loss
I0811 00:58:16.608511   174 net.cpp:94] Creating Layer loss3/loss
I0811 00:58:16.608515   174 net.cpp:435] loss3/loss <- loss3/classifier_loss3/classifier_0_split_0
I0811 00:58:16.608520   174 net.cpp:435] loss3/loss <- label_val-data_1_split_4
…
